{"class_name": "Model", "keras_version": "2.2.4", "config": {"layers": [{"class_name": "InputLayer", "config": {"dtype": "float32", "batch_input_shape": [null, 224, 224, 1], "name": "input_1", "sparse": false}, "inbound_nodes": [], "name": "input_1"}, {"class_name": "InputLayer", "config": {"dtype": "float32", "batch_input_shape": [null, 224, 224, 1], "name": "input_2", "sparse": false}, "inbound_nodes": [], "name": "input_2"}, {"class_name": "InputLayer", "config": {"dtype": "float32", "batch_input_shape": [null, 224, 224, 1], "name": "input_3", "sparse": false}, "inbound_nodes": [], "name": "input_3"}, {"class_name": "InputLayer", "config": {"dtype": "float32", "batch_input_shape": [null, 224, 224, 1], "name": "input_4", "sparse": false}, "inbound_nodes": [], "name": "input_4"}, {"class_name": "InputLayer", "config": {"dtype": "float32", "batch_input_shape": [null, 224, 224, 1], "name": "input_5", "sparse": false}, "inbound_nodes": [], "name": "input_5"}, {"class_name": "InputLayer", "config": {"dtype": "float32", "batch_input_shape": [null, 224, 224, 1], "name": "input_6", "sparse": false}, "inbound_nodes": [], "name": "input_6"}, {"class_name": "InputLayer", "config": {"dtype": "float32", "batch_input_shape": [null, 224, 224, 1], "name": "input_7", "sparse": false}, "inbound_nodes": [], "name": "input_7"}, {"class_name": "InputLayer", "config": {"dtype": "float32", "batch_input_shape": [null, 224, 224, 1], "name": "input_8", "sparse": false}, "inbound_nodes": [], "name": "input_8"}, {"class_name": "InputLayer", "config": {"dtype": "float32", "batch_input_shape": [null, 224, 224, 1], "name": "input_9", "sparse": false}, "inbound_nodes": [], "name": "input_9"}, {"class_name": "InputLayer", "config": {"dtype": "float32", "batch_input_shape": [null, 224, 224, 1], "name": "input_10", "sparse": false}, "inbound_nodes": [], "name": "input_10"}, {"class_name": "InputLayer", "config": {"dtype": "float32", "batch_input_shape": [null, 224, 224, 1], "name": "input_11", "sparse": false}, "inbound_nodes": [], "name": "input_11"}, {"class_name": "InputLayer", "config": {"dtype": "float32", "batch_input_shape": [null, 224, 224, 1], "name": "input_12", "sparse": false}, "inbound_nodes": [], "name": "input_12"}, {"class_name": "InputLayer", "config": {"dtype": "float32", "batch_input_shape": [null, 224, 224, 1], "name": "input_13", "sparse": false}, "inbound_nodes": [], "name": "input_13"}, {"class_name": "InputLayer", "config": {"dtype": "float32", "batch_input_shape": [null, 224, 224, 1], "name": "input_14", "sparse": false}, "inbound_nodes": [], "name": "input_14"}, {"class_name": "InputLayer", "config": {"dtype": "float32", "batch_input_shape": [null, 224, 224, 1], "name": "input_15", "sparse": false}, "inbound_nodes": [], "name": "input_15"}, {"class_name": "InputLayer", "config": {"dtype": "float32", "batch_input_shape": [null, 224, 224, 1], "name": "input_16", "sparse": false}, "inbound_nodes": [], "name": "input_16"}, {"class_name": "InputLayer", "config": {"dtype": "float32", "batch_input_shape": [null, 224, 224, 1], "name": "input_17", "sparse": false}, "inbound_nodes": [], "name": "input_17"}, {"class_name": "InputLayer", "config": {"dtype": "float32", "batch_input_shape": [null, 224, 224, 1], "name": "input_18", "sparse": false}, "inbound_nodes": [], "name": "input_18"}, {"class_name": "InputLayer", "config": {"dtype": "float32", "batch_input_shape": [null, 224, 224, 1], "name": "input_19", "sparse": false}, "inbound_nodes": [], "name": "input_19"}, {"class_name": "InputLayer", "config": {"dtype": "float32", "batch_input_shape": [null, 224, 224, 1], "name": "input_20", "sparse": false}, "inbound_nodes": [], "name": "input_20"}, {"class_name": "InputLayer", "config": {"dtype": "float32", "batch_input_shape": [null, 224, 224, 1], "name": "input_21", "sparse": false}, "inbound_nodes": [], "name": "input_21"}, {"class_name": "InputLayer", "config": {"dtype": "float32", "batch_input_shape": [null, 224, 224, 1], "name": "input_22", "sparse": false}, "inbound_nodes": [], "name": "input_22"}, {"class_name": "InputLayer", "config": {"dtype": "float32", "batch_input_shape": [null, 224, 224, 1], "name": "input_23", "sparse": false}, "inbound_nodes": [], "name": "input_23"}, {"class_name": "InputLayer", "config": {"dtype": "float32", "batch_input_shape": [null, 224, 224, 1], "name": "input_24", "sparse": false}, "inbound_nodes": [], "name": "input_24"}, {"class_name": "InputLayer", "config": {"dtype": "float32", "batch_input_shape": [null, 224, 224, 1], "name": "input_25", "sparse": false}, "inbound_nodes": [], "name": "input_25"}, {"class_name": "InputLayer", "config": {"dtype": "float32", "batch_input_shape": [null, 224, 224, 1], "name": "input_26", "sparse": false}, "inbound_nodes": [], "name": "input_26"}, {"class_name": "InputLayer", "config": {"dtype": "float32", "batch_input_shape": [null, 224, 224, 1], "name": "input_27", "sparse": false}, "inbound_nodes": [], "name": "input_27"}, {"class_name": "Lambda", "config": {"function": ["YwMAAAAKAAAABAAAAFNgAQBzqwAAAHQAAGoBAHwAAIMBAH0DAHwDAGQBACB9BAB8AwBkAQAffQUA\nfAQAfAIAGn0GAHwBAHwCAGQBABhrAgByTgB8BAB8BgB8AQAUGH0HAG4GAHwGAH0HAHQAAGoCAHwH\nAHwFAGcCAGQCAGQDAIMBAX0HAHQAAGoCAHwGAHwFAGQDABRnAgBkAgBkAwCDAQF9CAB8CAB8AQAU\nfQkAdAAAagMAfAAAfAkAfAcAgwMAUygEAAAATmkBAAAAdAQAAABheGlzaQAAAAAoBAAAAHQBAAAA\nS3QFAAAAc2hhcGV0CwAAAGNvbmNhdGVuYXRldAUAAABzbGljZSgKAAAAdAQAAABkYXRhdAEAAABp\ndAUAAABwYXJ0c1ICAAAAdAoAAABiYXRjaF9zaXpldAsAAABpbnB1dF9zaGFwZXQEAAAAc3RlcHQE\nAAAAc2l6ZXQGAAAAc3RyaWRldAUAAABzdGFydCgAAAAAKAAAAABzTQAAAC9ob21lL3RhbnlhLy5s\nb2NhbC9saWIvcHl0aG9uMi43L3NpdGUtcGFja2FnZXMva2VyYXMvdXRpbHMvbXVsdGlfZ3B1X3V0\naWxzLnB5dAkAAABnZXRfc2xpY2W3AAAAcxYAAAAAAQ8BCgEKAQoBEAERAgYBGwEfAQoB\n", null, null], "name": "lambda_1", "trainable": true, "function_type": "lambda", "arguments": {"i": 0, "parts": 2}, "output_shape": [224, 224, 1], "output_shape_type": "raw"}, "inbound_nodes": [[["input_1", 0, 0, {}]]], "name": "lambda_1"}, {"class_name": "Lambda", "config": {"function": ["YwMAAAAKAAAABAAAAFNgAQBzqwAAAHQAAGoBAHwAAIMBAH0DAHwDAGQBACB9BAB8AwBkAQAffQUA\nfAQAfAIAGn0GAHwBAHwCAGQBABhrAgByTgB8BAB8BgB8AQAUGH0HAG4GAHwGAH0HAHQAAGoCAHwH\nAHwFAGcCAGQCAGQDAIMBAX0HAHQAAGoCAHwGAHwFAGQDABRnAgBkAgBkAwCDAQF9CAB8CAB8AQAU\nfQkAdAAAagMAfAAAfAkAfAcAgwMAUygEAAAATmkBAAAAdAQAAABheGlzaQAAAAAoBAAAAHQBAAAA\nS3QFAAAAc2hhcGV0CwAAAGNvbmNhdGVuYXRldAUAAABzbGljZSgKAAAAdAQAAABkYXRhdAEAAABp\ndAUAAABwYXJ0c1ICAAAAdAoAAABiYXRjaF9zaXpldAsAAABpbnB1dF9zaGFwZXQEAAAAc3RlcHQE\nAAAAc2l6ZXQGAAAAc3RyaWRldAUAAABzdGFydCgAAAAAKAAAAABzTQAAAC9ob21lL3RhbnlhLy5s\nb2NhbC9saWIvcHl0aG9uMi43L3NpdGUtcGFja2FnZXMva2VyYXMvdXRpbHMvbXVsdGlfZ3B1X3V0\naWxzLnB5dAkAAABnZXRfc2xpY2W3AAAAcxYAAAAAAQ8BCgEKAQoBEAERAgYBGwEfAQoB\n", null, null], "name": "lambda_2", "trainable": true, "function_type": "lambda", "arguments": {"i": 0, "parts": 2}, "output_shape": [224, 224, 1], "output_shape_type": "raw"}, "inbound_nodes": [[["input_2", 0, 0, {}]]], "name": "lambda_2"}, {"class_name": "Lambda", "config": {"function": ["YwMAAAAKAAAABAAAAFNgAQBzqwAAAHQAAGoBAHwAAIMBAH0DAHwDAGQBACB9BAB8AwBkAQAffQUA\nfAQAfAIAGn0GAHwBAHwCAGQBABhrAgByTgB8BAB8BgB8AQAUGH0HAG4GAHwGAH0HAHQAAGoCAHwH\nAHwFAGcCAGQCAGQDAIMBAX0HAHQAAGoCAHwGAHwFAGQDABRnAgBkAgBkAwCDAQF9CAB8CAB8AQAU\nfQkAdAAAagMAfAAAfAkAfAcAgwMAUygEAAAATmkBAAAAdAQAAABheGlzaQAAAAAoBAAAAHQBAAAA\nS3QFAAAAc2hhcGV0CwAAAGNvbmNhdGVuYXRldAUAAABzbGljZSgKAAAAdAQAAABkYXRhdAEAAABp\ndAUAAABwYXJ0c1ICAAAAdAoAAABiYXRjaF9zaXpldAsAAABpbnB1dF9zaGFwZXQEAAAAc3RlcHQE\nAAAAc2l6ZXQGAAAAc3RyaWRldAUAAABzdGFydCgAAAAAKAAAAABzTQAAAC9ob21lL3RhbnlhLy5s\nb2NhbC9saWIvcHl0aG9uMi43L3NpdGUtcGFja2FnZXMva2VyYXMvdXRpbHMvbXVsdGlfZ3B1X3V0\naWxzLnB5dAkAAABnZXRfc2xpY2W3AAAAcxYAAAAAAQ8BCgEKAQoBEAERAgYBGwEfAQoB\n", null, null], "name": "lambda_3", "trainable": true, "function_type": "lambda", "arguments": {"i": 0, "parts": 2}, "output_shape": [224, 224, 1], "output_shape_type": "raw"}, "inbound_nodes": [[["input_3", 0, 0, {}]]], "name": "lambda_3"}, {"class_name": "Lambda", "config": {"function": ["YwMAAAAKAAAABAAAAFNgAQBzqwAAAHQAAGoBAHwAAIMBAH0DAHwDAGQBACB9BAB8AwBkAQAffQUA\nfAQAfAIAGn0GAHwBAHwCAGQBABhrAgByTgB8BAB8BgB8AQAUGH0HAG4GAHwGAH0HAHQAAGoCAHwH\nAHwFAGcCAGQCAGQDAIMBAX0HAHQAAGoCAHwGAHwFAGQDABRnAgBkAgBkAwCDAQF9CAB8CAB8AQAU\nfQkAdAAAagMAfAAAfAkAfAcAgwMAUygEAAAATmkBAAAAdAQAAABheGlzaQAAAAAoBAAAAHQBAAAA\nS3QFAAAAc2hhcGV0CwAAAGNvbmNhdGVuYXRldAUAAABzbGljZSgKAAAAdAQAAABkYXRhdAEAAABp\ndAUAAABwYXJ0c1ICAAAAdAoAAABiYXRjaF9zaXpldAsAAABpbnB1dF9zaGFwZXQEAAAAc3RlcHQE\nAAAAc2l6ZXQGAAAAc3RyaWRldAUAAABzdGFydCgAAAAAKAAAAABzTQAAAC9ob21lL3RhbnlhLy5s\nb2NhbC9saWIvcHl0aG9uMi43L3NpdGUtcGFja2FnZXMva2VyYXMvdXRpbHMvbXVsdGlfZ3B1X3V0\naWxzLnB5dAkAAABnZXRfc2xpY2W3AAAAcxYAAAAAAQ8BCgEKAQoBEAERAgYBGwEfAQoB\n", null, null], "name": "lambda_4", "trainable": true, "function_type": "lambda", "arguments": {"i": 0, "parts": 2}, "output_shape": [224, 224, 1], "output_shape_type": "raw"}, "inbound_nodes": [[["input_4", 0, 0, {}]]], "name": "lambda_4"}, {"class_name": "Lambda", "config": {"function": ["YwMAAAAKAAAABAAAAFNgAQBzqwAAAHQAAGoBAHwAAIMBAH0DAHwDAGQBACB9BAB8AwBkAQAffQUA\nfAQAfAIAGn0GAHwBAHwCAGQBABhrAgByTgB8BAB8BgB8AQAUGH0HAG4GAHwGAH0HAHQAAGoCAHwH\nAHwFAGcCAGQCAGQDAIMBAX0HAHQAAGoCAHwGAHwFAGQDABRnAgBkAgBkAwCDAQF9CAB8CAB8AQAU\nfQkAdAAAagMAfAAAfAkAfAcAgwMAUygEAAAATmkBAAAAdAQAAABheGlzaQAAAAAoBAAAAHQBAAAA\nS3QFAAAAc2hhcGV0CwAAAGNvbmNhdGVuYXRldAUAAABzbGljZSgKAAAAdAQAAABkYXRhdAEAAABp\ndAUAAABwYXJ0c1ICAAAAdAoAAABiYXRjaF9zaXpldAsAAABpbnB1dF9zaGFwZXQEAAAAc3RlcHQE\nAAAAc2l6ZXQGAAAAc3RyaWRldAUAAABzdGFydCgAAAAAKAAAAABzTQAAAC9ob21lL3RhbnlhLy5s\nb2NhbC9saWIvcHl0aG9uMi43L3NpdGUtcGFja2FnZXMva2VyYXMvdXRpbHMvbXVsdGlfZ3B1X3V0\naWxzLnB5dAkAAABnZXRfc2xpY2W3AAAAcxYAAAAAAQ8BCgEKAQoBEAERAgYBGwEfAQoB\n", null, null], "name": "lambda_5", "trainable": true, "function_type": "lambda", "arguments": {"i": 0, "parts": 2}, "output_shape": [224, 224, 1], "output_shape_type": "raw"}, "inbound_nodes": [[["input_5", 0, 0, {}]]], "name": "lambda_5"}, {"class_name": "Lambda", "config": {"function": ["YwMAAAAKAAAABAAAAFNgAQBzqwAAAHQAAGoBAHwAAIMBAH0DAHwDAGQBACB9BAB8AwBkAQAffQUA\nfAQAfAIAGn0GAHwBAHwCAGQBABhrAgByTgB8BAB8BgB8AQAUGH0HAG4GAHwGAH0HAHQAAGoCAHwH\nAHwFAGcCAGQCAGQDAIMBAX0HAHQAAGoCAHwGAHwFAGQDABRnAgBkAgBkAwCDAQF9CAB8CAB8AQAU\nfQkAdAAAagMAfAAAfAkAfAcAgwMAUygEAAAATmkBAAAAdAQAAABheGlzaQAAAAAoBAAAAHQBAAAA\nS3QFAAAAc2hhcGV0CwAAAGNvbmNhdGVuYXRldAUAAABzbGljZSgKAAAAdAQAAABkYXRhdAEAAABp\ndAUAAABwYXJ0c1ICAAAAdAoAAABiYXRjaF9zaXpldAsAAABpbnB1dF9zaGFwZXQEAAAAc3RlcHQE\nAAAAc2l6ZXQGAAAAc3RyaWRldAUAAABzdGFydCgAAAAAKAAAAABzTQAAAC9ob21lL3RhbnlhLy5s\nb2NhbC9saWIvcHl0aG9uMi43L3NpdGUtcGFja2FnZXMva2VyYXMvdXRpbHMvbXVsdGlfZ3B1X3V0\naWxzLnB5dAkAAABnZXRfc2xpY2W3AAAAcxYAAAAAAQ8BCgEKAQoBEAERAgYBGwEfAQoB\n", null, null], "name": "lambda_6", "trainable": true, "function_type": "lambda", "arguments": {"i": 0, "parts": 2}, "output_shape": [224, 224, 1], "output_shape_type": "raw"}, "inbound_nodes": [[["input_6", 0, 0, {}]]], "name": "lambda_6"}, {"class_name": "Lambda", "config": {"function": ["YwMAAAAKAAAABAAAAFNgAQBzqwAAAHQAAGoBAHwAAIMBAH0DAHwDAGQBACB9BAB8AwBkAQAffQUA\nfAQAfAIAGn0GAHwBAHwCAGQBABhrAgByTgB8BAB8BgB8AQAUGH0HAG4GAHwGAH0HAHQAAGoCAHwH\nAHwFAGcCAGQCAGQDAIMBAX0HAHQAAGoCAHwGAHwFAGQDABRnAgBkAgBkAwCDAQF9CAB8CAB8AQAU\nfQkAdAAAagMAfAAAfAkAfAcAgwMAUygEAAAATmkBAAAAdAQAAABheGlzaQAAAAAoBAAAAHQBAAAA\nS3QFAAAAc2hhcGV0CwAAAGNvbmNhdGVuYXRldAUAAABzbGljZSgKAAAAdAQAAABkYXRhdAEAAABp\ndAUAAABwYXJ0c1ICAAAAdAoAAABiYXRjaF9zaXpldAsAAABpbnB1dF9zaGFwZXQEAAAAc3RlcHQE\nAAAAc2l6ZXQGAAAAc3RyaWRldAUAAABzdGFydCgAAAAAKAAAAABzTQAAAC9ob21lL3RhbnlhLy5s\nb2NhbC9saWIvcHl0aG9uMi43L3NpdGUtcGFja2FnZXMva2VyYXMvdXRpbHMvbXVsdGlfZ3B1X3V0\naWxzLnB5dAkAAABnZXRfc2xpY2W3AAAAcxYAAAAAAQ8BCgEKAQoBEAERAgYBGwEfAQoB\n", null, null], "name": "lambda_7", "trainable": true, "function_type": "lambda", "arguments": {"i": 0, "parts": 2}, "output_shape": [224, 224, 1], "output_shape_type": "raw"}, "inbound_nodes": [[["input_7", 0, 0, {}]]], "name": "lambda_7"}, {"class_name": "Lambda", "config": {"function": ["YwMAAAAKAAAABAAAAFNgAQBzqwAAAHQAAGoBAHwAAIMBAH0DAHwDAGQBACB9BAB8AwBkAQAffQUA\nfAQAfAIAGn0GAHwBAHwCAGQBABhrAgByTgB8BAB8BgB8AQAUGH0HAG4GAHwGAH0HAHQAAGoCAHwH\nAHwFAGcCAGQCAGQDAIMBAX0HAHQAAGoCAHwGAHwFAGQDABRnAgBkAgBkAwCDAQF9CAB8CAB8AQAU\nfQkAdAAAagMAfAAAfAkAfAcAgwMAUygEAAAATmkBAAAAdAQAAABheGlzaQAAAAAoBAAAAHQBAAAA\nS3QFAAAAc2hhcGV0CwAAAGNvbmNhdGVuYXRldAUAAABzbGljZSgKAAAAdAQAAABkYXRhdAEAAABp\ndAUAAABwYXJ0c1ICAAAAdAoAAABiYXRjaF9zaXpldAsAAABpbnB1dF9zaGFwZXQEAAAAc3RlcHQE\nAAAAc2l6ZXQGAAAAc3RyaWRldAUAAABzdGFydCgAAAAAKAAAAABzTQAAAC9ob21lL3RhbnlhLy5s\nb2NhbC9saWIvcHl0aG9uMi43L3NpdGUtcGFja2FnZXMva2VyYXMvdXRpbHMvbXVsdGlfZ3B1X3V0\naWxzLnB5dAkAAABnZXRfc2xpY2W3AAAAcxYAAAAAAQ8BCgEKAQoBEAERAgYBGwEfAQoB\n", null, null], "name": "lambda_8", "trainable": true, "function_type": "lambda", "arguments": {"i": 0, "parts": 2}, "output_shape": [224, 224, 1], "output_shape_type": "raw"}, "inbound_nodes": [[["input_8", 0, 0, {}]]], "name": "lambda_8"}, {"class_name": "Lambda", "config": {"function": ["YwMAAAAKAAAABAAAAFNgAQBzqwAAAHQAAGoBAHwAAIMBAH0DAHwDAGQBACB9BAB8AwBkAQAffQUA\nfAQAfAIAGn0GAHwBAHwCAGQBABhrAgByTgB8BAB8BgB8AQAUGH0HAG4GAHwGAH0HAHQAAGoCAHwH\nAHwFAGcCAGQCAGQDAIMBAX0HAHQAAGoCAHwGAHwFAGQDABRnAgBkAgBkAwCDAQF9CAB8CAB8AQAU\nfQkAdAAAagMAfAAAfAkAfAcAgwMAUygEAAAATmkBAAAAdAQAAABheGlzaQAAAAAoBAAAAHQBAAAA\nS3QFAAAAc2hhcGV0CwAAAGNvbmNhdGVuYXRldAUAAABzbGljZSgKAAAAdAQAAABkYXRhdAEAAABp\ndAUAAABwYXJ0c1ICAAAAdAoAAABiYXRjaF9zaXpldAsAAABpbnB1dF9zaGFwZXQEAAAAc3RlcHQE\nAAAAc2l6ZXQGAAAAc3RyaWRldAUAAABzdGFydCgAAAAAKAAAAABzTQAAAC9ob21lL3RhbnlhLy5s\nb2NhbC9saWIvcHl0aG9uMi43L3NpdGUtcGFja2FnZXMva2VyYXMvdXRpbHMvbXVsdGlfZ3B1X3V0\naWxzLnB5dAkAAABnZXRfc2xpY2W3AAAAcxYAAAAAAQ8BCgEKAQoBEAERAgYBGwEfAQoB\n", null, null], "name": "lambda_9", "trainable": true, "function_type": "lambda", "arguments": {"i": 0, "parts": 2}, "output_shape": [224, 224, 1], "output_shape_type": "raw"}, "inbound_nodes": [[["input_9", 0, 0, {}]]], "name": "lambda_9"}, {"class_name": "Lambda", "config": {"function": ["YwMAAAAKAAAABAAAAFNgAQBzqwAAAHQAAGoBAHwAAIMBAH0DAHwDAGQBACB9BAB8AwBkAQAffQUA\nfAQAfAIAGn0GAHwBAHwCAGQBABhrAgByTgB8BAB8BgB8AQAUGH0HAG4GAHwGAH0HAHQAAGoCAHwH\nAHwFAGcCAGQCAGQDAIMBAX0HAHQAAGoCAHwGAHwFAGQDABRnAgBkAgBkAwCDAQF9CAB8CAB8AQAU\nfQkAdAAAagMAfAAAfAkAfAcAgwMAUygEAAAATmkBAAAAdAQAAABheGlzaQAAAAAoBAAAAHQBAAAA\nS3QFAAAAc2hhcGV0CwAAAGNvbmNhdGVuYXRldAUAAABzbGljZSgKAAAAdAQAAABkYXRhdAEAAABp\ndAUAAABwYXJ0c1ICAAAAdAoAAABiYXRjaF9zaXpldAsAAABpbnB1dF9zaGFwZXQEAAAAc3RlcHQE\nAAAAc2l6ZXQGAAAAc3RyaWRldAUAAABzdGFydCgAAAAAKAAAAABzTQAAAC9ob21lL3RhbnlhLy5s\nb2NhbC9saWIvcHl0aG9uMi43L3NpdGUtcGFja2FnZXMva2VyYXMvdXRpbHMvbXVsdGlfZ3B1X3V0\naWxzLnB5dAkAAABnZXRfc2xpY2W3AAAAcxYAAAAAAQ8BCgEKAQoBEAERAgYBGwEfAQoB\n", null, null], "name": "lambda_10", "trainable": true, "function_type": "lambda", "arguments": {"i": 0, "parts": 2}, "output_shape": [224, 224, 1], "output_shape_type": "raw"}, "inbound_nodes": [[["input_10", 0, 0, {}]]], "name": "lambda_10"}, {"class_name": "Lambda", "config": {"function": ["YwMAAAAKAAAABAAAAFNgAQBzqwAAAHQAAGoBAHwAAIMBAH0DAHwDAGQBACB9BAB8AwBkAQAffQUA\nfAQAfAIAGn0GAHwBAHwCAGQBABhrAgByTgB8BAB8BgB8AQAUGH0HAG4GAHwGAH0HAHQAAGoCAHwH\nAHwFAGcCAGQCAGQDAIMBAX0HAHQAAGoCAHwGAHwFAGQDABRnAgBkAgBkAwCDAQF9CAB8CAB8AQAU\nfQkAdAAAagMAfAAAfAkAfAcAgwMAUygEAAAATmkBAAAAdAQAAABheGlzaQAAAAAoBAAAAHQBAAAA\nS3QFAAAAc2hhcGV0CwAAAGNvbmNhdGVuYXRldAUAAABzbGljZSgKAAAAdAQAAABkYXRhdAEAAABp\ndAUAAABwYXJ0c1ICAAAAdAoAAABiYXRjaF9zaXpldAsAAABpbnB1dF9zaGFwZXQEAAAAc3RlcHQE\nAAAAc2l6ZXQGAAAAc3RyaWRldAUAAABzdGFydCgAAAAAKAAAAABzTQAAAC9ob21lL3RhbnlhLy5s\nb2NhbC9saWIvcHl0aG9uMi43L3NpdGUtcGFja2FnZXMva2VyYXMvdXRpbHMvbXVsdGlfZ3B1X3V0\naWxzLnB5dAkAAABnZXRfc2xpY2W3AAAAcxYAAAAAAQ8BCgEKAQoBEAERAgYBGwEfAQoB\n", null, null], "name": "lambda_11", "trainable": true, "function_type": "lambda", "arguments": {"i": 0, "parts": 2}, "output_shape": [224, 224, 1], "output_shape_type": "raw"}, "inbound_nodes": [[["input_11", 0, 0, {}]]], "name": "lambda_11"}, {"class_name": "Lambda", "config": {"function": ["YwMAAAAKAAAABAAAAFNgAQBzqwAAAHQAAGoBAHwAAIMBAH0DAHwDAGQBACB9BAB8AwBkAQAffQUA\nfAQAfAIAGn0GAHwBAHwCAGQBABhrAgByTgB8BAB8BgB8AQAUGH0HAG4GAHwGAH0HAHQAAGoCAHwH\nAHwFAGcCAGQCAGQDAIMBAX0HAHQAAGoCAHwGAHwFAGQDABRnAgBkAgBkAwCDAQF9CAB8CAB8AQAU\nfQkAdAAAagMAfAAAfAkAfAcAgwMAUygEAAAATmkBAAAAdAQAAABheGlzaQAAAAAoBAAAAHQBAAAA\nS3QFAAAAc2hhcGV0CwAAAGNvbmNhdGVuYXRldAUAAABzbGljZSgKAAAAdAQAAABkYXRhdAEAAABp\ndAUAAABwYXJ0c1ICAAAAdAoAAABiYXRjaF9zaXpldAsAAABpbnB1dF9zaGFwZXQEAAAAc3RlcHQE\nAAAAc2l6ZXQGAAAAc3RyaWRldAUAAABzdGFydCgAAAAAKAAAAABzTQAAAC9ob21lL3RhbnlhLy5s\nb2NhbC9saWIvcHl0aG9uMi43L3NpdGUtcGFja2FnZXMva2VyYXMvdXRpbHMvbXVsdGlfZ3B1X3V0\naWxzLnB5dAkAAABnZXRfc2xpY2W3AAAAcxYAAAAAAQ8BCgEKAQoBEAERAgYBGwEfAQoB\n", null, null], "name": "lambda_12", "trainable": true, "function_type": "lambda", "arguments": {"i": 0, "parts": 2}, "output_shape": [224, 224, 1], "output_shape_type": "raw"}, "inbound_nodes": [[["input_12", 0, 0, {}]]], "name": "lambda_12"}, {"class_name": "Lambda", "config": {"function": ["YwMAAAAKAAAABAAAAFNgAQBzqwAAAHQAAGoBAHwAAIMBAH0DAHwDAGQBACB9BAB8AwBkAQAffQUA\nfAQAfAIAGn0GAHwBAHwCAGQBABhrAgByTgB8BAB8BgB8AQAUGH0HAG4GAHwGAH0HAHQAAGoCAHwH\nAHwFAGcCAGQCAGQDAIMBAX0HAHQAAGoCAHwGAHwFAGQDABRnAgBkAgBkAwCDAQF9CAB8CAB8AQAU\nfQkAdAAAagMAfAAAfAkAfAcAgwMAUygEAAAATmkBAAAAdAQAAABheGlzaQAAAAAoBAAAAHQBAAAA\nS3QFAAAAc2hhcGV0CwAAAGNvbmNhdGVuYXRldAUAAABzbGljZSgKAAAAdAQAAABkYXRhdAEAAABp\ndAUAAABwYXJ0c1ICAAAAdAoAAABiYXRjaF9zaXpldAsAAABpbnB1dF9zaGFwZXQEAAAAc3RlcHQE\nAAAAc2l6ZXQGAAAAc3RyaWRldAUAAABzdGFydCgAAAAAKAAAAABzTQAAAC9ob21lL3RhbnlhLy5s\nb2NhbC9saWIvcHl0aG9uMi43L3NpdGUtcGFja2FnZXMva2VyYXMvdXRpbHMvbXVsdGlfZ3B1X3V0\naWxzLnB5dAkAAABnZXRfc2xpY2W3AAAAcxYAAAAAAQ8BCgEKAQoBEAERAgYBGwEfAQoB\n", null, null], "name": "lambda_13", "trainable": true, "function_type": "lambda", "arguments": {"i": 0, "parts": 2}, "output_shape": [224, 224, 1], "output_shape_type": "raw"}, "inbound_nodes": [[["input_13", 0, 0, {}]]], "name": "lambda_13"}, {"class_name": "Lambda", "config": {"function": ["YwMAAAAKAAAABAAAAFNgAQBzqwAAAHQAAGoBAHwAAIMBAH0DAHwDAGQBACB9BAB8AwBkAQAffQUA\nfAQAfAIAGn0GAHwBAHwCAGQBABhrAgByTgB8BAB8BgB8AQAUGH0HAG4GAHwGAH0HAHQAAGoCAHwH\nAHwFAGcCAGQCAGQDAIMBAX0HAHQAAGoCAHwGAHwFAGQDABRnAgBkAgBkAwCDAQF9CAB8CAB8AQAU\nfQkAdAAAagMAfAAAfAkAfAcAgwMAUygEAAAATmkBAAAAdAQAAABheGlzaQAAAAAoBAAAAHQBAAAA\nS3QFAAAAc2hhcGV0CwAAAGNvbmNhdGVuYXRldAUAAABzbGljZSgKAAAAdAQAAABkYXRhdAEAAABp\ndAUAAABwYXJ0c1ICAAAAdAoAAABiYXRjaF9zaXpldAsAAABpbnB1dF9zaGFwZXQEAAAAc3RlcHQE\nAAAAc2l6ZXQGAAAAc3RyaWRldAUAAABzdGFydCgAAAAAKAAAAABzTQAAAC9ob21lL3RhbnlhLy5s\nb2NhbC9saWIvcHl0aG9uMi43L3NpdGUtcGFja2FnZXMva2VyYXMvdXRpbHMvbXVsdGlfZ3B1X3V0\naWxzLnB5dAkAAABnZXRfc2xpY2W3AAAAcxYAAAAAAQ8BCgEKAQoBEAERAgYBGwEfAQoB\n", null, null], "name": "lambda_14", "trainable": true, "function_type": "lambda", "arguments": {"i": 0, "parts": 2}, "output_shape": [224, 224, 1], "output_shape_type": "raw"}, "inbound_nodes": [[["input_14", 0, 0, {}]]], "name": "lambda_14"}, {"class_name": "Lambda", "config": {"function": ["YwMAAAAKAAAABAAAAFNgAQBzqwAAAHQAAGoBAHwAAIMBAH0DAHwDAGQBACB9BAB8AwBkAQAffQUA\nfAQAfAIAGn0GAHwBAHwCAGQBABhrAgByTgB8BAB8BgB8AQAUGH0HAG4GAHwGAH0HAHQAAGoCAHwH\nAHwFAGcCAGQCAGQDAIMBAX0HAHQAAGoCAHwGAHwFAGQDABRnAgBkAgBkAwCDAQF9CAB8CAB8AQAU\nfQkAdAAAagMAfAAAfAkAfAcAgwMAUygEAAAATmkBAAAAdAQAAABheGlzaQAAAAAoBAAAAHQBAAAA\nS3QFAAAAc2hhcGV0CwAAAGNvbmNhdGVuYXRldAUAAABzbGljZSgKAAAAdAQAAABkYXRhdAEAAABp\ndAUAAABwYXJ0c1ICAAAAdAoAAABiYXRjaF9zaXpldAsAAABpbnB1dF9zaGFwZXQEAAAAc3RlcHQE\nAAAAc2l6ZXQGAAAAc3RyaWRldAUAAABzdGFydCgAAAAAKAAAAABzTQAAAC9ob21lL3RhbnlhLy5s\nb2NhbC9saWIvcHl0aG9uMi43L3NpdGUtcGFja2FnZXMva2VyYXMvdXRpbHMvbXVsdGlfZ3B1X3V0\naWxzLnB5dAkAAABnZXRfc2xpY2W3AAAAcxYAAAAAAQ8BCgEKAQoBEAERAgYBGwEfAQoB\n", null, null], "name": "lambda_15", "trainable": true, "function_type": "lambda", "arguments": {"i": 0, "parts": 2}, "output_shape": [224, 224, 1], "output_shape_type": "raw"}, "inbound_nodes": [[["input_15", 0, 0, {}]]], "name": "lambda_15"}, {"class_name": "Lambda", "config": {"function": ["YwMAAAAKAAAABAAAAFNgAQBzqwAAAHQAAGoBAHwAAIMBAH0DAHwDAGQBACB9BAB8AwBkAQAffQUA\nfAQAfAIAGn0GAHwBAHwCAGQBABhrAgByTgB8BAB8BgB8AQAUGH0HAG4GAHwGAH0HAHQAAGoCAHwH\nAHwFAGcCAGQCAGQDAIMBAX0HAHQAAGoCAHwGAHwFAGQDABRnAgBkAgBkAwCDAQF9CAB8CAB8AQAU\nfQkAdAAAagMAfAAAfAkAfAcAgwMAUygEAAAATmkBAAAAdAQAAABheGlzaQAAAAAoBAAAAHQBAAAA\nS3QFAAAAc2hhcGV0CwAAAGNvbmNhdGVuYXRldAUAAABzbGljZSgKAAAAdAQAAABkYXRhdAEAAABp\ndAUAAABwYXJ0c1ICAAAAdAoAAABiYXRjaF9zaXpldAsAAABpbnB1dF9zaGFwZXQEAAAAc3RlcHQE\nAAAAc2l6ZXQGAAAAc3RyaWRldAUAAABzdGFydCgAAAAAKAAAAABzTQAAAC9ob21lL3RhbnlhLy5s\nb2NhbC9saWIvcHl0aG9uMi43L3NpdGUtcGFja2FnZXMva2VyYXMvdXRpbHMvbXVsdGlfZ3B1X3V0\naWxzLnB5dAkAAABnZXRfc2xpY2W3AAAAcxYAAAAAAQ8BCgEKAQoBEAERAgYBGwEfAQoB\n", null, null], "name": "lambda_16", "trainable": true, "function_type": "lambda", "arguments": {"i": 0, "parts": 2}, "output_shape": [224, 224, 1], "output_shape_type": "raw"}, "inbound_nodes": [[["input_16", 0, 0, {}]]], "name": "lambda_16"}, {"class_name": "Lambda", "config": {"function": ["YwMAAAAKAAAABAAAAFNgAQBzqwAAAHQAAGoBAHwAAIMBAH0DAHwDAGQBACB9BAB8AwBkAQAffQUA\nfAQAfAIAGn0GAHwBAHwCAGQBABhrAgByTgB8BAB8BgB8AQAUGH0HAG4GAHwGAH0HAHQAAGoCAHwH\nAHwFAGcCAGQCAGQDAIMBAX0HAHQAAGoCAHwGAHwFAGQDABRnAgBkAgBkAwCDAQF9CAB8CAB8AQAU\nfQkAdAAAagMAfAAAfAkAfAcAgwMAUygEAAAATmkBAAAAdAQAAABheGlzaQAAAAAoBAAAAHQBAAAA\nS3QFAAAAc2hhcGV0CwAAAGNvbmNhdGVuYXRldAUAAABzbGljZSgKAAAAdAQAAABkYXRhdAEAAABp\ndAUAAABwYXJ0c1ICAAAAdAoAAABiYXRjaF9zaXpldAsAAABpbnB1dF9zaGFwZXQEAAAAc3RlcHQE\nAAAAc2l6ZXQGAAAAc3RyaWRldAUAAABzdGFydCgAAAAAKAAAAABzTQAAAC9ob21lL3RhbnlhLy5s\nb2NhbC9saWIvcHl0aG9uMi43L3NpdGUtcGFja2FnZXMva2VyYXMvdXRpbHMvbXVsdGlfZ3B1X3V0\naWxzLnB5dAkAAABnZXRfc2xpY2W3AAAAcxYAAAAAAQ8BCgEKAQoBEAERAgYBGwEfAQoB\n", null, null], "name": "lambda_17", "trainable": true, "function_type": "lambda", "arguments": {"i": 0, "parts": 2}, "output_shape": [224, 224, 1], "output_shape_type": "raw"}, "inbound_nodes": [[["input_17", 0, 0, {}]]], "name": "lambda_17"}, {"class_name": "Lambda", "config": {"function": ["YwMAAAAKAAAABAAAAFNgAQBzqwAAAHQAAGoBAHwAAIMBAH0DAHwDAGQBACB9BAB8AwBkAQAffQUA\nfAQAfAIAGn0GAHwBAHwCAGQBABhrAgByTgB8BAB8BgB8AQAUGH0HAG4GAHwGAH0HAHQAAGoCAHwH\nAHwFAGcCAGQCAGQDAIMBAX0HAHQAAGoCAHwGAHwFAGQDABRnAgBkAgBkAwCDAQF9CAB8CAB8AQAU\nfQkAdAAAagMAfAAAfAkAfAcAgwMAUygEAAAATmkBAAAAdAQAAABheGlzaQAAAAAoBAAAAHQBAAAA\nS3QFAAAAc2hhcGV0CwAAAGNvbmNhdGVuYXRldAUAAABzbGljZSgKAAAAdAQAAABkYXRhdAEAAABp\ndAUAAABwYXJ0c1ICAAAAdAoAAABiYXRjaF9zaXpldAsAAABpbnB1dF9zaGFwZXQEAAAAc3RlcHQE\nAAAAc2l6ZXQGAAAAc3RyaWRldAUAAABzdGFydCgAAAAAKAAAAABzTQAAAC9ob21lL3RhbnlhLy5s\nb2NhbC9saWIvcHl0aG9uMi43L3NpdGUtcGFja2FnZXMva2VyYXMvdXRpbHMvbXVsdGlfZ3B1X3V0\naWxzLnB5dAkAAABnZXRfc2xpY2W3AAAAcxYAAAAAAQ8BCgEKAQoBEAERAgYBGwEfAQoB\n", null, null], "name": "lambda_18", "trainable": true, "function_type": "lambda", "arguments": {"i": 0, "parts": 2}, "output_shape": [224, 224, 1], "output_shape_type": "raw"}, "inbound_nodes": [[["input_18", 0, 0, {}]]], "name": "lambda_18"}, {"class_name": "Lambda", "config": {"function": ["YwMAAAAKAAAABAAAAFNgAQBzqwAAAHQAAGoBAHwAAIMBAH0DAHwDAGQBACB9BAB8AwBkAQAffQUA\nfAQAfAIAGn0GAHwBAHwCAGQBABhrAgByTgB8BAB8BgB8AQAUGH0HAG4GAHwGAH0HAHQAAGoCAHwH\nAHwFAGcCAGQCAGQDAIMBAX0HAHQAAGoCAHwGAHwFAGQDABRnAgBkAgBkAwCDAQF9CAB8CAB8AQAU\nfQkAdAAAagMAfAAAfAkAfAcAgwMAUygEAAAATmkBAAAAdAQAAABheGlzaQAAAAAoBAAAAHQBAAAA\nS3QFAAAAc2hhcGV0CwAAAGNvbmNhdGVuYXRldAUAAABzbGljZSgKAAAAdAQAAABkYXRhdAEAAABp\ndAUAAABwYXJ0c1ICAAAAdAoAAABiYXRjaF9zaXpldAsAAABpbnB1dF9zaGFwZXQEAAAAc3RlcHQE\nAAAAc2l6ZXQGAAAAc3RyaWRldAUAAABzdGFydCgAAAAAKAAAAABzTQAAAC9ob21lL3RhbnlhLy5s\nb2NhbC9saWIvcHl0aG9uMi43L3NpdGUtcGFja2FnZXMva2VyYXMvdXRpbHMvbXVsdGlfZ3B1X3V0\naWxzLnB5dAkAAABnZXRfc2xpY2W3AAAAcxYAAAAAAQ8BCgEKAQoBEAERAgYBGwEfAQoB\n", null, null], "name": "lambda_19", "trainable": true, "function_type": "lambda", "arguments": {"i": 0, "parts": 2}, "output_shape": [224, 224, 1], "output_shape_type": "raw"}, "inbound_nodes": [[["input_19", 0, 0, {}]]], "name": "lambda_19"}, {"class_name": "Lambda", "config": {"function": ["YwMAAAAKAAAABAAAAFNgAQBzqwAAAHQAAGoBAHwAAIMBAH0DAHwDAGQBACB9BAB8AwBkAQAffQUA\nfAQAfAIAGn0GAHwBAHwCAGQBABhrAgByTgB8BAB8BgB8AQAUGH0HAG4GAHwGAH0HAHQAAGoCAHwH\nAHwFAGcCAGQCAGQDAIMBAX0HAHQAAGoCAHwGAHwFAGQDABRnAgBkAgBkAwCDAQF9CAB8CAB8AQAU\nfQkAdAAAagMAfAAAfAkAfAcAgwMAUygEAAAATmkBAAAAdAQAAABheGlzaQAAAAAoBAAAAHQBAAAA\nS3QFAAAAc2hhcGV0CwAAAGNvbmNhdGVuYXRldAUAAABzbGljZSgKAAAAdAQAAABkYXRhdAEAAABp\ndAUAAABwYXJ0c1ICAAAAdAoAAABiYXRjaF9zaXpldAsAAABpbnB1dF9zaGFwZXQEAAAAc3RlcHQE\nAAAAc2l6ZXQGAAAAc3RyaWRldAUAAABzdGFydCgAAAAAKAAAAABzTQAAAC9ob21lL3RhbnlhLy5s\nb2NhbC9saWIvcHl0aG9uMi43L3NpdGUtcGFja2FnZXMva2VyYXMvdXRpbHMvbXVsdGlfZ3B1X3V0\naWxzLnB5dAkAAABnZXRfc2xpY2W3AAAAcxYAAAAAAQ8BCgEKAQoBEAERAgYBGwEfAQoB\n", null, null], "name": "lambda_20", "trainable": true, "function_type": "lambda", "arguments": {"i": 0, "parts": 2}, "output_shape": [224, 224, 1], "output_shape_type": "raw"}, "inbound_nodes": [[["input_20", 0, 0, {}]]], "name": "lambda_20"}, {"class_name": "Lambda", "config": {"function": ["YwMAAAAKAAAABAAAAFNgAQBzqwAAAHQAAGoBAHwAAIMBAH0DAHwDAGQBACB9BAB8AwBkAQAffQUA\nfAQAfAIAGn0GAHwBAHwCAGQBABhrAgByTgB8BAB8BgB8AQAUGH0HAG4GAHwGAH0HAHQAAGoCAHwH\nAHwFAGcCAGQCAGQDAIMBAX0HAHQAAGoCAHwGAHwFAGQDABRnAgBkAgBkAwCDAQF9CAB8CAB8AQAU\nfQkAdAAAagMAfAAAfAkAfAcAgwMAUygEAAAATmkBAAAAdAQAAABheGlzaQAAAAAoBAAAAHQBAAAA\nS3QFAAAAc2hhcGV0CwAAAGNvbmNhdGVuYXRldAUAAABzbGljZSgKAAAAdAQAAABkYXRhdAEAAABp\ndAUAAABwYXJ0c1ICAAAAdAoAAABiYXRjaF9zaXpldAsAAABpbnB1dF9zaGFwZXQEAAAAc3RlcHQE\nAAAAc2l6ZXQGAAAAc3RyaWRldAUAAABzdGFydCgAAAAAKAAAAABzTQAAAC9ob21lL3RhbnlhLy5s\nb2NhbC9saWIvcHl0aG9uMi43L3NpdGUtcGFja2FnZXMva2VyYXMvdXRpbHMvbXVsdGlfZ3B1X3V0\naWxzLnB5dAkAAABnZXRfc2xpY2W3AAAAcxYAAAAAAQ8BCgEKAQoBEAERAgYBGwEfAQoB\n", null, null], "name": "lambda_21", "trainable": true, "function_type": "lambda", "arguments": {"i": 0, "parts": 2}, "output_shape": [224, 224, 1], "output_shape_type": "raw"}, "inbound_nodes": [[["input_21", 0, 0, {}]]], "name": "lambda_21"}, {"class_name": "Lambda", "config": {"function": ["YwMAAAAKAAAABAAAAFNgAQBzqwAAAHQAAGoBAHwAAIMBAH0DAHwDAGQBACB9BAB8AwBkAQAffQUA\nfAQAfAIAGn0GAHwBAHwCAGQBABhrAgByTgB8BAB8BgB8AQAUGH0HAG4GAHwGAH0HAHQAAGoCAHwH\nAHwFAGcCAGQCAGQDAIMBAX0HAHQAAGoCAHwGAHwFAGQDABRnAgBkAgBkAwCDAQF9CAB8CAB8AQAU\nfQkAdAAAagMAfAAAfAkAfAcAgwMAUygEAAAATmkBAAAAdAQAAABheGlzaQAAAAAoBAAAAHQBAAAA\nS3QFAAAAc2hhcGV0CwAAAGNvbmNhdGVuYXRldAUAAABzbGljZSgKAAAAdAQAAABkYXRhdAEAAABp\ndAUAAABwYXJ0c1ICAAAAdAoAAABiYXRjaF9zaXpldAsAAABpbnB1dF9zaGFwZXQEAAAAc3RlcHQE\nAAAAc2l6ZXQGAAAAc3RyaWRldAUAAABzdGFydCgAAAAAKAAAAABzTQAAAC9ob21lL3RhbnlhLy5s\nb2NhbC9saWIvcHl0aG9uMi43L3NpdGUtcGFja2FnZXMva2VyYXMvdXRpbHMvbXVsdGlfZ3B1X3V0\naWxzLnB5dAkAAABnZXRfc2xpY2W3AAAAcxYAAAAAAQ8BCgEKAQoBEAERAgYBGwEfAQoB\n", null, null], "name": "lambda_22", "trainable": true, "function_type": "lambda", "arguments": {"i": 0, "parts": 2}, "output_shape": [224, 224, 1], "output_shape_type": "raw"}, "inbound_nodes": [[["input_22", 0, 0, {}]]], "name": "lambda_22"}, {"class_name": "Lambda", "config": {"function": ["YwMAAAAKAAAABAAAAFNgAQBzqwAAAHQAAGoBAHwAAIMBAH0DAHwDAGQBACB9BAB8AwBkAQAffQUA\nfAQAfAIAGn0GAHwBAHwCAGQBABhrAgByTgB8BAB8BgB8AQAUGH0HAG4GAHwGAH0HAHQAAGoCAHwH\nAHwFAGcCAGQCAGQDAIMBAX0HAHQAAGoCAHwGAHwFAGQDABRnAgBkAgBkAwCDAQF9CAB8CAB8AQAU\nfQkAdAAAagMAfAAAfAkAfAcAgwMAUygEAAAATmkBAAAAdAQAAABheGlzaQAAAAAoBAAAAHQBAAAA\nS3QFAAAAc2hhcGV0CwAAAGNvbmNhdGVuYXRldAUAAABzbGljZSgKAAAAdAQAAABkYXRhdAEAAABp\ndAUAAABwYXJ0c1ICAAAAdAoAAABiYXRjaF9zaXpldAsAAABpbnB1dF9zaGFwZXQEAAAAc3RlcHQE\nAAAAc2l6ZXQGAAAAc3RyaWRldAUAAABzdGFydCgAAAAAKAAAAABzTQAAAC9ob21lL3RhbnlhLy5s\nb2NhbC9saWIvcHl0aG9uMi43L3NpdGUtcGFja2FnZXMva2VyYXMvdXRpbHMvbXVsdGlfZ3B1X3V0\naWxzLnB5dAkAAABnZXRfc2xpY2W3AAAAcxYAAAAAAQ8BCgEKAQoBEAERAgYBGwEfAQoB\n", null, null], "name": "lambda_23", "trainable": true, "function_type": "lambda", "arguments": {"i": 0, "parts": 2}, "output_shape": [224, 224, 1], "output_shape_type": "raw"}, "inbound_nodes": [[["input_23", 0, 0, {}]]], "name": "lambda_23"}, {"class_name": "Lambda", "config": {"function": ["YwMAAAAKAAAABAAAAFNgAQBzqwAAAHQAAGoBAHwAAIMBAH0DAHwDAGQBACB9BAB8AwBkAQAffQUA\nfAQAfAIAGn0GAHwBAHwCAGQBABhrAgByTgB8BAB8BgB8AQAUGH0HAG4GAHwGAH0HAHQAAGoCAHwH\nAHwFAGcCAGQCAGQDAIMBAX0HAHQAAGoCAHwGAHwFAGQDABRnAgBkAgBkAwCDAQF9CAB8CAB8AQAU\nfQkAdAAAagMAfAAAfAkAfAcAgwMAUygEAAAATmkBAAAAdAQAAABheGlzaQAAAAAoBAAAAHQBAAAA\nS3QFAAAAc2hhcGV0CwAAAGNvbmNhdGVuYXRldAUAAABzbGljZSgKAAAAdAQAAABkYXRhdAEAAABp\ndAUAAABwYXJ0c1ICAAAAdAoAAABiYXRjaF9zaXpldAsAAABpbnB1dF9zaGFwZXQEAAAAc3RlcHQE\nAAAAc2l6ZXQGAAAAc3RyaWRldAUAAABzdGFydCgAAAAAKAAAAABzTQAAAC9ob21lL3RhbnlhLy5s\nb2NhbC9saWIvcHl0aG9uMi43L3NpdGUtcGFja2FnZXMva2VyYXMvdXRpbHMvbXVsdGlfZ3B1X3V0\naWxzLnB5dAkAAABnZXRfc2xpY2W3AAAAcxYAAAAAAQ8BCgEKAQoBEAERAgYBGwEfAQoB\n", null, null], "name": "lambda_24", "trainable": true, "function_type": "lambda", "arguments": {"i": 0, "parts": 2}, "output_shape": [224, 224, 1], "output_shape_type": "raw"}, "inbound_nodes": [[["input_24", 0, 0, {}]]], "name": "lambda_24"}, {"class_name": "Lambda", "config": {"function": ["YwMAAAAKAAAABAAAAFNgAQBzqwAAAHQAAGoBAHwAAIMBAH0DAHwDAGQBACB9BAB8AwBkAQAffQUA\nfAQAfAIAGn0GAHwBAHwCAGQBABhrAgByTgB8BAB8BgB8AQAUGH0HAG4GAHwGAH0HAHQAAGoCAHwH\nAHwFAGcCAGQCAGQDAIMBAX0HAHQAAGoCAHwGAHwFAGQDABRnAgBkAgBkAwCDAQF9CAB8CAB8AQAU\nfQkAdAAAagMAfAAAfAkAfAcAgwMAUygEAAAATmkBAAAAdAQAAABheGlzaQAAAAAoBAAAAHQBAAAA\nS3QFAAAAc2hhcGV0CwAAAGNvbmNhdGVuYXRldAUAAABzbGljZSgKAAAAdAQAAABkYXRhdAEAAABp\ndAUAAABwYXJ0c1ICAAAAdAoAAABiYXRjaF9zaXpldAsAAABpbnB1dF9zaGFwZXQEAAAAc3RlcHQE\nAAAAc2l6ZXQGAAAAc3RyaWRldAUAAABzdGFydCgAAAAAKAAAAABzTQAAAC9ob21lL3RhbnlhLy5s\nb2NhbC9saWIvcHl0aG9uMi43L3NpdGUtcGFja2FnZXMva2VyYXMvdXRpbHMvbXVsdGlfZ3B1X3V0\naWxzLnB5dAkAAABnZXRfc2xpY2W3AAAAcxYAAAAAAQ8BCgEKAQoBEAERAgYBGwEfAQoB\n", null, null], "name": "lambda_25", "trainable": true, "function_type": "lambda", "arguments": {"i": 0, "parts": 2}, "output_shape": [224, 224, 1], "output_shape_type": "raw"}, "inbound_nodes": [[["input_25", 0, 0, {}]]], "name": "lambda_25"}, {"class_name": "Lambda", "config": {"function": ["YwMAAAAKAAAABAAAAFNgAQBzqwAAAHQAAGoBAHwAAIMBAH0DAHwDAGQBACB9BAB8AwBkAQAffQUA\nfAQAfAIAGn0GAHwBAHwCAGQBABhrAgByTgB8BAB8BgB8AQAUGH0HAG4GAHwGAH0HAHQAAGoCAHwH\nAHwFAGcCAGQCAGQDAIMBAX0HAHQAAGoCAHwGAHwFAGQDABRnAgBkAgBkAwCDAQF9CAB8CAB8AQAU\nfQkAdAAAagMAfAAAfAkAfAcAgwMAUygEAAAATmkBAAAAdAQAAABheGlzaQAAAAAoBAAAAHQBAAAA\nS3QFAAAAc2hhcGV0CwAAAGNvbmNhdGVuYXRldAUAAABzbGljZSgKAAAAdAQAAABkYXRhdAEAAABp\ndAUAAABwYXJ0c1ICAAAAdAoAAABiYXRjaF9zaXpldAsAAABpbnB1dF9zaGFwZXQEAAAAc3RlcHQE\nAAAAc2l6ZXQGAAAAc3RyaWRldAUAAABzdGFydCgAAAAAKAAAAABzTQAAAC9ob21lL3RhbnlhLy5s\nb2NhbC9saWIvcHl0aG9uMi43L3NpdGUtcGFja2FnZXMva2VyYXMvdXRpbHMvbXVsdGlfZ3B1X3V0\naWxzLnB5dAkAAABnZXRfc2xpY2W3AAAAcxYAAAAAAQ8BCgEKAQoBEAERAgYBGwEfAQoB\n", null, null], "name": "lambda_26", "trainable": true, "function_type": "lambda", "arguments": {"i": 0, "parts": 2}, "output_shape": [224, 224, 1], "output_shape_type": "raw"}, "inbound_nodes": [[["input_26", 0, 0, {}]]], "name": "lambda_26"}, {"class_name": "Lambda", "config": {"function": ["YwMAAAAKAAAABAAAAFNgAQBzqwAAAHQAAGoBAHwAAIMBAH0DAHwDAGQBACB9BAB8AwBkAQAffQUA\nfAQAfAIAGn0GAHwBAHwCAGQBABhrAgByTgB8BAB8BgB8AQAUGH0HAG4GAHwGAH0HAHQAAGoCAHwH\nAHwFAGcCAGQCAGQDAIMBAX0HAHQAAGoCAHwGAHwFAGQDABRnAgBkAgBkAwCDAQF9CAB8CAB8AQAU\nfQkAdAAAagMAfAAAfAkAfAcAgwMAUygEAAAATmkBAAAAdAQAAABheGlzaQAAAAAoBAAAAHQBAAAA\nS3QFAAAAc2hhcGV0CwAAAGNvbmNhdGVuYXRldAUAAABzbGljZSgKAAAAdAQAAABkYXRhdAEAAABp\ndAUAAABwYXJ0c1ICAAAAdAoAAABiYXRjaF9zaXpldAsAAABpbnB1dF9zaGFwZXQEAAAAc3RlcHQE\nAAAAc2l6ZXQGAAAAc3RyaWRldAUAAABzdGFydCgAAAAAKAAAAABzTQAAAC9ob21lL3RhbnlhLy5s\nb2NhbC9saWIvcHl0aG9uMi43L3NpdGUtcGFja2FnZXMva2VyYXMvdXRpbHMvbXVsdGlfZ3B1X3V0\naWxzLnB5dAkAAABnZXRfc2xpY2W3AAAAcxYAAAAAAQ8BCgEKAQoBEAERAgYBGwEfAQoB\n", null, null], "name": "lambda_27", "trainable": true, "function_type": "lambda", "arguments": {"i": 0, "parts": 2}, "output_shape": [224, 224, 1], "output_shape_type": "raw"}, "inbound_nodes": [[["input_27", 0, 0, {}]]], "name": "lambda_27"}, {"class_name": "Lambda", "config": {"function": ["YwMAAAAKAAAABAAAAFNgAQBzqwAAAHQAAGoBAHwAAIMBAH0DAHwDAGQBACB9BAB8AwBkAQAffQUA\nfAQAfAIAGn0GAHwBAHwCAGQBABhrAgByTgB8BAB8BgB8AQAUGH0HAG4GAHwGAH0HAHQAAGoCAHwH\nAHwFAGcCAGQCAGQDAIMBAX0HAHQAAGoCAHwGAHwFAGQDABRnAgBkAgBkAwCDAQF9CAB8CAB8AQAU\nfQkAdAAAagMAfAAAfAkAfAcAgwMAUygEAAAATmkBAAAAdAQAAABheGlzaQAAAAAoBAAAAHQBAAAA\nS3QFAAAAc2hhcGV0CwAAAGNvbmNhdGVuYXRldAUAAABzbGljZSgKAAAAdAQAAABkYXRhdAEAAABp\ndAUAAABwYXJ0c1ICAAAAdAoAAABiYXRjaF9zaXpldAsAAABpbnB1dF9zaGFwZXQEAAAAc3RlcHQE\nAAAAc2l6ZXQGAAAAc3RyaWRldAUAAABzdGFydCgAAAAAKAAAAABzTQAAAC9ob21lL3RhbnlhLy5s\nb2NhbC9saWIvcHl0aG9uMi43L3NpdGUtcGFja2FnZXMva2VyYXMvdXRpbHMvbXVsdGlfZ3B1X3V0\naWxzLnB5dAkAAABnZXRfc2xpY2W3AAAAcxYAAAAAAQ8BCgEKAQoBEAERAgYBGwEfAQoB\n", null, null], "name": "lambda_28", "trainable": true, "function_type": "lambda", "arguments": {"i": 1, "parts": 2}, "output_shape": [224, 224, 1], "output_shape_type": "raw"}, "inbound_nodes": [[["input_1", 0, 0, {}]]], "name": "lambda_28"}, {"class_name": "Lambda", "config": {"function": ["YwMAAAAKAAAABAAAAFNgAQBzqwAAAHQAAGoBAHwAAIMBAH0DAHwDAGQBACB9BAB8AwBkAQAffQUA\nfAQAfAIAGn0GAHwBAHwCAGQBABhrAgByTgB8BAB8BgB8AQAUGH0HAG4GAHwGAH0HAHQAAGoCAHwH\nAHwFAGcCAGQCAGQDAIMBAX0HAHQAAGoCAHwGAHwFAGQDABRnAgBkAgBkAwCDAQF9CAB8CAB8AQAU\nfQkAdAAAagMAfAAAfAkAfAcAgwMAUygEAAAATmkBAAAAdAQAAABheGlzaQAAAAAoBAAAAHQBAAAA\nS3QFAAAAc2hhcGV0CwAAAGNvbmNhdGVuYXRldAUAAABzbGljZSgKAAAAdAQAAABkYXRhdAEAAABp\ndAUAAABwYXJ0c1ICAAAAdAoAAABiYXRjaF9zaXpldAsAAABpbnB1dF9zaGFwZXQEAAAAc3RlcHQE\nAAAAc2l6ZXQGAAAAc3RyaWRldAUAAABzdGFydCgAAAAAKAAAAABzTQAAAC9ob21lL3RhbnlhLy5s\nb2NhbC9saWIvcHl0aG9uMi43L3NpdGUtcGFja2FnZXMva2VyYXMvdXRpbHMvbXVsdGlfZ3B1X3V0\naWxzLnB5dAkAAABnZXRfc2xpY2W3AAAAcxYAAAAAAQ8BCgEKAQoBEAERAgYBGwEfAQoB\n", null, null], "name": "lambda_29", "trainable": true, "function_type": "lambda", "arguments": {"i": 1, "parts": 2}, "output_shape": [224, 224, 1], "output_shape_type": "raw"}, "inbound_nodes": [[["input_2", 0, 0, {}]]], "name": "lambda_29"}, {"class_name": "Lambda", "config": {"function": ["YwMAAAAKAAAABAAAAFNgAQBzqwAAAHQAAGoBAHwAAIMBAH0DAHwDAGQBACB9BAB8AwBkAQAffQUA\nfAQAfAIAGn0GAHwBAHwCAGQBABhrAgByTgB8BAB8BgB8AQAUGH0HAG4GAHwGAH0HAHQAAGoCAHwH\nAHwFAGcCAGQCAGQDAIMBAX0HAHQAAGoCAHwGAHwFAGQDABRnAgBkAgBkAwCDAQF9CAB8CAB8AQAU\nfQkAdAAAagMAfAAAfAkAfAcAgwMAUygEAAAATmkBAAAAdAQAAABheGlzaQAAAAAoBAAAAHQBAAAA\nS3QFAAAAc2hhcGV0CwAAAGNvbmNhdGVuYXRldAUAAABzbGljZSgKAAAAdAQAAABkYXRhdAEAAABp\ndAUAAABwYXJ0c1ICAAAAdAoAAABiYXRjaF9zaXpldAsAAABpbnB1dF9zaGFwZXQEAAAAc3RlcHQE\nAAAAc2l6ZXQGAAAAc3RyaWRldAUAAABzdGFydCgAAAAAKAAAAABzTQAAAC9ob21lL3RhbnlhLy5s\nb2NhbC9saWIvcHl0aG9uMi43L3NpdGUtcGFja2FnZXMva2VyYXMvdXRpbHMvbXVsdGlfZ3B1X3V0\naWxzLnB5dAkAAABnZXRfc2xpY2W3AAAAcxYAAAAAAQ8BCgEKAQoBEAERAgYBGwEfAQoB\n", null, null], "name": "lambda_30", "trainable": true, "function_type": "lambda", "arguments": {"i": 1, "parts": 2}, "output_shape": [224, 224, 1], "output_shape_type": "raw"}, "inbound_nodes": [[["input_3", 0, 0, {}]]], "name": "lambda_30"}, {"class_name": "Lambda", "config": {"function": ["YwMAAAAKAAAABAAAAFNgAQBzqwAAAHQAAGoBAHwAAIMBAH0DAHwDAGQBACB9BAB8AwBkAQAffQUA\nfAQAfAIAGn0GAHwBAHwCAGQBABhrAgByTgB8BAB8BgB8AQAUGH0HAG4GAHwGAH0HAHQAAGoCAHwH\nAHwFAGcCAGQCAGQDAIMBAX0HAHQAAGoCAHwGAHwFAGQDABRnAgBkAgBkAwCDAQF9CAB8CAB8AQAU\nfQkAdAAAagMAfAAAfAkAfAcAgwMAUygEAAAATmkBAAAAdAQAAABheGlzaQAAAAAoBAAAAHQBAAAA\nS3QFAAAAc2hhcGV0CwAAAGNvbmNhdGVuYXRldAUAAABzbGljZSgKAAAAdAQAAABkYXRhdAEAAABp\ndAUAAABwYXJ0c1ICAAAAdAoAAABiYXRjaF9zaXpldAsAAABpbnB1dF9zaGFwZXQEAAAAc3RlcHQE\nAAAAc2l6ZXQGAAAAc3RyaWRldAUAAABzdGFydCgAAAAAKAAAAABzTQAAAC9ob21lL3RhbnlhLy5s\nb2NhbC9saWIvcHl0aG9uMi43L3NpdGUtcGFja2FnZXMva2VyYXMvdXRpbHMvbXVsdGlfZ3B1X3V0\naWxzLnB5dAkAAABnZXRfc2xpY2W3AAAAcxYAAAAAAQ8BCgEKAQoBEAERAgYBGwEfAQoB\n", null, null], "name": "lambda_31", "trainable": true, "function_type": "lambda", "arguments": {"i": 1, "parts": 2}, "output_shape": [224, 224, 1], "output_shape_type": "raw"}, "inbound_nodes": [[["input_4", 0, 0, {}]]], "name": "lambda_31"}, {"class_name": "Lambda", "config": {"function": ["YwMAAAAKAAAABAAAAFNgAQBzqwAAAHQAAGoBAHwAAIMBAH0DAHwDAGQBACB9BAB8AwBkAQAffQUA\nfAQAfAIAGn0GAHwBAHwCAGQBABhrAgByTgB8BAB8BgB8AQAUGH0HAG4GAHwGAH0HAHQAAGoCAHwH\nAHwFAGcCAGQCAGQDAIMBAX0HAHQAAGoCAHwGAHwFAGQDABRnAgBkAgBkAwCDAQF9CAB8CAB8AQAU\nfQkAdAAAagMAfAAAfAkAfAcAgwMAUygEAAAATmkBAAAAdAQAAABheGlzaQAAAAAoBAAAAHQBAAAA\nS3QFAAAAc2hhcGV0CwAAAGNvbmNhdGVuYXRldAUAAABzbGljZSgKAAAAdAQAAABkYXRhdAEAAABp\ndAUAAABwYXJ0c1ICAAAAdAoAAABiYXRjaF9zaXpldAsAAABpbnB1dF9zaGFwZXQEAAAAc3RlcHQE\nAAAAc2l6ZXQGAAAAc3RyaWRldAUAAABzdGFydCgAAAAAKAAAAABzTQAAAC9ob21lL3RhbnlhLy5s\nb2NhbC9saWIvcHl0aG9uMi43L3NpdGUtcGFja2FnZXMva2VyYXMvdXRpbHMvbXVsdGlfZ3B1X3V0\naWxzLnB5dAkAAABnZXRfc2xpY2W3AAAAcxYAAAAAAQ8BCgEKAQoBEAERAgYBGwEfAQoB\n", null, null], "name": "lambda_32", "trainable": true, "function_type": "lambda", "arguments": {"i": 1, "parts": 2}, "output_shape": [224, 224, 1], "output_shape_type": "raw"}, "inbound_nodes": [[["input_5", 0, 0, {}]]], "name": "lambda_32"}, {"class_name": "Lambda", "config": {"function": ["YwMAAAAKAAAABAAAAFNgAQBzqwAAAHQAAGoBAHwAAIMBAH0DAHwDAGQBACB9BAB8AwBkAQAffQUA\nfAQAfAIAGn0GAHwBAHwCAGQBABhrAgByTgB8BAB8BgB8AQAUGH0HAG4GAHwGAH0HAHQAAGoCAHwH\nAHwFAGcCAGQCAGQDAIMBAX0HAHQAAGoCAHwGAHwFAGQDABRnAgBkAgBkAwCDAQF9CAB8CAB8AQAU\nfQkAdAAAagMAfAAAfAkAfAcAgwMAUygEAAAATmkBAAAAdAQAAABheGlzaQAAAAAoBAAAAHQBAAAA\nS3QFAAAAc2hhcGV0CwAAAGNvbmNhdGVuYXRldAUAAABzbGljZSgKAAAAdAQAAABkYXRhdAEAAABp\ndAUAAABwYXJ0c1ICAAAAdAoAAABiYXRjaF9zaXpldAsAAABpbnB1dF9zaGFwZXQEAAAAc3RlcHQE\nAAAAc2l6ZXQGAAAAc3RyaWRldAUAAABzdGFydCgAAAAAKAAAAABzTQAAAC9ob21lL3RhbnlhLy5s\nb2NhbC9saWIvcHl0aG9uMi43L3NpdGUtcGFja2FnZXMva2VyYXMvdXRpbHMvbXVsdGlfZ3B1X3V0\naWxzLnB5dAkAAABnZXRfc2xpY2W3AAAAcxYAAAAAAQ8BCgEKAQoBEAERAgYBGwEfAQoB\n", null, null], "name": "lambda_33", "trainable": true, "function_type": "lambda", "arguments": {"i": 1, "parts": 2}, "output_shape": [224, 224, 1], "output_shape_type": "raw"}, "inbound_nodes": [[["input_6", 0, 0, {}]]], "name": "lambda_33"}, {"class_name": "Lambda", "config": {"function": ["YwMAAAAKAAAABAAAAFNgAQBzqwAAAHQAAGoBAHwAAIMBAH0DAHwDAGQBACB9BAB8AwBkAQAffQUA\nfAQAfAIAGn0GAHwBAHwCAGQBABhrAgByTgB8BAB8BgB8AQAUGH0HAG4GAHwGAH0HAHQAAGoCAHwH\nAHwFAGcCAGQCAGQDAIMBAX0HAHQAAGoCAHwGAHwFAGQDABRnAgBkAgBkAwCDAQF9CAB8CAB8AQAU\nfQkAdAAAagMAfAAAfAkAfAcAgwMAUygEAAAATmkBAAAAdAQAAABheGlzaQAAAAAoBAAAAHQBAAAA\nS3QFAAAAc2hhcGV0CwAAAGNvbmNhdGVuYXRldAUAAABzbGljZSgKAAAAdAQAAABkYXRhdAEAAABp\ndAUAAABwYXJ0c1ICAAAAdAoAAABiYXRjaF9zaXpldAsAAABpbnB1dF9zaGFwZXQEAAAAc3RlcHQE\nAAAAc2l6ZXQGAAAAc3RyaWRldAUAAABzdGFydCgAAAAAKAAAAABzTQAAAC9ob21lL3RhbnlhLy5s\nb2NhbC9saWIvcHl0aG9uMi43L3NpdGUtcGFja2FnZXMva2VyYXMvdXRpbHMvbXVsdGlfZ3B1X3V0\naWxzLnB5dAkAAABnZXRfc2xpY2W3AAAAcxYAAAAAAQ8BCgEKAQoBEAERAgYBGwEfAQoB\n", null, null], "name": "lambda_34", "trainable": true, "function_type": "lambda", "arguments": {"i": 1, "parts": 2}, "output_shape": [224, 224, 1], "output_shape_type": "raw"}, "inbound_nodes": [[["input_7", 0, 0, {}]]], "name": "lambda_34"}, {"class_name": "Lambda", "config": {"function": ["YwMAAAAKAAAABAAAAFNgAQBzqwAAAHQAAGoBAHwAAIMBAH0DAHwDAGQBACB9BAB8AwBkAQAffQUA\nfAQAfAIAGn0GAHwBAHwCAGQBABhrAgByTgB8BAB8BgB8AQAUGH0HAG4GAHwGAH0HAHQAAGoCAHwH\nAHwFAGcCAGQCAGQDAIMBAX0HAHQAAGoCAHwGAHwFAGQDABRnAgBkAgBkAwCDAQF9CAB8CAB8AQAU\nfQkAdAAAagMAfAAAfAkAfAcAgwMAUygEAAAATmkBAAAAdAQAAABheGlzaQAAAAAoBAAAAHQBAAAA\nS3QFAAAAc2hhcGV0CwAAAGNvbmNhdGVuYXRldAUAAABzbGljZSgKAAAAdAQAAABkYXRhdAEAAABp\ndAUAAABwYXJ0c1ICAAAAdAoAAABiYXRjaF9zaXpldAsAAABpbnB1dF9zaGFwZXQEAAAAc3RlcHQE\nAAAAc2l6ZXQGAAAAc3RyaWRldAUAAABzdGFydCgAAAAAKAAAAABzTQAAAC9ob21lL3RhbnlhLy5s\nb2NhbC9saWIvcHl0aG9uMi43L3NpdGUtcGFja2FnZXMva2VyYXMvdXRpbHMvbXVsdGlfZ3B1X3V0\naWxzLnB5dAkAAABnZXRfc2xpY2W3AAAAcxYAAAAAAQ8BCgEKAQoBEAERAgYBGwEfAQoB\n", null, null], "name": "lambda_35", "trainable": true, "function_type": "lambda", "arguments": {"i": 1, "parts": 2}, "output_shape": [224, 224, 1], "output_shape_type": "raw"}, "inbound_nodes": [[["input_8", 0, 0, {}]]], "name": "lambda_35"}, {"class_name": "Lambda", "config": {"function": ["YwMAAAAKAAAABAAAAFNgAQBzqwAAAHQAAGoBAHwAAIMBAH0DAHwDAGQBACB9BAB8AwBkAQAffQUA\nfAQAfAIAGn0GAHwBAHwCAGQBABhrAgByTgB8BAB8BgB8AQAUGH0HAG4GAHwGAH0HAHQAAGoCAHwH\nAHwFAGcCAGQCAGQDAIMBAX0HAHQAAGoCAHwGAHwFAGQDABRnAgBkAgBkAwCDAQF9CAB8CAB8AQAU\nfQkAdAAAagMAfAAAfAkAfAcAgwMAUygEAAAATmkBAAAAdAQAAABheGlzaQAAAAAoBAAAAHQBAAAA\nS3QFAAAAc2hhcGV0CwAAAGNvbmNhdGVuYXRldAUAAABzbGljZSgKAAAAdAQAAABkYXRhdAEAAABp\ndAUAAABwYXJ0c1ICAAAAdAoAAABiYXRjaF9zaXpldAsAAABpbnB1dF9zaGFwZXQEAAAAc3RlcHQE\nAAAAc2l6ZXQGAAAAc3RyaWRldAUAAABzdGFydCgAAAAAKAAAAABzTQAAAC9ob21lL3RhbnlhLy5s\nb2NhbC9saWIvcHl0aG9uMi43L3NpdGUtcGFja2FnZXMva2VyYXMvdXRpbHMvbXVsdGlfZ3B1X3V0\naWxzLnB5dAkAAABnZXRfc2xpY2W3AAAAcxYAAAAAAQ8BCgEKAQoBEAERAgYBGwEfAQoB\n", null, null], "name": "lambda_36", "trainable": true, "function_type": "lambda", "arguments": {"i": 1, "parts": 2}, "output_shape": [224, 224, 1], "output_shape_type": "raw"}, "inbound_nodes": [[["input_9", 0, 0, {}]]], "name": "lambda_36"}, {"class_name": "Lambda", "config": {"function": ["YwMAAAAKAAAABAAAAFNgAQBzqwAAAHQAAGoBAHwAAIMBAH0DAHwDAGQBACB9BAB8AwBkAQAffQUA\nfAQAfAIAGn0GAHwBAHwCAGQBABhrAgByTgB8BAB8BgB8AQAUGH0HAG4GAHwGAH0HAHQAAGoCAHwH\nAHwFAGcCAGQCAGQDAIMBAX0HAHQAAGoCAHwGAHwFAGQDABRnAgBkAgBkAwCDAQF9CAB8CAB8AQAU\nfQkAdAAAagMAfAAAfAkAfAcAgwMAUygEAAAATmkBAAAAdAQAAABheGlzaQAAAAAoBAAAAHQBAAAA\nS3QFAAAAc2hhcGV0CwAAAGNvbmNhdGVuYXRldAUAAABzbGljZSgKAAAAdAQAAABkYXRhdAEAAABp\ndAUAAABwYXJ0c1ICAAAAdAoAAABiYXRjaF9zaXpldAsAAABpbnB1dF9zaGFwZXQEAAAAc3RlcHQE\nAAAAc2l6ZXQGAAAAc3RyaWRldAUAAABzdGFydCgAAAAAKAAAAABzTQAAAC9ob21lL3RhbnlhLy5s\nb2NhbC9saWIvcHl0aG9uMi43L3NpdGUtcGFja2FnZXMva2VyYXMvdXRpbHMvbXVsdGlfZ3B1X3V0\naWxzLnB5dAkAAABnZXRfc2xpY2W3AAAAcxYAAAAAAQ8BCgEKAQoBEAERAgYBGwEfAQoB\n", null, null], "name": "lambda_37", "trainable": true, "function_type": "lambda", "arguments": {"i": 1, "parts": 2}, "output_shape": [224, 224, 1], "output_shape_type": "raw"}, "inbound_nodes": [[["input_10", 0, 0, {}]]], "name": "lambda_37"}, {"class_name": "Lambda", "config": {"function": ["YwMAAAAKAAAABAAAAFNgAQBzqwAAAHQAAGoBAHwAAIMBAH0DAHwDAGQBACB9BAB8AwBkAQAffQUA\nfAQAfAIAGn0GAHwBAHwCAGQBABhrAgByTgB8BAB8BgB8AQAUGH0HAG4GAHwGAH0HAHQAAGoCAHwH\nAHwFAGcCAGQCAGQDAIMBAX0HAHQAAGoCAHwGAHwFAGQDABRnAgBkAgBkAwCDAQF9CAB8CAB8AQAU\nfQkAdAAAagMAfAAAfAkAfAcAgwMAUygEAAAATmkBAAAAdAQAAABheGlzaQAAAAAoBAAAAHQBAAAA\nS3QFAAAAc2hhcGV0CwAAAGNvbmNhdGVuYXRldAUAAABzbGljZSgKAAAAdAQAAABkYXRhdAEAAABp\ndAUAAABwYXJ0c1ICAAAAdAoAAABiYXRjaF9zaXpldAsAAABpbnB1dF9zaGFwZXQEAAAAc3RlcHQE\nAAAAc2l6ZXQGAAAAc3RyaWRldAUAAABzdGFydCgAAAAAKAAAAABzTQAAAC9ob21lL3RhbnlhLy5s\nb2NhbC9saWIvcHl0aG9uMi43L3NpdGUtcGFja2FnZXMva2VyYXMvdXRpbHMvbXVsdGlfZ3B1X3V0\naWxzLnB5dAkAAABnZXRfc2xpY2W3AAAAcxYAAAAAAQ8BCgEKAQoBEAERAgYBGwEfAQoB\n", null, null], "name": "lambda_38", "trainable": true, "function_type": "lambda", "arguments": {"i": 1, "parts": 2}, "output_shape": [224, 224, 1], "output_shape_type": "raw"}, "inbound_nodes": [[["input_11", 0, 0, {}]]], "name": "lambda_38"}, {"class_name": "Lambda", "config": {"function": ["YwMAAAAKAAAABAAAAFNgAQBzqwAAAHQAAGoBAHwAAIMBAH0DAHwDAGQBACB9BAB8AwBkAQAffQUA\nfAQAfAIAGn0GAHwBAHwCAGQBABhrAgByTgB8BAB8BgB8AQAUGH0HAG4GAHwGAH0HAHQAAGoCAHwH\nAHwFAGcCAGQCAGQDAIMBAX0HAHQAAGoCAHwGAHwFAGQDABRnAgBkAgBkAwCDAQF9CAB8CAB8AQAU\nfQkAdAAAagMAfAAAfAkAfAcAgwMAUygEAAAATmkBAAAAdAQAAABheGlzaQAAAAAoBAAAAHQBAAAA\nS3QFAAAAc2hhcGV0CwAAAGNvbmNhdGVuYXRldAUAAABzbGljZSgKAAAAdAQAAABkYXRhdAEAAABp\ndAUAAABwYXJ0c1ICAAAAdAoAAABiYXRjaF9zaXpldAsAAABpbnB1dF9zaGFwZXQEAAAAc3RlcHQE\nAAAAc2l6ZXQGAAAAc3RyaWRldAUAAABzdGFydCgAAAAAKAAAAABzTQAAAC9ob21lL3RhbnlhLy5s\nb2NhbC9saWIvcHl0aG9uMi43L3NpdGUtcGFja2FnZXMva2VyYXMvdXRpbHMvbXVsdGlfZ3B1X3V0\naWxzLnB5dAkAAABnZXRfc2xpY2W3AAAAcxYAAAAAAQ8BCgEKAQoBEAERAgYBGwEfAQoB\n", null, null], "name": "lambda_39", "trainable": true, "function_type": "lambda", "arguments": {"i": 1, "parts": 2}, "output_shape": [224, 224, 1], "output_shape_type": "raw"}, "inbound_nodes": [[["input_12", 0, 0, {}]]], "name": "lambda_39"}, {"class_name": "Lambda", "config": {"function": ["YwMAAAAKAAAABAAAAFNgAQBzqwAAAHQAAGoBAHwAAIMBAH0DAHwDAGQBACB9BAB8AwBkAQAffQUA\nfAQAfAIAGn0GAHwBAHwCAGQBABhrAgByTgB8BAB8BgB8AQAUGH0HAG4GAHwGAH0HAHQAAGoCAHwH\nAHwFAGcCAGQCAGQDAIMBAX0HAHQAAGoCAHwGAHwFAGQDABRnAgBkAgBkAwCDAQF9CAB8CAB8AQAU\nfQkAdAAAagMAfAAAfAkAfAcAgwMAUygEAAAATmkBAAAAdAQAAABheGlzaQAAAAAoBAAAAHQBAAAA\nS3QFAAAAc2hhcGV0CwAAAGNvbmNhdGVuYXRldAUAAABzbGljZSgKAAAAdAQAAABkYXRhdAEAAABp\ndAUAAABwYXJ0c1ICAAAAdAoAAABiYXRjaF9zaXpldAsAAABpbnB1dF9zaGFwZXQEAAAAc3RlcHQE\nAAAAc2l6ZXQGAAAAc3RyaWRldAUAAABzdGFydCgAAAAAKAAAAABzTQAAAC9ob21lL3RhbnlhLy5s\nb2NhbC9saWIvcHl0aG9uMi43L3NpdGUtcGFja2FnZXMva2VyYXMvdXRpbHMvbXVsdGlfZ3B1X3V0\naWxzLnB5dAkAAABnZXRfc2xpY2W3AAAAcxYAAAAAAQ8BCgEKAQoBEAERAgYBGwEfAQoB\n", null, null], "name": "lambda_40", "trainable": true, "function_type": "lambda", "arguments": {"i": 1, "parts": 2}, "output_shape": [224, 224, 1], "output_shape_type": "raw"}, "inbound_nodes": [[["input_13", 0, 0, {}]]], "name": "lambda_40"}, {"class_name": "Lambda", "config": {"function": ["YwMAAAAKAAAABAAAAFNgAQBzqwAAAHQAAGoBAHwAAIMBAH0DAHwDAGQBACB9BAB8AwBkAQAffQUA\nfAQAfAIAGn0GAHwBAHwCAGQBABhrAgByTgB8BAB8BgB8AQAUGH0HAG4GAHwGAH0HAHQAAGoCAHwH\nAHwFAGcCAGQCAGQDAIMBAX0HAHQAAGoCAHwGAHwFAGQDABRnAgBkAgBkAwCDAQF9CAB8CAB8AQAU\nfQkAdAAAagMAfAAAfAkAfAcAgwMAUygEAAAATmkBAAAAdAQAAABheGlzaQAAAAAoBAAAAHQBAAAA\nS3QFAAAAc2hhcGV0CwAAAGNvbmNhdGVuYXRldAUAAABzbGljZSgKAAAAdAQAAABkYXRhdAEAAABp\ndAUAAABwYXJ0c1ICAAAAdAoAAABiYXRjaF9zaXpldAsAAABpbnB1dF9zaGFwZXQEAAAAc3RlcHQE\nAAAAc2l6ZXQGAAAAc3RyaWRldAUAAABzdGFydCgAAAAAKAAAAABzTQAAAC9ob21lL3RhbnlhLy5s\nb2NhbC9saWIvcHl0aG9uMi43L3NpdGUtcGFja2FnZXMva2VyYXMvdXRpbHMvbXVsdGlfZ3B1X3V0\naWxzLnB5dAkAAABnZXRfc2xpY2W3AAAAcxYAAAAAAQ8BCgEKAQoBEAERAgYBGwEfAQoB\n", null, null], "name": "lambda_41", "trainable": true, "function_type": "lambda", "arguments": {"i": 1, "parts": 2}, "output_shape": [224, 224, 1], "output_shape_type": "raw"}, "inbound_nodes": [[["input_14", 0, 0, {}]]], "name": "lambda_41"}, {"class_name": "Lambda", "config": {"function": ["YwMAAAAKAAAABAAAAFNgAQBzqwAAAHQAAGoBAHwAAIMBAH0DAHwDAGQBACB9BAB8AwBkAQAffQUA\nfAQAfAIAGn0GAHwBAHwCAGQBABhrAgByTgB8BAB8BgB8AQAUGH0HAG4GAHwGAH0HAHQAAGoCAHwH\nAHwFAGcCAGQCAGQDAIMBAX0HAHQAAGoCAHwGAHwFAGQDABRnAgBkAgBkAwCDAQF9CAB8CAB8AQAU\nfQkAdAAAagMAfAAAfAkAfAcAgwMAUygEAAAATmkBAAAAdAQAAABheGlzaQAAAAAoBAAAAHQBAAAA\nS3QFAAAAc2hhcGV0CwAAAGNvbmNhdGVuYXRldAUAAABzbGljZSgKAAAAdAQAAABkYXRhdAEAAABp\ndAUAAABwYXJ0c1ICAAAAdAoAAABiYXRjaF9zaXpldAsAAABpbnB1dF9zaGFwZXQEAAAAc3RlcHQE\nAAAAc2l6ZXQGAAAAc3RyaWRldAUAAABzdGFydCgAAAAAKAAAAABzTQAAAC9ob21lL3RhbnlhLy5s\nb2NhbC9saWIvcHl0aG9uMi43L3NpdGUtcGFja2FnZXMva2VyYXMvdXRpbHMvbXVsdGlfZ3B1X3V0\naWxzLnB5dAkAAABnZXRfc2xpY2W3AAAAcxYAAAAAAQ8BCgEKAQoBEAERAgYBGwEfAQoB\n", null, null], "name": "lambda_42", "trainable": true, "function_type": "lambda", "arguments": {"i": 1, "parts": 2}, "output_shape": [224, 224, 1], "output_shape_type": "raw"}, "inbound_nodes": [[["input_15", 0, 0, {}]]], "name": "lambda_42"}, {"class_name": "Lambda", "config": {"function": ["YwMAAAAKAAAABAAAAFNgAQBzqwAAAHQAAGoBAHwAAIMBAH0DAHwDAGQBACB9BAB8AwBkAQAffQUA\nfAQAfAIAGn0GAHwBAHwCAGQBABhrAgByTgB8BAB8BgB8AQAUGH0HAG4GAHwGAH0HAHQAAGoCAHwH\nAHwFAGcCAGQCAGQDAIMBAX0HAHQAAGoCAHwGAHwFAGQDABRnAgBkAgBkAwCDAQF9CAB8CAB8AQAU\nfQkAdAAAagMAfAAAfAkAfAcAgwMAUygEAAAATmkBAAAAdAQAAABheGlzaQAAAAAoBAAAAHQBAAAA\nS3QFAAAAc2hhcGV0CwAAAGNvbmNhdGVuYXRldAUAAABzbGljZSgKAAAAdAQAAABkYXRhdAEAAABp\ndAUAAABwYXJ0c1ICAAAAdAoAAABiYXRjaF9zaXpldAsAAABpbnB1dF9zaGFwZXQEAAAAc3RlcHQE\nAAAAc2l6ZXQGAAAAc3RyaWRldAUAAABzdGFydCgAAAAAKAAAAABzTQAAAC9ob21lL3RhbnlhLy5s\nb2NhbC9saWIvcHl0aG9uMi43L3NpdGUtcGFja2FnZXMva2VyYXMvdXRpbHMvbXVsdGlfZ3B1X3V0\naWxzLnB5dAkAAABnZXRfc2xpY2W3AAAAcxYAAAAAAQ8BCgEKAQoBEAERAgYBGwEfAQoB\n", null, null], "name": "lambda_43", "trainable": true, "function_type": "lambda", "arguments": {"i": 1, "parts": 2}, "output_shape": [224, 224, 1], "output_shape_type": "raw"}, "inbound_nodes": [[["input_16", 0, 0, {}]]], "name": "lambda_43"}, {"class_name": "Lambda", "config": {"function": ["YwMAAAAKAAAABAAAAFNgAQBzqwAAAHQAAGoBAHwAAIMBAH0DAHwDAGQBACB9BAB8AwBkAQAffQUA\nfAQAfAIAGn0GAHwBAHwCAGQBABhrAgByTgB8BAB8BgB8AQAUGH0HAG4GAHwGAH0HAHQAAGoCAHwH\nAHwFAGcCAGQCAGQDAIMBAX0HAHQAAGoCAHwGAHwFAGQDABRnAgBkAgBkAwCDAQF9CAB8CAB8AQAU\nfQkAdAAAagMAfAAAfAkAfAcAgwMAUygEAAAATmkBAAAAdAQAAABheGlzaQAAAAAoBAAAAHQBAAAA\nS3QFAAAAc2hhcGV0CwAAAGNvbmNhdGVuYXRldAUAAABzbGljZSgKAAAAdAQAAABkYXRhdAEAAABp\ndAUAAABwYXJ0c1ICAAAAdAoAAABiYXRjaF9zaXpldAsAAABpbnB1dF9zaGFwZXQEAAAAc3RlcHQE\nAAAAc2l6ZXQGAAAAc3RyaWRldAUAAABzdGFydCgAAAAAKAAAAABzTQAAAC9ob21lL3RhbnlhLy5s\nb2NhbC9saWIvcHl0aG9uMi43L3NpdGUtcGFja2FnZXMva2VyYXMvdXRpbHMvbXVsdGlfZ3B1X3V0\naWxzLnB5dAkAAABnZXRfc2xpY2W3AAAAcxYAAAAAAQ8BCgEKAQoBEAERAgYBGwEfAQoB\n", null, null], "name": "lambda_44", "trainable": true, "function_type": "lambda", "arguments": {"i": 1, "parts": 2}, "output_shape": [224, 224, 1], "output_shape_type": "raw"}, "inbound_nodes": [[["input_17", 0, 0, {}]]], "name": "lambda_44"}, {"class_name": "Lambda", "config": {"function": ["YwMAAAAKAAAABAAAAFNgAQBzqwAAAHQAAGoBAHwAAIMBAH0DAHwDAGQBACB9BAB8AwBkAQAffQUA\nfAQAfAIAGn0GAHwBAHwCAGQBABhrAgByTgB8BAB8BgB8AQAUGH0HAG4GAHwGAH0HAHQAAGoCAHwH\nAHwFAGcCAGQCAGQDAIMBAX0HAHQAAGoCAHwGAHwFAGQDABRnAgBkAgBkAwCDAQF9CAB8CAB8AQAU\nfQkAdAAAagMAfAAAfAkAfAcAgwMAUygEAAAATmkBAAAAdAQAAABheGlzaQAAAAAoBAAAAHQBAAAA\nS3QFAAAAc2hhcGV0CwAAAGNvbmNhdGVuYXRldAUAAABzbGljZSgKAAAAdAQAAABkYXRhdAEAAABp\ndAUAAABwYXJ0c1ICAAAAdAoAAABiYXRjaF9zaXpldAsAAABpbnB1dF9zaGFwZXQEAAAAc3RlcHQE\nAAAAc2l6ZXQGAAAAc3RyaWRldAUAAABzdGFydCgAAAAAKAAAAABzTQAAAC9ob21lL3RhbnlhLy5s\nb2NhbC9saWIvcHl0aG9uMi43L3NpdGUtcGFja2FnZXMva2VyYXMvdXRpbHMvbXVsdGlfZ3B1X3V0\naWxzLnB5dAkAAABnZXRfc2xpY2W3AAAAcxYAAAAAAQ8BCgEKAQoBEAERAgYBGwEfAQoB\n", null, null], "name": "lambda_45", "trainable": true, "function_type": "lambda", "arguments": {"i": 1, "parts": 2}, "output_shape": [224, 224, 1], "output_shape_type": "raw"}, "inbound_nodes": [[["input_18", 0, 0, {}]]], "name": "lambda_45"}, {"class_name": "Lambda", "config": {"function": ["YwMAAAAKAAAABAAAAFNgAQBzqwAAAHQAAGoBAHwAAIMBAH0DAHwDAGQBACB9BAB8AwBkAQAffQUA\nfAQAfAIAGn0GAHwBAHwCAGQBABhrAgByTgB8BAB8BgB8AQAUGH0HAG4GAHwGAH0HAHQAAGoCAHwH\nAHwFAGcCAGQCAGQDAIMBAX0HAHQAAGoCAHwGAHwFAGQDABRnAgBkAgBkAwCDAQF9CAB8CAB8AQAU\nfQkAdAAAagMAfAAAfAkAfAcAgwMAUygEAAAATmkBAAAAdAQAAABheGlzaQAAAAAoBAAAAHQBAAAA\nS3QFAAAAc2hhcGV0CwAAAGNvbmNhdGVuYXRldAUAAABzbGljZSgKAAAAdAQAAABkYXRhdAEAAABp\ndAUAAABwYXJ0c1ICAAAAdAoAAABiYXRjaF9zaXpldAsAAABpbnB1dF9zaGFwZXQEAAAAc3RlcHQE\nAAAAc2l6ZXQGAAAAc3RyaWRldAUAAABzdGFydCgAAAAAKAAAAABzTQAAAC9ob21lL3RhbnlhLy5s\nb2NhbC9saWIvcHl0aG9uMi43L3NpdGUtcGFja2FnZXMva2VyYXMvdXRpbHMvbXVsdGlfZ3B1X3V0\naWxzLnB5dAkAAABnZXRfc2xpY2W3AAAAcxYAAAAAAQ8BCgEKAQoBEAERAgYBGwEfAQoB\n", null, null], "name": "lambda_46", "trainable": true, "function_type": "lambda", "arguments": {"i": 1, "parts": 2}, "output_shape": [224, 224, 1], "output_shape_type": "raw"}, "inbound_nodes": [[["input_19", 0, 0, {}]]], "name": "lambda_46"}, {"class_name": "Lambda", "config": {"function": ["YwMAAAAKAAAABAAAAFNgAQBzqwAAAHQAAGoBAHwAAIMBAH0DAHwDAGQBACB9BAB8AwBkAQAffQUA\nfAQAfAIAGn0GAHwBAHwCAGQBABhrAgByTgB8BAB8BgB8AQAUGH0HAG4GAHwGAH0HAHQAAGoCAHwH\nAHwFAGcCAGQCAGQDAIMBAX0HAHQAAGoCAHwGAHwFAGQDABRnAgBkAgBkAwCDAQF9CAB8CAB8AQAU\nfQkAdAAAagMAfAAAfAkAfAcAgwMAUygEAAAATmkBAAAAdAQAAABheGlzaQAAAAAoBAAAAHQBAAAA\nS3QFAAAAc2hhcGV0CwAAAGNvbmNhdGVuYXRldAUAAABzbGljZSgKAAAAdAQAAABkYXRhdAEAAABp\ndAUAAABwYXJ0c1ICAAAAdAoAAABiYXRjaF9zaXpldAsAAABpbnB1dF9zaGFwZXQEAAAAc3RlcHQE\nAAAAc2l6ZXQGAAAAc3RyaWRldAUAAABzdGFydCgAAAAAKAAAAABzTQAAAC9ob21lL3RhbnlhLy5s\nb2NhbC9saWIvcHl0aG9uMi43L3NpdGUtcGFja2FnZXMva2VyYXMvdXRpbHMvbXVsdGlfZ3B1X3V0\naWxzLnB5dAkAAABnZXRfc2xpY2W3AAAAcxYAAAAAAQ8BCgEKAQoBEAERAgYBGwEfAQoB\n", null, null], "name": "lambda_47", "trainable": true, "function_type": "lambda", "arguments": {"i": 1, "parts": 2}, "output_shape": [224, 224, 1], "output_shape_type": "raw"}, "inbound_nodes": [[["input_20", 0, 0, {}]]], "name": "lambda_47"}, {"class_name": "Lambda", "config": {"function": ["YwMAAAAKAAAABAAAAFNgAQBzqwAAAHQAAGoBAHwAAIMBAH0DAHwDAGQBACB9BAB8AwBkAQAffQUA\nfAQAfAIAGn0GAHwBAHwCAGQBABhrAgByTgB8BAB8BgB8AQAUGH0HAG4GAHwGAH0HAHQAAGoCAHwH\nAHwFAGcCAGQCAGQDAIMBAX0HAHQAAGoCAHwGAHwFAGQDABRnAgBkAgBkAwCDAQF9CAB8CAB8AQAU\nfQkAdAAAagMAfAAAfAkAfAcAgwMAUygEAAAATmkBAAAAdAQAAABheGlzaQAAAAAoBAAAAHQBAAAA\nS3QFAAAAc2hhcGV0CwAAAGNvbmNhdGVuYXRldAUAAABzbGljZSgKAAAAdAQAAABkYXRhdAEAAABp\ndAUAAABwYXJ0c1ICAAAAdAoAAABiYXRjaF9zaXpldAsAAABpbnB1dF9zaGFwZXQEAAAAc3RlcHQE\nAAAAc2l6ZXQGAAAAc3RyaWRldAUAAABzdGFydCgAAAAAKAAAAABzTQAAAC9ob21lL3RhbnlhLy5s\nb2NhbC9saWIvcHl0aG9uMi43L3NpdGUtcGFja2FnZXMva2VyYXMvdXRpbHMvbXVsdGlfZ3B1X3V0\naWxzLnB5dAkAAABnZXRfc2xpY2W3AAAAcxYAAAAAAQ8BCgEKAQoBEAERAgYBGwEfAQoB\n", null, null], "name": "lambda_48", "trainable": true, "function_type": "lambda", "arguments": {"i": 1, "parts": 2}, "output_shape": [224, 224, 1], "output_shape_type": "raw"}, "inbound_nodes": [[["input_21", 0, 0, {}]]], "name": "lambda_48"}, {"class_name": "Lambda", "config": {"function": ["YwMAAAAKAAAABAAAAFNgAQBzqwAAAHQAAGoBAHwAAIMBAH0DAHwDAGQBACB9BAB8AwBkAQAffQUA\nfAQAfAIAGn0GAHwBAHwCAGQBABhrAgByTgB8BAB8BgB8AQAUGH0HAG4GAHwGAH0HAHQAAGoCAHwH\nAHwFAGcCAGQCAGQDAIMBAX0HAHQAAGoCAHwGAHwFAGQDABRnAgBkAgBkAwCDAQF9CAB8CAB8AQAU\nfQkAdAAAagMAfAAAfAkAfAcAgwMAUygEAAAATmkBAAAAdAQAAABheGlzaQAAAAAoBAAAAHQBAAAA\nS3QFAAAAc2hhcGV0CwAAAGNvbmNhdGVuYXRldAUAAABzbGljZSgKAAAAdAQAAABkYXRhdAEAAABp\ndAUAAABwYXJ0c1ICAAAAdAoAAABiYXRjaF9zaXpldAsAAABpbnB1dF9zaGFwZXQEAAAAc3RlcHQE\nAAAAc2l6ZXQGAAAAc3RyaWRldAUAAABzdGFydCgAAAAAKAAAAABzTQAAAC9ob21lL3RhbnlhLy5s\nb2NhbC9saWIvcHl0aG9uMi43L3NpdGUtcGFja2FnZXMva2VyYXMvdXRpbHMvbXVsdGlfZ3B1X3V0\naWxzLnB5dAkAAABnZXRfc2xpY2W3AAAAcxYAAAAAAQ8BCgEKAQoBEAERAgYBGwEfAQoB\n", null, null], "name": "lambda_49", "trainable": true, "function_type": "lambda", "arguments": {"i": 1, "parts": 2}, "output_shape": [224, 224, 1], "output_shape_type": "raw"}, "inbound_nodes": [[["input_22", 0, 0, {}]]], "name": "lambda_49"}, {"class_name": "Lambda", "config": {"function": ["YwMAAAAKAAAABAAAAFNgAQBzqwAAAHQAAGoBAHwAAIMBAH0DAHwDAGQBACB9BAB8AwBkAQAffQUA\nfAQAfAIAGn0GAHwBAHwCAGQBABhrAgByTgB8BAB8BgB8AQAUGH0HAG4GAHwGAH0HAHQAAGoCAHwH\nAHwFAGcCAGQCAGQDAIMBAX0HAHQAAGoCAHwGAHwFAGQDABRnAgBkAgBkAwCDAQF9CAB8CAB8AQAU\nfQkAdAAAagMAfAAAfAkAfAcAgwMAUygEAAAATmkBAAAAdAQAAABheGlzaQAAAAAoBAAAAHQBAAAA\nS3QFAAAAc2hhcGV0CwAAAGNvbmNhdGVuYXRldAUAAABzbGljZSgKAAAAdAQAAABkYXRhdAEAAABp\ndAUAAABwYXJ0c1ICAAAAdAoAAABiYXRjaF9zaXpldAsAAABpbnB1dF9zaGFwZXQEAAAAc3RlcHQE\nAAAAc2l6ZXQGAAAAc3RyaWRldAUAAABzdGFydCgAAAAAKAAAAABzTQAAAC9ob21lL3RhbnlhLy5s\nb2NhbC9saWIvcHl0aG9uMi43L3NpdGUtcGFja2FnZXMva2VyYXMvdXRpbHMvbXVsdGlfZ3B1X3V0\naWxzLnB5dAkAAABnZXRfc2xpY2W3AAAAcxYAAAAAAQ8BCgEKAQoBEAERAgYBGwEfAQoB\n", null, null], "name": "lambda_50", "trainable": true, "function_type": "lambda", "arguments": {"i": 1, "parts": 2}, "output_shape": [224, 224, 1], "output_shape_type": "raw"}, "inbound_nodes": [[["input_23", 0, 0, {}]]], "name": "lambda_50"}, {"class_name": "Lambda", "config": {"function": ["YwMAAAAKAAAABAAAAFNgAQBzqwAAAHQAAGoBAHwAAIMBAH0DAHwDAGQBACB9BAB8AwBkAQAffQUA\nfAQAfAIAGn0GAHwBAHwCAGQBABhrAgByTgB8BAB8BgB8AQAUGH0HAG4GAHwGAH0HAHQAAGoCAHwH\nAHwFAGcCAGQCAGQDAIMBAX0HAHQAAGoCAHwGAHwFAGQDABRnAgBkAgBkAwCDAQF9CAB8CAB8AQAU\nfQkAdAAAagMAfAAAfAkAfAcAgwMAUygEAAAATmkBAAAAdAQAAABheGlzaQAAAAAoBAAAAHQBAAAA\nS3QFAAAAc2hhcGV0CwAAAGNvbmNhdGVuYXRldAUAAABzbGljZSgKAAAAdAQAAABkYXRhdAEAAABp\ndAUAAABwYXJ0c1ICAAAAdAoAAABiYXRjaF9zaXpldAsAAABpbnB1dF9zaGFwZXQEAAAAc3RlcHQE\nAAAAc2l6ZXQGAAAAc3RyaWRldAUAAABzdGFydCgAAAAAKAAAAABzTQAAAC9ob21lL3RhbnlhLy5s\nb2NhbC9saWIvcHl0aG9uMi43L3NpdGUtcGFja2FnZXMva2VyYXMvdXRpbHMvbXVsdGlfZ3B1X3V0\naWxzLnB5dAkAAABnZXRfc2xpY2W3AAAAcxYAAAAAAQ8BCgEKAQoBEAERAgYBGwEfAQoB\n", null, null], "name": "lambda_51", "trainable": true, "function_type": "lambda", "arguments": {"i": 1, "parts": 2}, "output_shape": [224, 224, 1], "output_shape_type": "raw"}, "inbound_nodes": [[["input_24", 0, 0, {}]]], "name": "lambda_51"}, {"class_name": "Lambda", "config": {"function": ["YwMAAAAKAAAABAAAAFNgAQBzqwAAAHQAAGoBAHwAAIMBAH0DAHwDAGQBACB9BAB8AwBkAQAffQUA\nfAQAfAIAGn0GAHwBAHwCAGQBABhrAgByTgB8BAB8BgB8AQAUGH0HAG4GAHwGAH0HAHQAAGoCAHwH\nAHwFAGcCAGQCAGQDAIMBAX0HAHQAAGoCAHwGAHwFAGQDABRnAgBkAgBkAwCDAQF9CAB8CAB8AQAU\nfQkAdAAAagMAfAAAfAkAfAcAgwMAUygEAAAATmkBAAAAdAQAAABheGlzaQAAAAAoBAAAAHQBAAAA\nS3QFAAAAc2hhcGV0CwAAAGNvbmNhdGVuYXRldAUAAABzbGljZSgKAAAAdAQAAABkYXRhdAEAAABp\ndAUAAABwYXJ0c1ICAAAAdAoAAABiYXRjaF9zaXpldAsAAABpbnB1dF9zaGFwZXQEAAAAc3RlcHQE\nAAAAc2l6ZXQGAAAAc3RyaWRldAUAAABzdGFydCgAAAAAKAAAAABzTQAAAC9ob21lL3RhbnlhLy5s\nb2NhbC9saWIvcHl0aG9uMi43L3NpdGUtcGFja2FnZXMva2VyYXMvdXRpbHMvbXVsdGlfZ3B1X3V0\naWxzLnB5dAkAAABnZXRfc2xpY2W3AAAAcxYAAAAAAQ8BCgEKAQoBEAERAgYBGwEfAQoB\n", null, null], "name": "lambda_52", "trainable": true, "function_type": "lambda", "arguments": {"i": 1, "parts": 2}, "output_shape": [224, 224, 1], "output_shape_type": "raw"}, "inbound_nodes": [[["input_25", 0, 0, {}]]], "name": "lambda_52"}, {"class_name": "Lambda", "config": {"function": ["YwMAAAAKAAAABAAAAFNgAQBzqwAAAHQAAGoBAHwAAIMBAH0DAHwDAGQBACB9BAB8AwBkAQAffQUA\nfAQAfAIAGn0GAHwBAHwCAGQBABhrAgByTgB8BAB8BgB8AQAUGH0HAG4GAHwGAH0HAHQAAGoCAHwH\nAHwFAGcCAGQCAGQDAIMBAX0HAHQAAGoCAHwGAHwFAGQDABRnAgBkAgBkAwCDAQF9CAB8CAB8AQAU\nfQkAdAAAagMAfAAAfAkAfAcAgwMAUygEAAAATmkBAAAAdAQAAABheGlzaQAAAAAoBAAAAHQBAAAA\nS3QFAAAAc2hhcGV0CwAAAGNvbmNhdGVuYXRldAUAAABzbGljZSgKAAAAdAQAAABkYXRhdAEAAABp\ndAUAAABwYXJ0c1ICAAAAdAoAAABiYXRjaF9zaXpldAsAAABpbnB1dF9zaGFwZXQEAAAAc3RlcHQE\nAAAAc2l6ZXQGAAAAc3RyaWRldAUAAABzdGFydCgAAAAAKAAAAABzTQAAAC9ob21lL3RhbnlhLy5s\nb2NhbC9saWIvcHl0aG9uMi43L3NpdGUtcGFja2FnZXMva2VyYXMvdXRpbHMvbXVsdGlfZ3B1X3V0\naWxzLnB5dAkAAABnZXRfc2xpY2W3AAAAcxYAAAAAAQ8BCgEKAQoBEAERAgYBGwEfAQoB\n", null, null], "name": "lambda_53", "trainable": true, "function_type": "lambda", "arguments": {"i": 1, "parts": 2}, "output_shape": [224, 224, 1], "output_shape_type": "raw"}, "inbound_nodes": [[["input_26", 0, 0, {}]]], "name": "lambda_53"}, {"class_name": "Lambda", "config": {"function": ["YwMAAAAKAAAABAAAAFNgAQBzqwAAAHQAAGoBAHwAAIMBAH0DAHwDAGQBACB9BAB8AwBkAQAffQUA\nfAQAfAIAGn0GAHwBAHwCAGQBABhrAgByTgB8BAB8BgB8AQAUGH0HAG4GAHwGAH0HAHQAAGoCAHwH\nAHwFAGcCAGQCAGQDAIMBAX0HAHQAAGoCAHwGAHwFAGQDABRnAgBkAgBkAwCDAQF9CAB8CAB8AQAU\nfQkAdAAAagMAfAAAfAkAfAcAgwMAUygEAAAATmkBAAAAdAQAAABheGlzaQAAAAAoBAAAAHQBAAAA\nS3QFAAAAc2hhcGV0CwAAAGNvbmNhdGVuYXRldAUAAABzbGljZSgKAAAAdAQAAABkYXRhdAEAAABp\ndAUAAABwYXJ0c1ICAAAAdAoAAABiYXRjaF9zaXpldAsAAABpbnB1dF9zaGFwZXQEAAAAc3RlcHQE\nAAAAc2l6ZXQGAAAAc3RyaWRldAUAAABzdGFydCgAAAAAKAAAAABzTQAAAC9ob21lL3RhbnlhLy5s\nb2NhbC9saWIvcHl0aG9uMi43L3NpdGUtcGFja2FnZXMva2VyYXMvdXRpbHMvbXVsdGlfZ3B1X3V0\naWxzLnB5dAkAAABnZXRfc2xpY2W3AAAAcxYAAAAAAQ8BCgEKAQoBEAERAgYBGwEfAQoB\n", null, null], "name": "lambda_54", "trainable": true, "function_type": "lambda", "arguments": {"i": 1, "parts": 2}, "output_shape": [224, 224, 1], "output_shape_type": "raw"}, "inbound_nodes": [[["input_27", 0, 0, {}]]], "name": "lambda_54"}, {"class_name": "Model", "config": {"layers": [{"class_name": "InputLayer", "inbound_nodes": [], "config": {"dtype": "float32", "batch_input_shape": [null, 224, 224, 1], "name": "input_1", "sparse": false}, "name": "input_1"}, {"class_name": "InputLayer", "inbound_nodes": [], "config": {"dtype": "float32", "batch_input_shape": [null, 224, 224, 1], "name": "input_2", "sparse": false}, "name": "input_2"}, {"class_name": "InputLayer", "inbound_nodes": [], "config": {"dtype": "float32", "batch_input_shape": [null, 224, 224, 1], "name": "input_3", "sparse": false}, "name": "input_3"}, {"class_name": "InputLayer", "inbound_nodes": [], "config": {"dtype": "float32", "batch_input_shape": [null, 224, 224, 1], "name": "input_4", "sparse": false}, "name": "input_4"}, {"class_name": "InputLayer", "inbound_nodes": [], "config": {"dtype": "float32", "batch_input_shape": [null, 224, 224, 1], "name": "input_5", "sparse": false}, "name": "input_5"}, {"class_name": "InputLayer", "inbound_nodes": [], "config": {"dtype": "float32", "batch_input_shape": [null, 224, 224, 1], "name": "input_6", "sparse": false}, "name": "input_6"}, {"class_name": "InputLayer", "inbound_nodes": [], "config": {"dtype": "float32", "batch_input_shape": [null, 224, 224, 1], "name": "input_7", "sparse": false}, "name": "input_7"}, {"class_name": "InputLayer", "inbound_nodes": [], "config": {"dtype": "float32", "batch_input_shape": [null, 224, 224, 1], "name": "input_8", "sparse": false}, "name": "input_8"}, {"class_name": "InputLayer", "inbound_nodes": [], "config": {"dtype": "float32", "batch_input_shape": [null, 224, 224, 1], "name": "input_9", "sparse": false}, "name": "input_9"}, {"class_name": "InputLayer", "inbound_nodes": [], "config": {"dtype": "float32", "batch_input_shape": [null, 224, 224, 1], "name": "input_10", "sparse": false}, "name": "input_10"}, {"class_name": "InputLayer", "inbound_nodes": [], "config": {"dtype": "float32", "batch_input_shape": [null, 224, 224, 1], "name": "input_11", "sparse": false}, "name": "input_11"}, {"class_name": "InputLayer", "inbound_nodes": [], "config": {"dtype": "float32", "batch_input_shape": [null, 224, 224, 1], "name": "input_12", "sparse": false}, "name": "input_12"}, {"class_name": "InputLayer", "inbound_nodes": [], "config": {"dtype": "float32", "batch_input_shape": [null, 224, 224, 1], "name": "input_13", "sparse": false}, "name": "input_13"}, {"class_name": "InputLayer", "inbound_nodes": [], "config": {"dtype": "float32", "batch_input_shape": [null, 224, 224, 1], "name": "input_14", "sparse": false}, "name": "input_14"}, {"class_name": "InputLayer", "inbound_nodes": [], "config": {"dtype": "float32", "batch_input_shape": [null, 224, 224, 1], "name": "input_15", "sparse": false}, "name": "input_15"}, {"class_name": "InputLayer", "inbound_nodes": [], "config": {"dtype": "float32", "batch_input_shape": [null, 224, 224, 1], "name": "input_16", "sparse": false}, "name": "input_16"}, {"class_name": "InputLayer", "inbound_nodes": [], "config": {"dtype": "float32", "batch_input_shape": [null, 224, 224, 1], "name": "input_17", "sparse": false}, "name": "input_17"}, {"class_name": "InputLayer", "inbound_nodes": [], "config": {"dtype": "float32", "batch_input_shape": [null, 224, 224, 1], "name": "input_18", "sparse": false}, "name": "input_18"}, {"class_name": "InputLayer", "inbound_nodes": [], "config": {"dtype": "float32", "batch_input_shape": [null, 224, 224, 1], "name": "input_19", "sparse": false}, "name": "input_19"}, {"class_name": "InputLayer", "inbound_nodes": [], "config": {"dtype": "float32", "batch_input_shape": [null, 224, 224, 1], "name": "input_20", "sparse": false}, "name": "input_20"}, {"class_name": "InputLayer", "inbound_nodes": [], "config": {"dtype": "float32", "batch_input_shape": [null, 224, 224, 1], "name": "input_21", "sparse": false}, "name": "input_21"}, {"class_name": "InputLayer", "inbound_nodes": [], "config": {"dtype": "float32", "batch_input_shape": [null, 224, 224, 1], "name": "input_22", "sparse": false}, "name": "input_22"}, {"class_name": "InputLayer", "inbound_nodes": [], "config": {"dtype": "float32", "batch_input_shape": [null, 224, 224, 1], "name": "input_23", "sparse": false}, "name": "input_23"}, {"class_name": "InputLayer", "inbound_nodes": [], "config": {"dtype": "float32", "batch_input_shape": [null, 224, 224, 1], "name": "input_24", "sparse": false}, "name": "input_24"}, {"class_name": "InputLayer", "inbound_nodes": [], "config": {"dtype": "float32", "batch_input_shape": [null, 224, 224, 1], "name": "input_25", "sparse": false}, "name": "input_25"}, {"class_name": "InputLayer", "inbound_nodes": [], "config": {"dtype": "float32", "batch_input_shape": [null, 224, 224, 1], "name": "input_26", "sparse": false}, "name": "input_26"}, {"class_name": "InputLayer", "inbound_nodes": [], "config": {"dtype": "float32", "batch_input_shape": [null, 224, 224, 1], "name": "input_27", "sparse": false}, "name": "input_27"}, {"class_name": "ZeroPadding2D", "inbound_nodes": [[["input_1", 0, 0, {}]]], "config": {"padding": [[3, 3], [3, 3]], "trainable": false, "name": "conv1_pad0", "data_format": "channels_last"}, "name": "conv1_pad0"}, {"class_name": "ZeroPadding2D", "inbound_nodes": [[["input_2", 0, 0, {}]]], "config": {"padding": [[3, 3], [3, 3]], "trainable": false, "name": "conv1_pad1", "data_format": "channels_last"}, "name": "conv1_pad1"}, {"class_name": "ZeroPadding2D", "inbound_nodes": [[["input_3", 0, 0, {}]]], "config": {"padding": [[3, 3], [3, 3]], "trainable": false, "name": "conv1_pad2", "data_format": "channels_last"}, "name": "conv1_pad2"}, {"class_name": "ZeroPadding2D", "inbound_nodes": [[["input_4", 0, 0, {}]]], "config": {"padding": [[3, 3], [3, 3]], "trainable": false, "name": "conv1_pad3", "data_format": "channels_last"}, "name": "conv1_pad3"}, {"class_name": "ZeroPadding2D", "inbound_nodes": [[["input_5", 0, 0, {}]]], "config": {"padding": [[3, 3], [3, 3]], "trainable": false, "name": "conv1_pad4", "data_format": "channels_last"}, "name": "conv1_pad4"}, {"class_name": "ZeroPadding2D", "inbound_nodes": [[["input_6", 0, 0, {}]]], "config": {"padding": [[3, 3], [3, 3]], "trainable": false, "name": "conv1_pad5", "data_format": "channels_last"}, "name": "conv1_pad5"}, {"class_name": "ZeroPadding2D", "inbound_nodes": [[["input_7", 0, 0, {}]]], "config": {"padding": [[3, 3], [3, 3]], "trainable": false, "name": "conv1_pad6", "data_format": "channels_last"}, "name": "conv1_pad6"}, {"class_name": "ZeroPadding2D", "inbound_nodes": [[["input_8", 0, 0, {}]]], "config": {"padding": [[3, 3], [3, 3]], "trainable": false, "name": "conv1_pad7", "data_format": "channels_last"}, "name": "conv1_pad7"}, {"class_name": "ZeroPadding2D", "inbound_nodes": [[["input_9", 0, 0, {}]]], "config": {"padding": [[3, 3], [3, 3]], "trainable": false, "name": "conv1_pad8", "data_format": "channels_last"}, "name": "conv1_pad8"}, {"class_name": "ZeroPadding2D", "inbound_nodes": [[["input_10", 0, 0, {}]]], "config": {"padding": [[3, 3], [3, 3]], "trainable": false, "name": "conv1_pad9", "data_format": "channels_last"}, "name": "conv1_pad9"}, {"class_name": "ZeroPadding2D", "inbound_nodes": [[["input_11", 0, 0, {}]]], "config": {"padding": [[3, 3], [3, 3]], "trainable": false, "name": "conv1_pad10", "data_format": "channels_last"}, "name": "conv1_pad10"}, {"class_name": "ZeroPadding2D", "inbound_nodes": [[["input_12", 0, 0, {}]]], "config": {"padding": [[3, 3], [3, 3]], "trainable": false, "name": "conv1_pad11", "data_format": "channels_last"}, "name": "conv1_pad11"}, {"class_name": "ZeroPadding2D", "inbound_nodes": [[["input_13", 0, 0, {}]]], "config": {"padding": [[3, 3], [3, 3]], "trainable": false, "name": "conv1_pad12", "data_format": "channels_last"}, "name": "conv1_pad12"}, {"class_name": "ZeroPadding2D", "inbound_nodes": [[["input_14", 0, 0, {}]]], "config": {"padding": [[3, 3], [3, 3]], "trainable": false, "name": "conv1_pad13", "data_format": "channels_last"}, "name": "conv1_pad13"}, {"class_name": "ZeroPadding2D", "inbound_nodes": [[["input_15", 0, 0, {}]]], "config": {"padding": [[3, 3], [3, 3]], "trainable": false, "name": "conv1_pad14", "data_format": "channels_last"}, "name": "conv1_pad14"}, {"class_name": "ZeroPadding2D", "inbound_nodes": [[["input_16", 0, 0, {}]]], "config": {"padding": [[3, 3], [3, 3]], "trainable": false, "name": "conv1_pad15", "data_format": "channels_last"}, "name": "conv1_pad15"}, {"class_name": "ZeroPadding2D", "inbound_nodes": [[["input_17", 0, 0, {}]]], "config": {"padding": [[3, 3], [3, 3]], "trainable": false, "name": "conv1_pad16", "data_format": "channels_last"}, "name": "conv1_pad16"}, {"class_name": "ZeroPadding2D", "inbound_nodes": [[["input_18", 0, 0, {}]]], "config": {"padding": [[3, 3], [3, 3]], "trainable": false, "name": "conv1_pad17", "data_format": "channels_last"}, "name": "conv1_pad17"}, {"class_name": "ZeroPadding2D", "inbound_nodes": [[["input_19", 0, 0, {}]]], "config": {"padding": [[3, 3], [3, 3]], "trainable": false, "name": "conv1_pad18", "data_format": "channels_last"}, "name": "conv1_pad18"}, {"class_name": "ZeroPadding2D", "inbound_nodes": [[["input_20", 0, 0, {}]]], "config": {"padding": [[3, 3], [3, 3]], "trainable": false, "name": "conv1_pad19", "data_format": "channels_last"}, "name": "conv1_pad19"}, {"class_name": "ZeroPadding2D", "inbound_nodes": [[["input_21", 0, 0, {}]]], "config": {"padding": [[3, 3], [3, 3]], "trainable": false, "name": "conv1_pad20", "data_format": "channels_last"}, "name": "conv1_pad20"}, {"class_name": "ZeroPadding2D", "inbound_nodes": [[["input_22", 0, 0, {}]]], "config": {"padding": [[3, 3], [3, 3]], "trainable": false, "name": "conv1_pad21", "data_format": "channels_last"}, "name": "conv1_pad21"}, {"class_name": "ZeroPadding2D", "inbound_nodes": [[["input_23", 0, 0, {}]]], "config": {"padding": [[3, 3], [3, 3]], "trainable": false, "name": "conv1_pad22", "data_format": "channels_last"}, "name": "conv1_pad22"}, {"class_name": "ZeroPadding2D", "inbound_nodes": [[["input_24", 0, 0, {}]]], "config": {"padding": [[3, 3], [3, 3]], "trainable": false, "name": "conv1_pad23", "data_format": "channels_last"}, "name": "conv1_pad23"}, {"class_name": "ZeroPadding2D", "inbound_nodes": [[["input_25", 0, 0, {}]]], "config": {"padding": [[3, 3], [3, 3]], "trainable": false, "name": "conv1_pad24", "data_format": "channels_last"}, "name": "conv1_pad24"}, {"class_name": "ZeroPadding2D", "inbound_nodes": [[["input_26", 0, 0, {}]]], "config": {"padding": [[3, 3], [3, 3]], "trainable": false, "name": "conv1_pad25", "data_format": "channels_last"}, "name": "conv1_pad25"}, {"class_name": "ZeroPadding2D", "inbound_nodes": [[["input_27", 0, 0, {}]]], "config": {"padding": [[3, 3], [3, 3]], "trainable": false, "name": "conv1_pad26", "data_format": "channels_last"}, "name": "conv1_pad26"}, {"class_name": "Conv2D", "inbound_nodes": [[["conv1_pad0", 0, 0, {}]]], "config": {"kernel_initializer": {"class_name": "VarianceScaling", "config": {"distribution": "normal", "scale": 2.0, "seed": null, "mode": "fan_in"}}, "name": "conv10", "kernel_constraint": null, "bias_regularizer": null, "bias_constraint": null, "activation": "linear", "trainable": false, "data_format": "channels_last", "padding": "valid", "strides": [2, 2], "dilation_rate": [1, 1], "kernel_regularizer": null, "filters": 64, "bias_initializer": {"class_name": "Zeros", "config": {}}, "use_bias": true, "activity_regularizer": null, "kernel_size": [7, 7]}, "name": "conv10"}, {"class_name": "Conv2D", "inbound_nodes": [[["conv1_pad1", 0, 0, {}]]], "config": {"kernel_initializer": {"class_name": "VarianceScaling", "config": {"distribution": "normal", "scale": 2.0, "seed": null, "mode": "fan_in"}}, "name": "conv11", "kernel_constraint": null, "bias_regularizer": null, "bias_constraint": null, "activation": "linear", "trainable": false, "data_format": "channels_last", "padding": "valid", "strides": [2, 2], "dilation_rate": [1, 1], "kernel_regularizer": null, "filters": 64, "bias_initializer": {"class_name": "Zeros", "config": {}}, "use_bias": true, "activity_regularizer": null, "kernel_size": [7, 7]}, "name": "conv11"}, {"class_name": "Conv2D", "inbound_nodes": [[["conv1_pad2", 0, 0, {}]]], "config": {"kernel_initializer": {"class_name": "VarianceScaling", "config": {"distribution": "normal", "scale": 2.0, "seed": null, "mode": "fan_in"}}, "name": "conv12", "kernel_constraint": null, "bias_regularizer": null, "bias_constraint": null, "activation": "linear", "trainable": false, "data_format": "channels_last", "padding": "valid", "strides": [2, 2], "dilation_rate": [1, 1], "kernel_regularizer": null, "filters": 64, "bias_initializer": {"class_name": "Zeros", "config": {}}, "use_bias": true, "activity_regularizer": null, "kernel_size": [7, 7]}, "name": "conv12"}, {"class_name": "Conv2D", "inbound_nodes": [[["conv1_pad3", 0, 0, {}]]], "config": {"kernel_initializer": {"class_name": "VarianceScaling", "config": {"distribution": "normal", "scale": 2.0, "seed": null, "mode": "fan_in"}}, "name": "conv13", "kernel_constraint": null, "bias_regularizer": null, "bias_constraint": null, "activation": "linear", "trainable": false, "data_format": "channels_last", "padding": "valid", "strides": [2, 2], "dilation_rate": [1, 1], "kernel_regularizer": null, "filters": 64, "bias_initializer": {"class_name": "Zeros", "config": {}}, "use_bias": true, "activity_regularizer": null, "kernel_size": [7, 7]}, "name": "conv13"}, {"class_name": "Conv2D", "inbound_nodes": [[["conv1_pad4", 0, 0, {}]]], "config": {"kernel_initializer": {"class_name": "VarianceScaling", "config": {"distribution": "normal", "scale": 2.0, "seed": null, "mode": "fan_in"}}, "name": "conv14", "kernel_constraint": null, "bias_regularizer": null, "bias_constraint": null, "activation": "linear", "trainable": false, "data_format": "channels_last", "padding": "valid", "strides": [2, 2], "dilation_rate": [1, 1], "kernel_regularizer": null, "filters": 64, "bias_initializer": {"class_name": "Zeros", "config": {}}, "use_bias": true, "activity_regularizer": null, "kernel_size": [7, 7]}, "name": "conv14"}, {"class_name": "Conv2D", "inbound_nodes": [[["conv1_pad5", 0, 0, {}]]], "config": {"kernel_initializer": {"class_name": "VarianceScaling", "config": {"distribution": "normal", "scale": 2.0, "seed": null, "mode": "fan_in"}}, "name": "conv15", "kernel_constraint": null, "bias_regularizer": null, "bias_constraint": null, "activation": "linear", "trainable": false, "data_format": "channels_last", "padding": "valid", "strides": [2, 2], "dilation_rate": [1, 1], "kernel_regularizer": null, "filters": 64, "bias_initializer": {"class_name": "Zeros", "config": {}}, "use_bias": true, "activity_regularizer": null, "kernel_size": [7, 7]}, "name": "conv15"}, {"class_name": "Conv2D", "inbound_nodes": [[["conv1_pad6", 0, 0, {}]]], "config": {"kernel_initializer": {"class_name": "VarianceScaling", "config": {"distribution": "normal", "scale": 2.0, "seed": null, "mode": "fan_in"}}, "name": "conv16", "kernel_constraint": null, "bias_regularizer": null, "bias_constraint": null, "activation": "linear", "trainable": false, "data_format": "channels_last", "padding": "valid", "strides": [2, 2], "dilation_rate": [1, 1], "kernel_regularizer": null, "filters": 64, "bias_initializer": {"class_name": "Zeros", "config": {}}, "use_bias": true, "activity_regularizer": null, "kernel_size": [7, 7]}, "name": "conv16"}, {"class_name": "Conv2D", "inbound_nodes": [[["conv1_pad7", 0, 0, {}]]], "config": {"kernel_initializer": {"class_name": "VarianceScaling", "config": {"distribution": "normal", "scale": 2.0, "seed": null, "mode": "fan_in"}}, "name": "conv17", "kernel_constraint": null, "bias_regularizer": null, "bias_constraint": null, "activation": "linear", "trainable": false, "data_format": "channels_last", "padding": "valid", "strides": [2, 2], "dilation_rate": [1, 1], "kernel_regularizer": null, "filters": 64, "bias_initializer": {"class_name": "Zeros", "config": {}}, "use_bias": true, "activity_regularizer": null, "kernel_size": [7, 7]}, "name": "conv17"}, {"class_name": "Conv2D", "inbound_nodes": [[["conv1_pad8", 0, 0, {}]]], "config": {"kernel_initializer": {"class_name": "VarianceScaling", "config": {"distribution": "normal", "scale": 2.0, "seed": null, "mode": "fan_in"}}, "name": "conv18", "kernel_constraint": null, "bias_regularizer": null, "bias_constraint": null, "activation": "linear", "trainable": false, "data_format": "channels_last", "padding": "valid", "strides": [2, 2], "dilation_rate": [1, 1], "kernel_regularizer": null, "filters": 64, "bias_initializer": {"class_name": "Zeros", "config": {}}, "use_bias": true, "activity_regularizer": null, "kernel_size": [7, 7]}, "name": "conv18"}, {"class_name": "Conv2D", "inbound_nodes": [[["conv1_pad9", 0, 0, {}]]], "config": {"kernel_initializer": {"class_name": "VarianceScaling", "config": {"distribution": "normal", "scale": 2.0, "seed": null, "mode": "fan_in"}}, "name": "conv19", "kernel_constraint": null, "bias_regularizer": null, "bias_constraint": null, "activation": "linear", "trainable": false, "data_format": "channels_last", "padding": "valid", "strides": [2, 2], "dilation_rate": [1, 1], "kernel_regularizer": null, "filters": 64, "bias_initializer": {"class_name": "Zeros", "config": {}}, "use_bias": true, "activity_regularizer": null, "kernel_size": [7, 7]}, "name": "conv19"}, {"class_name": "Conv2D", "inbound_nodes": [[["conv1_pad10", 0, 0, {}]]], "config": {"kernel_initializer": {"class_name": "VarianceScaling", "config": {"distribution": "normal", "scale": 2.0, "seed": null, "mode": "fan_in"}}, "name": "conv110", "kernel_constraint": null, "bias_regularizer": null, "bias_constraint": null, "activation": "linear", "trainable": false, "data_format": "channels_last", "padding": "valid", "strides": [2, 2], "dilation_rate": [1, 1], "kernel_regularizer": null, "filters": 64, "bias_initializer": {"class_name": "Zeros", "config": {}}, "use_bias": true, "activity_regularizer": null, "kernel_size": [7, 7]}, "name": "conv110"}, {"class_name": "Conv2D", "inbound_nodes": [[["conv1_pad11", 0, 0, {}]]], "config": {"kernel_initializer": {"class_name": "VarianceScaling", "config": {"distribution": "normal", "scale": 2.0, "seed": null, "mode": "fan_in"}}, "name": "conv111", "kernel_constraint": null, "bias_regularizer": null, "bias_constraint": null, "activation": "linear", "trainable": false, "data_format": "channels_last", "padding": "valid", "strides": [2, 2], "dilation_rate": [1, 1], "kernel_regularizer": null, "filters": 64, "bias_initializer": {"class_name": "Zeros", "config": {}}, "use_bias": true, "activity_regularizer": null, "kernel_size": [7, 7]}, "name": "conv111"}, {"class_name": "Conv2D", "inbound_nodes": [[["conv1_pad12", 0, 0, {}]]], "config": {"kernel_initializer": {"class_name": "VarianceScaling", "config": {"distribution": "normal", "scale": 2.0, "seed": null, "mode": "fan_in"}}, "name": "conv112", "kernel_constraint": null, "bias_regularizer": null, "bias_constraint": null, "activation": "linear", "trainable": false, "data_format": "channels_last", "padding": "valid", "strides": [2, 2], "dilation_rate": [1, 1], "kernel_regularizer": null, "filters": 64, "bias_initializer": {"class_name": "Zeros", "config": {}}, "use_bias": true, "activity_regularizer": null, "kernel_size": [7, 7]}, "name": "conv112"}, {"class_name": "Conv2D", "inbound_nodes": [[["conv1_pad13", 0, 0, {}]]], "config": {"kernel_initializer": {"class_name": "VarianceScaling", "config": {"distribution": "normal", "scale": 2.0, "seed": null, "mode": "fan_in"}}, "name": "conv113", "kernel_constraint": null, "bias_regularizer": null, "bias_constraint": null, "activation": "linear", "trainable": false, "data_format": "channels_last", "padding": "valid", "strides": [2, 2], "dilation_rate": [1, 1], "kernel_regularizer": null, "filters": 64, "bias_initializer": {"class_name": "Zeros", "config": {}}, "use_bias": true, "activity_regularizer": null, "kernel_size": [7, 7]}, "name": "conv113"}, {"class_name": "Conv2D", "inbound_nodes": [[["conv1_pad14", 0, 0, {}]]], "config": {"kernel_initializer": {"class_name": "VarianceScaling", "config": {"distribution": "normal", "scale": 2.0, "seed": null, "mode": "fan_in"}}, "name": "conv114", "kernel_constraint": null, "bias_regularizer": null, "bias_constraint": null, "activation": "linear", "trainable": false, "data_format": "channels_last", "padding": "valid", "strides": [2, 2], "dilation_rate": [1, 1], "kernel_regularizer": null, "filters": 64, "bias_initializer": {"class_name": "Zeros", "config": {}}, "use_bias": true, "activity_regularizer": null, "kernel_size": [7, 7]}, "name": "conv114"}, {"class_name": "Conv2D", "inbound_nodes": [[["conv1_pad15", 0, 0, {}]]], "config": {"kernel_initializer": {"class_name": "VarianceScaling", "config": {"distribution": "normal", "scale": 2.0, "seed": null, "mode": "fan_in"}}, "name": "conv115", "kernel_constraint": null, "bias_regularizer": null, "bias_constraint": null, "activation": "linear", "trainable": false, "data_format": "channels_last", "padding": "valid", "strides": [2, 2], "dilation_rate": [1, 1], "kernel_regularizer": null, "filters": 64, "bias_initializer": {"class_name": "Zeros", "config": {}}, "use_bias": true, "activity_regularizer": null, "kernel_size": [7, 7]}, "name": "conv115"}, {"class_name": "Conv2D", "inbound_nodes": [[["conv1_pad16", 0, 0, {}]]], "config": {"kernel_initializer": {"class_name": "VarianceScaling", "config": {"distribution": "normal", "scale": 2.0, "seed": null, "mode": "fan_in"}}, "name": "conv116", "kernel_constraint": null, "bias_regularizer": null, "bias_constraint": null, "activation": "linear", "trainable": false, "data_format": "channels_last", "padding": "valid", "strides": [2, 2], "dilation_rate": [1, 1], "kernel_regularizer": null, "filters": 64, "bias_initializer": {"class_name": "Zeros", "config": {}}, "use_bias": true, "activity_regularizer": null, "kernel_size": [7, 7]}, "name": "conv116"}, {"class_name": "Conv2D", "inbound_nodes": [[["conv1_pad17", 0, 0, {}]]], "config": {"kernel_initializer": {"class_name": "VarianceScaling", "config": {"distribution": "normal", "scale": 2.0, "seed": null, "mode": "fan_in"}}, "name": "conv117", "kernel_constraint": null, "bias_regularizer": null, "bias_constraint": null, "activation": "linear", "trainable": false, "data_format": "channels_last", "padding": "valid", "strides": [2, 2], "dilation_rate": [1, 1], "kernel_regularizer": null, "filters": 64, "bias_initializer": {"class_name": "Zeros", "config": {}}, "use_bias": true, "activity_regularizer": null, "kernel_size": [7, 7]}, "name": "conv117"}, {"class_name": "Conv2D", "inbound_nodes": [[["conv1_pad18", 0, 0, {}]]], "config": {"kernel_initializer": {"class_name": "VarianceScaling", "config": {"distribution": "normal", "scale": 2.0, "seed": null, "mode": "fan_in"}}, "name": "conv118", "kernel_constraint": null, "bias_regularizer": null, "bias_constraint": null, "activation": "linear", "trainable": false, "data_format": "channels_last", "padding": "valid", "strides": [2, 2], "dilation_rate": [1, 1], "kernel_regularizer": null, "filters": 64, "bias_initializer": {"class_name": "Zeros", "config": {}}, "use_bias": true, "activity_regularizer": null, "kernel_size": [7, 7]}, "name": "conv118"}, {"class_name": "Conv2D", "inbound_nodes": [[["conv1_pad19", 0, 0, {}]]], "config": {"kernel_initializer": {"class_name": "VarianceScaling", "config": {"distribution": "normal", "scale": 2.0, "seed": null, "mode": "fan_in"}}, "name": "conv119", "kernel_constraint": null, "bias_regularizer": null, "bias_constraint": null, "activation": "linear", "trainable": false, "data_format": "channels_last", "padding": "valid", "strides": [2, 2], "dilation_rate": [1, 1], "kernel_regularizer": null, "filters": 64, "bias_initializer": {"class_name": "Zeros", "config": {}}, "use_bias": true, "activity_regularizer": null, "kernel_size": [7, 7]}, "name": "conv119"}, {"class_name": "Conv2D", "inbound_nodes": [[["conv1_pad20", 0, 0, {}]]], "config": {"kernel_initializer": {"class_name": "VarianceScaling", "config": {"distribution": "normal", "scale": 2.0, "seed": null, "mode": "fan_in"}}, "name": "conv120", "kernel_constraint": null, "bias_regularizer": null, "bias_constraint": null, "activation": "linear", "trainable": false, "data_format": "channels_last", "padding": "valid", "strides": [2, 2], "dilation_rate": [1, 1], "kernel_regularizer": null, "filters": 64, "bias_initializer": {"class_name": "Zeros", "config": {}}, "use_bias": true, "activity_regularizer": null, "kernel_size": [7, 7]}, "name": "conv120"}, {"class_name": "Conv2D", "inbound_nodes": [[["conv1_pad21", 0, 0, {}]]], "config": {"kernel_initializer": {"class_name": "VarianceScaling", "config": {"distribution": "normal", "scale": 2.0, "seed": null, "mode": "fan_in"}}, "name": "conv121", "kernel_constraint": null, "bias_regularizer": null, "bias_constraint": null, "activation": "linear", "trainable": false, "data_format": "channels_last", "padding": "valid", "strides": [2, 2], "dilation_rate": [1, 1], "kernel_regularizer": null, "filters": 64, "bias_initializer": {"class_name": "Zeros", "config": {}}, "use_bias": true, "activity_regularizer": null, "kernel_size": [7, 7]}, "name": "conv121"}, {"class_name": "Conv2D", "inbound_nodes": [[["conv1_pad22", 0, 0, {}]]], "config": {"kernel_initializer": {"class_name": "VarianceScaling", "config": {"distribution": "normal", "scale": 2.0, "seed": null, "mode": "fan_in"}}, "name": "conv122", "kernel_constraint": null, "bias_regularizer": null, "bias_constraint": null, "activation": "linear", "trainable": false, "data_format": "channels_last", "padding": "valid", "strides": [2, 2], "dilation_rate": [1, 1], "kernel_regularizer": null, "filters": 64, "bias_initializer": {"class_name": "Zeros", "config": {}}, "use_bias": true, "activity_regularizer": null, "kernel_size": [7, 7]}, "name": "conv122"}, {"class_name": "Conv2D", "inbound_nodes": [[["conv1_pad23", 0, 0, {}]]], "config": {"kernel_initializer": {"class_name": "VarianceScaling", "config": {"distribution": "normal", "scale": 2.0, "seed": null, "mode": "fan_in"}}, "name": "conv123", "kernel_constraint": null, "bias_regularizer": null, "bias_constraint": null, "activation": "linear", "trainable": false, "data_format": "channels_last", "padding": "valid", "strides": [2, 2], "dilation_rate": [1, 1], "kernel_regularizer": null, "filters": 64, "bias_initializer": {"class_name": "Zeros", "config": {}}, "use_bias": true, "activity_regularizer": null, "kernel_size": [7, 7]}, "name": "conv123"}, {"class_name": "Conv2D", "inbound_nodes": [[["conv1_pad24", 0, 0, {}]]], "config": {"kernel_initializer": {"class_name": "VarianceScaling", "config": {"distribution": "normal", "scale": 2.0, "seed": null, "mode": "fan_in"}}, "name": "conv124", "kernel_constraint": null, "bias_regularizer": null, "bias_constraint": null, "activation": "linear", "trainable": false, "data_format": "channels_last", "padding": "valid", "strides": [2, 2], "dilation_rate": [1, 1], "kernel_regularizer": null, "filters": 64, "bias_initializer": {"class_name": "Zeros", "config": {}}, "use_bias": true, "activity_regularizer": null, "kernel_size": [7, 7]}, "name": "conv124"}, {"class_name": "Conv2D", "inbound_nodes": [[["conv1_pad25", 0, 0, {}]]], "config": {"kernel_initializer": {"class_name": "VarianceScaling", "config": {"distribution": "normal", "scale": 2.0, "seed": null, "mode": "fan_in"}}, "name": "conv125", "kernel_constraint": null, "bias_regularizer": null, "bias_constraint": null, "activation": "linear", "trainable": false, "data_format": "channels_last", "padding": "valid", "strides": [2, 2], "dilation_rate": [1, 1], "kernel_regularizer": null, "filters": 64, "bias_initializer": {"class_name": "Zeros", "config": {}}, "use_bias": true, "activity_regularizer": null, "kernel_size": [7, 7]}, "name": "conv125"}, {"class_name": "Conv2D", "inbound_nodes": [[["conv1_pad26", 0, 0, {}]]], "config": {"kernel_initializer": {"class_name": "VarianceScaling", "config": {"distribution": "normal", "scale": 2.0, "seed": null, "mode": "fan_in"}}, "name": "conv126", "kernel_constraint": null, "bias_regularizer": null, "bias_constraint": null, "activation": "linear", "trainable": false, "data_format": "channels_last", "padding": "valid", "strides": [2, 2], "dilation_rate": [1, 1], "kernel_regularizer": null, "filters": 64, "bias_initializer": {"class_name": "Zeros", "config": {}}, "use_bias": true, "activity_regularizer": null, "kernel_size": [7, 7]}, "name": "conv126"}, {"class_name": "BatchNormalization", "inbound_nodes": [[["conv10", 0, 0, {}]]], "config": {"gamma_initializer": {"class_name": "Ones", "config": {}}, "moving_mean_initializer": {"class_name": "Zeros", "config": {}}, "name": "bn_conv10", "epsilon": 0.001, "trainable": false, "center": true, "moving_variance_initializer": {"class_name": "Ones", "config": {}}, "beta_initializer": {"class_name": "Zeros", "config": {}}, "scale": true, "gamma_regularizer": null, "gamma_constraint": null, "beta_constraint": null, "beta_regularizer": null, "momentum": 0.99, "axis": 3}, "name": "bn_conv10"}, {"class_name": "BatchNormalization", "inbound_nodes": [[["conv11", 0, 0, {}]]], "config": {"gamma_initializer": {"class_name": "Ones", "config": {}}, "moving_mean_initializer": {"class_name": "Zeros", "config": {}}, "name": "bn_conv11", "epsilon": 0.001, "trainable": false, "center": true, "moving_variance_initializer": {"class_name": "Ones", "config": {}}, "beta_initializer": {"class_name": "Zeros", "config": {}}, "scale": true, "gamma_regularizer": null, "gamma_constraint": null, "beta_constraint": null, "beta_regularizer": null, "momentum": 0.99, "axis": 3}, "name": "bn_conv11"}, {"class_name": "BatchNormalization", "inbound_nodes": [[["conv12", 0, 0, {}]]], "config": {"gamma_initializer": {"class_name": "Ones", "config": {}}, "moving_mean_initializer": {"class_name": "Zeros", "config": {}}, "name": "bn_conv12", "epsilon": 0.001, "trainable": false, "center": true, "moving_variance_initializer": {"class_name": "Ones", "config": {}}, "beta_initializer": {"class_name": "Zeros", "config": {}}, "scale": true, "gamma_regularizer": null, "gamma_constraint": null, "beta_constraint": null, "beta_regularizer": null, "momentum": 0.99, "axis": 3}, "name": "bn_conv12"}, {"class_name": "BatchNormalization", "inbound_nodes": [[["conv13", 0, 0, {}]]], "config": {"gamma_initializer": {"class_name": "Ones", "config": {}}, "moving_mean_initializer": {"class_name": "Zeros", "config": {}}, "name": "bn_conv13", "epsilon": 0.001, "trainable": false, "center": true, "moving_variance_initializer": {"class_name": "Ones", "config": {}}, "beta_initializer": {"class_name": "Zeros", "config": {}}, "scale": true, "gamma_regularizer": null, "gamma_constraint": null, "beta_constraint": null, "beta_regularizer": null, "momentum": 0.99, "axis": 3}, "name": "bn_conv13"}, {"class_name": "BatchNormalization", "inbound_nodes": [[["conv14", 0, 0, {}]]], "config": {"gamma_initializer": {"class_name": "Ones", "config": {}}, "moving_mean_initializer": {"class_name": "Zeros", "config": {}}, "name": "bn_conv14", "epsilon": 0.001, "trainable": false, "center": true, "moving_variance_initializer": {"class_name": "Ones", "config": {}}, "beta_initializer": {"class_name": "Zeros", "config": {}}, "scale": true, "gamma_regularizer": null, "gamma_constraint": null, "beta_constraint": null, "beta_regularizer": null, "momentum": 0.99, "axis": 3}, "name": "bn_conv14"}, {"class_name": "BatchNormalization", "inbound_nodes": [[["conv15", 0, 0, {}]]], "config": {"gamma_initializer": {"class_name": "Ones", "config": {}}, "moving_mean_initializer": {"class_name": "Zeros", "config": {}}, "name": "bn_conv15", "epsilon": 0.001, "trainable": false, "center": true, "moving_variance_initializer": {"class_name": "Ones", "config": {}}, "beta_initializer": {"class_name": "Zeros", "config": {}}, "scale": true, "gamma_regularizer": null, "gamma_constraint": null, "beta_constraint": null, "beta_regularizer": null, "momentum": 0.99, "axis": 3}, "name": "bn_conv15"}, {"class_name": "BatchNormalization", "inbound_nodes": [[["conv16", 0, 0, {}]]], "config": {"gamma_initializer": {"class_name": "Ones", "config": {}}, "moving_mean_initializer": {"class_name": "Zeros", "config": {}}, "name": "bn_conv16", "epsilon": 0.001, "trainable": false, "center": true, "moving_variance_initializer": {"class_name": "Ones", "config": {}}, "beta_initializer": {"class_name": "Zeros", "config": {}}, "scale": true, "gamma_regularizer": null, "gamma_constraint": null, "beta_constraint": null, "beta_regularizer": null, "momentum": 0.99, "axis": 3}, "name": "bn_conv16"}, {"class_name": "BatchNormalization", "inbound_nodes": [[["conv17", 0, 0, {}]]], "config": {"gamma_initializer": {"class_name": "Ones", "config": {}}, "moving_mean_initializer": {"class_name": "Zeros", "config": {}}, "name": "bn_conv17", "epsilon": 0.001, "trainable": false, "center": true, "moving_variance_initializer": {"class_name": "Ones", "config": {}}, "beta_initializer": {"class_name": "Zeros", "config": {}}, "scale": true, "gamma_regularizer": null, "gamma_constraint": null, "beta_constraint": null, "beta_regularizer": null, "momentum": 0.99, "axis": 3}, "name": "bn_conv17"}, {"class_name": "BatchNormalization", "inbound_nodes": [[["conv18", 0, 0, {}]]], "config": {"gamma_initializer": {"class_name": "Ones", "config": {}}, "moving_mean_initializer": {"class_name": "Zeros", "config": {}}, "name": "bn_conv18", "epsilon": 0.001, "trainable": false, "center": true, "moving_variance_initializer": {"class_name": "Ones", "config": {}}, "beta_initializer": {"class_name": "Zeros", "config": {}}, "scale": true, "gamma_regularizer": null, "gamma_constraint": null, "beta_constraint": null, "beta_regularizer": null, "momentum": 0.99, "axis": 3}, "name": "bn_conv18"}, {"class_name": "BatchNormalization", "inbound_nodes": [[["conv19", 0, 0, {}]]], "config": {"gamma_initializer": {"class_name": "Ones", "config": {}}, "moving_mean_initializer": {"class_name": "Zeros", "config": {}}, "name": "bn_conv19", "epsilon": 0.001, "trainable": false, "center": true, "moving_variance_initializer": {"class_name": "Ones", "config": {}}, "beta_initializer": {"class_name": "Zeros", "config": {}}, "scale": true, "gamma_regularizer": null, "gamma_constraint": null, "beta_constraint": null, "beta_regularizer": null, "momentum": 0.99, "axis": 3}, "name": "bn_conv19"}, {"class_name": "BatchNormalization", "inbound_nodes": [[["conv110", 0, 0, {}]]], "config": {"gamma_initializer": {"class_name": "Ones", "config": {}}, "moving_mean_initializer": {"class_name": "Zeros", "config": {}}, "name": "bn_conv110", "epsilon": 0.001, "trainable": false, "center": true, "moving_variance_initializer": {"class_name": "Ones", "config": {}}, "beta_initializer": {"class_name": "Zeros", "config": {}}, "scale": true, "gamma_regularizer": null, "gamma_constraint": null, "beta_constraint": null, "beta_regularizer": null, "momentum": 0.99, "axis": 3}, "name": "bn_conv110"}, {"class_name": "BatchNormalization", "inbound_nodes": [[["conv111", 0, 0, {}]]], "config": {"gamma_initializer": {"class_name": "Ones", "config": {}}, "moving_mean_initializer": {"class_name": "Zeros", "config": {}}, "name": "bn_conv111", "epsilon": 0.001, "trainable": false, "center": true, "moving_variance_initializer": {"class_name": "Ones", "config": {}}, "beta_initializer": {"class_name": "Zeros", "config": {}}, "scale": true, "gamma_regularizer": null, "gamma_constraint": null, "beta_constraint": null, "beta_regularizer": null, "momentum": 0.99, "axis": 3}, "name": "bn_conv111"}, {"class_name": "BatchNormalization", "inbound_nodes": [[["conv112", 0, 0, {}]]], "config": {"gamma_initializer": {"class_name": "Ones", "config": {}}, "moving_mean_initializer": {"class_name": "Zeros", "config": {}}, "name": "bn_conv112", "epsilon": 0.001, "trainable": false, "center": true, "moving_variance_initializer": {"class_name": "Ones", "config": {}}, "beta_initializer": {"class_name": "Zeros", "config": {}}, "scale": true, "gamma_regularizer": null, "gamma_constraint": null, "beta_constraint": null, "beta_regularizer": null, "momentum": 0.99, "axis": 3}, "name": "bn_conv112"}, {"class_name": "BatchNormalization", "inbound_nodes": [[["conv113", 0, 0, {}]]], "config": {"gamma_initializer": {"class_name": "Ones", "config": {}}, "moving_mean_initializer": {"class_name": "Zeros", "config": {}}, "name": "bn_conv113", "epsilon": 0.001, "trainable": false, "center": true, "moving_variance_initializer": {"class_name": "Ones", "config": {}}, "beta_initializer": {"class_name": "Zeros", "config": {}}, "scale": true, "gamma_regularizer": null, "gamma_constraint": null, "beta_constraint": null, "beta_regularizer": null, "momentum": 0.99, "axis": 3}, "name": "bn_conv113"}, {"class_name": "BatchNormalization", "inbound_nodes": [[["conv114", 0, 0, {}]]], "config": {"gamma_initializer": {"class_name": "Ones", "config": {}}, "moving_mean_initializer": {"class_name": "Zeros", "config": {}}, "name": "bn_conv114", "epsilon": 0.001, "trainable": false, "center": true, "moving_variance_initializer": {"class_name": "Ones", "config": {}}, "beta_initializer": {"class_name": "Zeros", "config": {}}, "scale": true, "gamma_regularizer": null, "gamma_constraint": null, "beta_constraint": null, "beta_regularizer": null, "momentum": 0.99, "axis": 3}, "name": "bn_conv114"}, {"class_name": "BatchNormalization", "inbound_nodes": [[["conv115", 0, 0, {}]]], "config": {"gamma_initializer": {"class_name": "Ones", "config": {}}, "moving_mean_initializer": {"class_name": "Zeros", "config": {}}, "name": "bn_conv115", "epsilon": 0.001, "trainable": false, "center": true, "moving_variance_initializer": {"class_name": "Ones", "config": {}}, "beta_initializer": {"class_name": "Zeros", "config": {}}, "scale": true, "gamma_regularizer": null, "gamma_constraint": null, "beta_constraint": null, "beta_regularizer": null, "momentum": 0.99, "axis": 3}, "name": "bn_conv115"}, {"class_name": "BatchNormalization", "inbound_nodes": [[["conv116", 0, 0, {}]]], "config": {"gamma_initializer": {"class_name": "Ones", "config": {}}, "moving_mean_initializer": {"class_name": "Zeros", "config": {}}, "name": "bn_conv116", "epsilon": 0.001, "trainable": false, "center": true, "moving_variance_initializer": {"class_name": "Ones", "config": {}}, "beta_initializer": {"class_name": "Zeros", "config": {}}, "scale": true, "gamma_regularizer": null, "gamma_constraint": null, "beta_constraint": null, "beta_regularizer": null, "momentum": 0.99, "axis": 3}, "name": "bn_conv116"}, {"class_name": "BatchNormalization", "inbound_nodes": [[["conv117", 0, 0, {}]]], "config": {"gamma_initializer": {"class_name": "Ones", "config": {}}, "moving_mean_initializer": {"class_name": "Zeros", "config": {}}, "name": "bn_conv117", "epsilon": 0.001, "trainable": false, "center": true, "moving_variance_initializer": {"class_name": "Ones", "config": {}}, "beta_initializer": {"class_name": "Zeros", "config": {}}, "scale": true, "gamma_regularizer": null, "gamma_constraint": null, "beta_constraint": null, "beta_regularizer": null, "momentum": 0.99, "axis": 3}, "name": "bn_conv117"}, {"class_name": "BatchNormalization", "inbound_nodes": [[["conv118", 0, 0, {}]]], "config": {"gamma_initializer": {"class_name": "Ones", "config": {}}, "moving_mean_initializer": {"class_name": "Zeros", "config": {}}, "name": "bn_conv118", "epsilon": 0.001, "trainable": false, "center": true, "moving_variance_initializer": {"class_name": "Ones", "config": {}}, "beta_initializer": {"class_name": "Zeros", "config": {}}, "scale": true, "gamma_regularizer": null, "gamma_constraint": null, "beta_constraint": null, "beta_regularizer": null, "momentum": 0.99, "axis": 3}, "name": "bn_conv118"}, {"class_name": "BatchNormalization", "inbound_nodes": [[["conv119", 0, 0, {}]]], "config": {"gamma_initializer": {"class_name": "Ones", "config": {}}, "moving_mean_initializer": {"class_name": "Zeros", "config": {}}, "name": "bn_conv119", "epsilon": 0.001, "trainable": false, "center": true, "moving_variance_initializer": {"class_name": "Ones", "config": {}}, "beta_initializer": {"class_name": "Zeros", "config": {}}, "scale": true, "gamma_regularizer": null, "gamma_constraint": null, "beta_constraint": null, "beta_regularizer": null, "momentum": 0.99, "axis": 3}, "name": "bn_conv119"}, {"class_name": "BatchNormalization", "inbound_nodes": [[["conv120", 0, 0, {}]]], "config": {"gamma_initializer": {"class_name": "Ones", "config": {}}, "moving_mean_initializer": {"class_name": "Zeros", "config": {}}, "name": "bn_conv120", "epsilon": 0.001, "trainable": false, "center": true, "moving_variance_initializer": {"class_name": "Ones", "config": {}}, "beta_initializer": {"class_name": "Zeros", "config": {}}, "scale": true, "gamma_regularizer": null, "gamma_constraint": null, "beta_constraint": null, "beta_regularizer": null, "momentum": 0.99, "axis": 3}, "name": "bn_conv120"}, {"class_name": "BatchNormalization", "inbound_nodes": [[["conv121", 0, 0, {}]]], "config": {"gamma_initializer": {"class_name": "Ones", "config": {}}, "moving_mean_initializer": {"class_name": "Zeros", "config": {}}, "name": "bn_conv121", "epsilon": 0.001, "trainable": false, "center": true, "moving_variance_initializer": {"class_name": "Ones", "config": {}}, "beta_initializer": {"class_name": "Zeros", "config": {}}, "scale": true, "gamma_regularizer": null, "gamma_constraint": null, "beta_constraint": null, "beta_regularizer": null, "momentum": 0.99, "axis": 3}, "name": "bn_conv121"}, {"class_name": "BatchNormalization", "inbound_nodes": [[["conv122", 0, 0, {}]]], "config": {"gamma_initializer": {"class_name": "Ones", "config": {}}, "moving_mean_initializer": {"class_name": "Zeros", "config": {}}, "name": "bn_conv122", "epsilon": 0.001, "trainable": false, "center": true, "moving_variance_initializer": {"class_name": "Ones", "config": {}}, "beta_initializer": {"class_name": "Zeros", "config": {}}, "scale": true, "gamma_regularizer": null, "gamma_constraint": null, "beta_constraint": null, "beta_regularizer": null, "momentum": 0.99, "axis": 3}, "name": "bn_conv122"}, {"class_name": "BatchNormalization", "inbound_nodes": [[["conv123", 0, 0, {}]]], "config": {"gamma_initializer": {"class_name": "Ones", "config": {}}, "moving_mean_initializer": {"class_name": "Zeros", "config": {}}, "name": "bn_conv123", "epsilon": 0.001, "trainable": false, "center": true, "moving_variance_initializer": {"class_name": "Ones", "config": {}}, "beta_initializer": {"class_name": "Zeros", "config": {}}, "scale": true, "gamma_regularizer": null, "gamma_constraint": null, "beta_constraint": null, "beta_regularizer": null, "momentum": 0.99, "axis": 3}, "name": "bn_conv123"}, {"class_name": "BatchNormalization", "inbound_nodes": [[["conv124", 0, 0, {}]]], "config": {"gamma_initializer": {"class_name": "Ones", "config": {}}, "moving_mean_initializer": {"class_name": "Zeros", "config": {}}, "name": "bn_conv124", "epsilon": 0.001, "trainable": false, "center": true, "moving_variance_initializer": {"class_name": "Ones", "config": {}}, "beta_initializer": {"class_name": "Zeros", "config": {}}, "scale": true, "gamma_regularizer": null, "gamma_constraint": null, "beta_constraint": null, "beta_regularizer": null, "momentum": 0.99, "axis": 3}, "name": "bn_conv124"}, {"class_name": "BatchNormalization", "inbound_nodes": [[["conv125", 0, 0, {}]]], "config": {"gamma_initializer": {"class_name": "Ones", "config": {}}, "moving_mean_initializer": {"class_name": "Zeros", "config": {}}, "name": "bn_conv125", "epsilon": 0.001, "trainable": false, "center": true, "moving_variance_initializer": {"class_name": "Ones", "config": {}}, "beta_initializer": {"class_name": "Zeros", "config": {}}, "scale": true, "gamma_regularizer": null, "gamma_constraint": null, "beta_constraint": null, "beta_regularizer": null, "momentum": 0.99, "axis": 3}, "name": "bn_conv125"}, {"class_name": "BatchNormalization", "inbound_nodes": [[["conv126", 0, 0, {}]]], "config": {"gamma_initializer": {"class_name": "Ones", "config": {}}, "moving_mean_initializer": {"class_name": "Zeros", "config": {}}, "name": "bn_conv126", "epsilon": 0.001, "trainable": false, "center": true, "moving_variance_initializer": {"class_name": "Ones", "config": {}}, "beta_initializer": {"class_name": "Zeros", "config": {}}, "scale": true, "gamma_regularizer": null, "gamma_constraint": null, "beta_constraint": null, "beta_regularizer": null, "momentum": 0.99, "axis": 3}, "name": "bn_conv126"}, {"class_name": "Activation", "inbound_nodes": [[["bn_conv10", 0, 0, {}]]], "config": {"activation": "relu", "trainable": false, "name": "activation_1"}, "name": "activation_1"}, {"class_name": "Activation", "inbound_nodes": [[["bn_conv11", 0, 0, {}]]], "config": {"activation": "relu", "trainable": false, "name": "activation_50"}, "name": "activation_50"}, {"class_name": "Activation", "inbound_nodes": [[["bn_conv12", 0, 0, {}]]], "config": {"activation": "relu", "trainable": false, "name": "activation_99"}, "name": "activation_99"}, {"class_name": "Activation", "inbound_nodes": [[["bn_conv13", 0, 0, {}]]], "config": {"activation": "relu", "trainable": false, "name": "activation_148"}, "name": "activation_148"}, {"class_name": "Activation", "inbound_nodes": [[["bn_conv14", 0, 0, {}]]], "config": {"activation": "relu", "trainable": false, "name": "activation_197"}, "name": "activation_197"}, {"class_name": "Activation", "inbound_nodes": [[["bn_conv15", 0, 0, {}]]], "config": {"activation": "relu", "trainable": false, "name": "activation_246"}, "name": "activation_246"}, {"class_name": "Activation", "inbound_nodes": [[["bn_conv16", 0, 0, {}]]], "config": {"activation": "relu", "trainable": false, "name": "activation_295"}, "name": "activation_295"}, {"class_name": "Activation", "inbound_nodes": [[["bn_conv17", 0, 0, {}]]], "config": {"activation": "relu", "trainable": false, "name": "activation_344"}, "name": "activation_344"}, {"class_name": "Activation", "inbound_nodes": [[["bn_conv18", 0, 0, {}]]], "config": {"activation": "relu", "trainable": false, "name": "activation_393"}, "name": "activation_393"}, {"class_name": "Activation", "inbound_nodes": [[["bn_conv19", 0, 0, {}]]], "config": {"activation": "relu", "trainable": false, "name": "activation_442"}, "name": "activation_442"}, {"class_name": "Activation", "inbound_nodes": [[["bn_conv110", 0, 0, {}]]], "config": {"activation": "relu", "trainable": false, "name": "activation_491"}, "name": "activation_491"}, {"class_name": "Activation", "inbound_nodes": [[["bn_conv111", 0, 0, {}]]], "config": {"activation": "relu", "trainable": false, "name": "activation_540"}, "name": "activation_540"}, {"class_name": "Activation", "inbound_nodes": [[["bn_conv112", 0, 0, {}]]], "config": {"activation": "relu", "trainable": false, "name": "activation_589"}, "name": "activation_589"}, {"class_name": "Activation", "inbound_nodes": [[["bn_conv113", 0, 0, {}]]], "config": {"activation": "relu", "trainable": false, "name": "activation_638"}, "name": "activation_638"}, {"class_name": "Activation", "inbound_nodes": [[["bn_conv114", 0, 0, {}]]], "config": {"activation": "relu", "trainable": false, "name": "activation_687"}, "name": "activation_687"}, {"class_name": "Activation", "inbound_nodes": [[["bn_conv115", 0, 0, {}]]], "config": {"activation": "relu", "trainable": false, "name": "activation_736"}, "name": "activation_736"}, {"class_name": "Activation", "inbound_nodes": [[["bn_conv116", 0, 0, {}]]], "config": {"activation": "relu", "trainable": false, "name": "activation_785"}, "name": "activation_785"}, {"class_name": "Activation", "inbound_nodes": [[["bn_conv117", 0, 0, {}]]], "config": {"activation": "relu", "trainable": false, "name": "activation_834"}, "name": "activation_834"}, {"class_name": "Activation", "inbound_nodes": [[["bn_conv118", 0, 0, {}]]], "config": {"activation": "relu", "trainable": false, "name": "activation_883"}, "name": "activation_883"}, {"class_name": "Activation", "inbound_nodes": [[["bn_conv119", 0, 0, {}]]], "config": {"activation": "relu", "trainable": false, "name": "activation_932"}, "name": "activation_932"}, {"class_name": "Activation", "inbound_nodes": [[["bn_conv120", 0, 0, {}]]], "config": {"activation": "relu", "trainable": false, "name": "activation_981"}, "name": "activation_981"}, {"class_name": "Activation", "inbound_nodes": [[["bn_conv121", 0, 0, {}]]], "config": {"activation": "relu", "trainable": false, "name": "activation_1030"}, "name": "activation_1030"}, {"class_name": "Activation", "inbound_nodes": [[["bn_conv122", 0, 0, {}]]], "config": {"activation": "relu", "trainable": false, "name": "activation_1079"}, "name": "activation_1079"}, {"class_name": "Activation", "inbound_nodes": [[["bn_conv123", 0, 0, {}]]], "config": {"activation": "relu", "trainable": false, "name": "activation_1128"}, "name": "activation_1128"}, {"class_name": "Activation", "inbound_nodes": [[["bn_conv124", 0, 0, {}]]], "config": {"activation": "relu", "trainable": false, "name": "activation_1177"}, "name": "activation_1177"}, {"class_name": "Activation", "inbound_nodes": [[["bn_conv125", 0, 0, {}]]], "config": {"activation": "relu", "trainable": false, "name": "activation_1226"}, "name": "activation_1226"}, {"class_name": "Activation", "inbound_nodes": [[["bn_conv126", 0, 0, {}]]], "config": {"activation": "relu", "trainable": false, "name": "activation_1275"}, "name": "activation_1275"}, {"class_name": "ZeroPadding2D", "inbound_nodes": [[["activation_1", 0, 0, {}]]], "config": {"padding": [[1, 1], [1, 1]], "trainable": false, "name": "pool1_pad0", "data_format": "channels_last"}, "name": "pool1_pad0"}, {"class_name": "ZeroPadding2D", "inbound_nodes": [[["activation_50", 0, 0, {}]]], "config": {"padding": [[1, 1], [1, 1]], "trainable": false, "name": "pool1_pad1", "data_format": "channels_last"}, "name": "pool1_pad1"}, {"class_name": "ZeroPadding2D", "inbound_nodes": [[["activation_99", 0, 0, {}]]], "config": {"padding": [[1, 1], [1, 1]], "trainable": false, "name": "pool1_pad2", "data_format": "channels_last"}, "name": "pool1_pad2"}, {"class_name": "ZeroPadding2D", "inbound_nodes": [[["activation_148", 0, 0, {}]]], "config": {"padding": [[1, 1], [1, 1]], "trainable": false, "name": "pool1_pad3", "data_format": "channels_last"}, "name": "pool1_pad3"}, {"class_name": "ZeroPadding2D", "inbound_nodes": [[["activation_197", 0, 0, {}]]], "config": {"padding": [[1, 1], [1, 1]], "trainable": false, "name": "pool1_pad4", "data_format": "channels_last"}, "name": "pool1_pad4"}, {"class_name": "ZeroPadding2D", "inbound_nodes": [[["activation_246", 0, 0, {}]]], "config": {"padding": [[1, 1], [1, 1]], "trainable": false, "name": "pool1_pad5", "data_format": "channels_last"}, "name": "pool1_pad5"}, {"class_name": "ZeroPadding2D", "inbound_nodes": [[["activation_295", 0, 0, {}]]], "config": {"padding": [[1, 1], [1, 1]], "trainable": false, "name": "pool1_pad6", "data_format": "channels_last"}, "name": "pool1_pad6"}, {"class_name": "ZeroPadding2D", "inbound_nodes": [[["activation_344", 0, 0, {}]]], "config": {"padding": [[1, 1], [1, 1]], "trainable": false, "name": "pool1_pad7", "data_format": "channels_last"}, "name": "pool1_pad7"}, {"class_name": "ZeroPadding2D", "inbound_nodes": [[["activation_393", 0, 0, {}]]], "config": {"padding": [[1, 1], [1, 1]], "trainable": false, "name": "pool1_pad8", "data_format": "channels_last"}, "name": "pool1_pad8"}, {"class_name": "ZeroPadding2D", "inbound_nodes": [[["activation_442", 0, 0, {}]]], "config": {"padding": [[1, 1], [1, 1]], "trainable": false, "name": "pool1_pad9", "data_format": "channels_last"}, "name": "pool1_pad9"}, {"class_name": "ZeroPadding2D", "inbound_nodes": [[["activation_491", 0, 0, {}]]], "config": {"padding": [[1, 1], [1, 1]], "trainable": false, "name": "pool1_pad10", "data_format": "channels_last"}, "name": "pool1_pad10"}, {"class_name": "ZeroPadding2D", "inbound_nodes": [[["activation_540", 0, 0, {}]]], "config": {"padding": [[1, 1], [1, 1]], "trainable": false, "name": "pool1_pad11", "data_format": "channels_last"}, "name": "pool1_pad11"}, {"class_name": "ZeroPadding2D", "inbound_nodes": [[["activation_589", 0, 0, {}]]], "config": {"padding": [[1, 1], [1, 1]], "trainable": false, "name": "pool1_pad12", "data_format": "channels_last"}, "name": "pool1_pad12"}, {"class_name": "ZeroPadding2D", "inbound_nodes": [[["activation_638", 0, 0, {}]]], "config": {"padding": [[1, 1], [1, 1]], "trainable": false, "name": "pool1_pad13", "data_format": "channels_last"}, "name": "pool1_pad13"}, {"class_name": "ZeroPadding2D", "inbound_nodes": [[["activation_687", 0, 0, {}]]], "config": {"padding": [[1, 1], [1, 1]], "trainable": false, "name": "pool1_pad14", "data_format": "channels_last"}, "name": "pool1_pad14"}, {"class_name": "ZeroPadding2D", "inbound_nodes": [[["activation_736", 0, 0, {}]]], "config": {"padding": [[1, 1], [1, 1]], "trainable": false, "name": "pool1_pad15", "data_format": "channels_last"}, "name": "pool1_pad15"}, {"class_name": "ZeroPadding2D", "inbound_nodes": [[["activation_785", 0, 0, {}]]], "config": {"padding": [[1, 1], [1, 1]], "trainable": false, "name": "pool1_pad16", "data_format": "channels_last"}, "name": "pool1_pad16"}, {"class_name": "ZeroPadding2D", "inbound_nodes": [[["activation_834", 0, 0, {}]]], "config": {"padding": [[1, 1], [1, 1]], "trainable": false, "name": "pool1_pad17", "data_format": "channels_last"}, "name": "pool1_pad17"}, {"class_name": "ZeroPadding2D", "inbound_nodes": [[["activation_883", 0, 0, {}]]], "config": {"padding": [[1, 1], [1, 1]], "trainable": false, "name": "pool1_pad18", "data_format": "channels_last"}, "name": "pool1_pad18"}, {"class_name": "ZeroPadding2D", "inbound_nodes": [[["activation_932", 0, 0, {}]]], "config": {"padding": [[1, 1], [1, 1]], "trainable": false, "name": "pool1_pad19", "data_format": "channels_last"}, "name": "pool1_pad19"}, {"class_name": "ZeroPadding2D", "inbound_nodes": [[["activation_981", 0, 0, {}]]], "config": {"padding": [[1, 1], [1, 1]], "trainable": false, "name": "pool1_pad20", "data_format": "channels_last"}, "name": "pool1_pad20"}, {"class_name": "ZeroPadding2D", "inbound_nodes": [[["activation_1030", 0, 0, {}]]], "config": {"padding": [[1, 1], [1, 1]], "trainable": false, "name": "pool1_pad21", "data_format": "channels_last"}, "name": "pool1_pad21"}, {"class_name": "ZeroPadding2D", "inbound_nodes": [[["activation_1079", 0, 0, {}]]], "config": {"padding": [[1, 1], [1, 1]], "trainable": false, "name": "pool1_pad22", "data_format": "channels_last"}, "name": "pool1_pad22"}, {"class_name": "ZeroPadding2D", "inbound_nodes": [[["activation_1128", 0, 0, {}]]], "config": {"padding": [[1, 1], [1, 1]], "trainable": false, "name": "pool1_pad23", "data_format": "channels_last"}, "name": "pool1_pad23"}, {"class_name": "ZeroPadding2D", "inbound_nodes": [[["activation_1177", 0, 0, {}]]], "config": {"padding": [[1, 1], [1, 1]], "trainable": false, "name": "pool1_pad24", "data_format": "channels_last"}, "name": "pool1_pad24"}, {"class_name": "ZeroPadding2D", "inbound_nodes": [[["activation_1226", 0, 0, {}]]], "config": {"padding": [[1, 1], [1, 1]], "trainable": false, "name": "pool1_pad25", "data_format": "channels_last"}, "name": "pool1_pad25"}, {"class_name": "ZeroPadding2D", "inbound_nodes": [[["activation_1275", 0, 0, {}]]], "config": {"padding": [[1, 1], [1, 1]], "trainable": false, "name": "pool1_pad26", "data_format": "channels_last"}, "name": "pool1_pad26"}, {"class_name": "MaxPooling2D", "inbound_nodes": [[["pool1_pad0", 0, 0, {}]]], "config": {"name": "max_pooling2d_1", "trainable": false, "data_format": "channels_last", "pool_size": [3, 3], "padding": "valid", "strides": [2, 2]}, "name": "max_pooling2d_1"}, {"class_name": "MaxPooling2D", "inbound_nodes": [[["pool1_pad1", 0, 0, {}]]], "config": {"name": "max_pooling2d_2", "trainable": false, "data_format": "channels_last", "pool_size": [3, 3], "padding": "valid", "strides": [2, 2]}, "name": "max_pooling2d_2"}, {"class_name": "MaxPooling2D", "inbound_nodes": [[["pool1_pad2", 0, 0, {}]]], "config": {"name": "max_pooling2d_3", "trainable": false, "data_format": "channels_last", "pool_size": [3, 3], "padding": "valid", "strides": [2, 2]}, "name": "max_pooling2d_3"}, {"class_name": "MaxPooling2D", "inbound_nodes": [[["pool1_pad3", 0, 0, {}]]], "config": {"name": "max_pooling2d_4", "trainable": false, "data_format": "channels_last", "pool_size": [3, 3], "padding": "valid", "strides": [2, 2]}, "name": "max_pooling2d_4"}, {"class_name": "MaxPooling2D", "inbound_nodes": [[["pool1_pad4", 0, 0, {}]]], "config": {"name": "max_pooling2d_5", "trainable": false, "data_format": "channels_last", "pool_size": [3, 3], "padding": "valid", "strides": [2, 2]}, "name": "max_pooling2d_5"}, {"class_name": "MaxPooling2D", "inbound_nodes": [[["pool1_pad5", 0, 0, {}]]], "config": {"name": "max_pooling2d_6", "trainable": false, "data_format": "channels_last", "pool_size": [3, 3], "padding": "valid", "strides": [2, 2]}, "name": "max_pooling2d_6"}, {"class_name": "MaxPooling2D", "inbound_nodes": [[["pool1_pad6", 0, 0, {}]]], "config": {"name": "max_pooling2d_7", "trainable": false, "data_format": "channels_last", "pool_size": [3, 3], "padding": "valid", "strides": [2, 2]}, "name": "max_pooling2d_7"}, {"class_name": "MaxPooling2D", "inbound_nodes": [[["pool1_pad7", 0, 0, {}]]], "config": {"name": "max_pooling2d_8", "trainable": false, "data_format": "channels_last", "pool_size": [3, 3], "padding": "valid", "strides": [2, 2]}, "name": "max_pooling2d_8"}, {"class_name": "MaxPooling2D", "inbound_nodes": [[["pool1_pad8", 0, 0, {}]]], "config": {"name": "max_pooling2d_9", "trainable": false, "data_format": "channels_last", "pool_size": [3, 3], "padding": "valid", "strides": [2, 2]}, "name": "max_pooling2d_9"}, {"class_name": "MaxPooling2D", "inbound_nodes": [[["pool1_pad9", 0, 0, {}]]], "config": {"name": "max_pooling2d_10", "trainable": false, "data_format": "channels_last", "pool_size": [3, 3], "padding": "valid", "strides": [2, 2]}, "name": "max_pooling2d_10"}, {"class_name": "MaxPooling2D", "inbound_nodes": [[["pool1_pad10", 0, 0, {}]]], "config": {"name": "max_pooling2d_11", "trainable": false, "data_format": "channels_last", "pool_size": [3, 3], "padding": "valid", "strides": [2, 2]}, "name": "max_pooling2d_11"}, {"class_name": "MaxPooling2D", "inbound_nodes": [[["pool1_pad11", 0, 0, {}]]], "config": {"name": "max_pooling2d_12", "trainable": false, "data_format": "channels_last", "pool_size": [3, 3], "padding": "valid", "strides": [2, 2]}, "name": "max_pooling2d_12"}, {"class_name": "MaxPooling2D", "inbound_nodes": [[["pool1_pad12", 0, 0, {}]]], "config": {"name": "max_pooling2d_13", "trainable": false, "data_format": "channels_last", "pool_size": [3, 3], "padding": "valid", "strides": [2, 2]}, "name": "max_pooling2d_13"}, {"class_name": "MaxPooling2D", "inbound_nodes": [[["pool1_pad13", 0, 0, {}]]], "config": {"name": "max_pooling2d_14", "trainable": false, "data_format": "channels_last", "pool_size": [3, 3], "padding": "valid", "strides": [2, 2]}, "name": "max_pooling2d_14"}, {"class_name": "MaxPooling2D", "inbound_nodes": [[["pool1_pad14", 0, 0, {}]]], "config": {"name": "max_pooling2d_15", "trainable": false, "data_format": "channels_last", "pool_size": [3, 3], "padding": "valid", "strides": [2, 2]}, "name": "max_pooling2d_15"}, {"class_name": "MaxPooling2D", "inbound_nodes": [[["pool1_pad15", 0, 0, {}]]], "config": {"name": "max_pooling2d_16", "trainable": false, "data_format": "channels_last", "pool_size": [3, 3], "padding": "valid", "strides": [2, 2]}, "name": "max_pooling2d_16"}, {"class_name": "MaxPooling2D", "inbound_nodes": [[["pool1_pad16", 0, 0, {}]]], "config": {"name": "max_pooling2d_17", "trainable": false, "data_format": "channels_last", "pool_size": [3, 3], "padding": "valid", "strides": [2, 2]}, "name": "max_pooling2d_17"}, {"class_name": "MaxPooling2D", "inbound_nodes": [[["pool1_pad17", 0, 0, {}]]], "config": {"name": "max_pooling2d_18", "trainable": false, "data_format": "channels_last", "pool_size": [3, 3], "padding": "valid", "strides": [2, 2]}, "name": "max_pooling2d_18"}, {"class_name": "MaxPooling2D", "inbound_nodes": [[["pool1_pad18", 0, 0, {}]]], "config": {"name": "max_pooling2d_19", "trainable": false, "data_format": "channels_last", "pool_size": [3, 3], "padding": "valid", "strides": [2, 2]}, "name": "max_pooling2d_19"}, {"class_name": "MaxPooling2D", "inbound_nodes": [[["pool1_pad19", 0, 0, {}]]], "config": {"name": "max_pooling2d_20", "trainable": false, "data_format": "channels_last", "pool_size": [3, 3], "padding": "valid", "strides": [2, 2]}, "name": "max_pooling2d_20"}, {"class_name": "MaxPooling2D", "inbound_nodes": [[["pool1_pad20", 0, 0, {}]]], "config": {"name": "max_pooling2d_21", "trainable": false, "data_format": "channels_last", "pool_size": [3, 3], "padding": "valid", "strides": [2, 2]}, "name": "max_pooling2d_21"}, {"class_name": "MaxPooling2D", "inbound_nodes": [[["pool1_pad21", 0, 0, {}]]], "config": {"name": "max_pooling2d_22", "trainable": false, "data_format": "channels_last", "pool_size": [3, 3], "padding": "valid", "strides": [2, 2]}, "name": "max_pooling2d_22"}, {"class_name": "MaxPooling2D", "inbound_nodes": [[["pool1_pad22", 0, 0, {}]]], "config": {"name": "max_pooling2d_23", "trainable": false, "data_format": "channels_last", "pool_size": [3, 3], "padding": "valid", "strides": [2, 2]}, "name": "max_pooling2d_23"}, {"class_name": "MaxPooling2D", "inbound_nodes": [[["pool1_pad23", 0, 0, {}]]], "config": {"name": "max_pooling2d_24", "trainable": false, "data_format": "channels_last", "pool_size": [3, 3], "padding": "valid", "strides": [2, 2]}, "name": "max_pooling2d_24"}, {"class_name": "MaxPooling2D", "inbound_nodes": [[["pool1_pad24", 0, 0, {}]]], "config": {"name": "max_pooling2d_25", "trainable": false, "data_format": "channels_last", "pool_size": [3, 3], "padding": "valid", "strides": [2, 2]}, "name": "max_pooling2d_25"}, {"class_name": "MaxPooling2D", "inbound_nodes": [[["pool1_pad25", 0, 0, {}]]], "config": {"name": "max_pooling2d_26", "trainable": false, "data_format": "channels_last", "pool_size": [3, 3], "padding": "valid", "strides": [2, 2]}, "name": "max_pooling2d_26"}, {"class_name": "MaxPooling2D", "inbound_nodes": [[["pool1_pad26", 0, 0, {}]]], "config": {"name": "max_pooling2d_27", "trainable": false, "data_format": "channels_last", "pool_size": [3, 3], "padding": "valid", "strides": [2, 2]}, "name": "max_pooling2d_27"}, {"class_name": "Conv2D", "inbound_nodes": [[["max_pooling2d_1", 0, 0, {}]]], "config": {"kernel_initializer": {"class_name": "VarianceScaling", "config": {"distribution": "normal", "scale": 2.0, "seed": null, "mode": "fan_in"}}, "name": "res02a_branch2a", "kernel_constraint": null, "bias_regularizer": null, "bias_constraint": null, "activation": "linear", "trainable": false, "data_format": "channels_last", "padding": "valid", "strides": [1, 1], "dilation_rate": [1, 1], "kernel_regularizer": null, "filters": 64, "bias_initializer": {"class_name": "Zeros", "config": {}}, "use_bias": true, "activity_regularizer": null, "kernel_size": [1, 1]}, "name": "res02a_branch2a"}, {"class_name": "Conv2D", "inbound_nodes": [[["max_pooling2d_2", 0, 0, {}]]], "config": {"kernel_initializer": {"class_name": "VarianceScaling", "config": {"distribution": "normal", "scale": 2.0, "seed": null, "mode": "fan_in"}}, "name": "res12a_branch2a", "kernel_constraint": null, "bias_regularizer": null, "bias_constraint": null, "activation": "linear", "trainable": false, "data_format": "channels_last", "padding": "valid", "strides": [1, 1], "dilation_rate": [1, 1], "kernel_regularizer": null, "filters": 64, "bias_initializer": {"class_name": "Zeros", "config": {}}, "use_bias": true, "activity_regularizer": null, "kernel_size": [1, 1]}, "name": "res12a_branch2a"}, {"class_name": "Conv2D", "inbound_nodes": [[["max_pooling2d_3", 0, 0, {}]]], "config": {"kernel_initializer": {"class_name": "VarianceScaling", "config": {"distribution": "normal", "scale": 2.0, "seed": null, "mode": "fan_in"}}, "name": "res22a_branch2a", "kernel_constraint": null, "bias_regularizer": null, "bias_constraint": null, "activation": "linear", "trainable": false, "data_format": "channels_last", "padding": "valid", "strides": [1, 1], "dilation_rate": [1, 1], "kernel_regularizer": null, "filters": 64, "bias_initializer": {"class_name": "Zeros", "config": {}}, "use_bias": true, "activity_regularizer": null, "kernel_size": [1, 1]}, "name": "res22a_branch2a"}, {"class_name": "Conv2D", "inbound_nodes": [[["max_pooling2d_4", 0, 0, {}]]], "config": {"kernel_initializer": {"class_name": "VarianceScaling", "config": {"distribution": "normal", "scale": 2.0, "seed": null, "mode": "fan_in"}}, "name": "res32a_branch2a", "kernel_constraint": null, "bias_regularizer": null, "bias_constraint": null, "activation": "linear", "trainable": false, "data_format": "channels_last", "padding": "valid", "strides": [1, 1], "dilation_rate": [1, 1], "kernel_regularizer": null, "filters": 64, "bias_initializer": {"class_name": "Zeros", "config": {}}, "use_bias": true, "activity_regularizer": null, "kernel_size": [1, 1]}, "name": "res32a_branch2a"}, {"class_name": "Conv2D", "inbound_nodes": [[["max_pooling2d_5", 0, 0, {}]]], "config": {"kernel_initializer": {"class_name": "VarianceScaling", "config": {"distribution": "normal", "scale": 2.0, "seed": null, "mode": "fan_in"}}, "name": "res42a_branch2a", "kernel_constraint": null, "bias_regularizer": null, "bias_constraint": null, "activation": "linear", "trainable": false, "data_format": "channels_last", "padding": "valid", "strides": [1, 1], "dilation_rate": [1, 1], "kernel_regularizer": null, "filters": 64, "bias_initializer": {"class_name": "Zeros", "config": {}}, "use_bias": true, "activity_regularizer": null, "kernel_size": [1, 1]}, "name": "res42a_branch2a"}, {"class_name": "Conv2D", "inbound_nodes": [[["max_pooling2d_6", 0, 0, {}]]], "config": {"kernel_initializer": {"class_name": "VarianceScaling", "config": {"distribution": "normal", "scale": 2.0, "seed": null, "mode": "fan_in"}}, "name": "res52a_branch2a", "kernel_constraint": null, "bias_regularizer": null, "bias_constraint": null, "activation": "linear", "trainable": false, "data_format": "channels_last", "padding": "valid", "strides": [1, 1], "dilation_rate": [1, 1], "kernel_regularizer": null, "filters": 64, "bias_initializer": {"class_name": "Zeros", "config": {}}, "use_bias": true, "activity_regularizer": null, "kernel_size": [1, 1]}, "name": "res52a_branch2a"}, {"class_name": "Conv2D", "inbound_nodes": [[["max_pooling2d_7", 0, 0, {}]]], "config": {"kernel_initializer": {"class_name": "VarianceScaling", "config": {"distribution": "normal", "scale": 2.0, "seed": null, "mode": "fan_in"}}, "name": "res62a_branch2a", "kernel_constraint": null, "bias_regularizer": null, "bias_constraint": null, "activation": "linear", "trainable": false, "data_format": "channels_last", "padding": "valid", "strides": [1, 1], "dilation_rate": [1, 1], "kernel_regularizer": null, "filters": 64, "bias_initializer": {"class_name": "Zeros", "config": {}}, "use_bias": true, "activity_regularizer": null, "kernel_size": [1, 1]}, "name": "res62a_branch2a"}, {"class_name": "Conv2D", "inbound_nodes": [[["max_pooling2d_8", 0, 0, {}]]], "config": {"kernel_initializer": {"class_name": "VarianceScaling", "config": {"distribution": "normal", "scale": 2.0, "seed": null, "mode": "fan_in"}}, "name": "res72a_branch2a", "kernel_constraint": null, "bias_regularizer": null, "bias_constraint": null, "activation": "linear", "trainable": false, "data_format": "channels_last", "padding": "valid", "strides": [1, 1], "dilation_rate": [1, 1], "kernel_regularizer": null, "filters": 64, "bias_initializer": {"class_name": "Zeros", "config": {}}, "use_bias": true, "activity_regularizer": null, "kernel_size": [1, 1]}, "name": "res72a_branch2a"}, {"class_name": "Conv2D", "inbound_nodes": [[["max_pooling2d_9", 0, 0, {}]]], "config": {"kernel_initializer": {"class_name": "VarianceScaling", "config": {"distribution": "normal", "scale": 2.0, "seed": null, "mode": "fan_in"}}, "name": "res82a_branch2a", "kernel_constraint": null, "bias_regularizer": null, "bias_constraint": null, "activation": "linear", "trainable": false, "data_format": "channels_last", "padding": "valid", "strides": [1, 1], "dilation_rate": [1, 1], "kernel_regularizer": null, "filters": 64, "bias_initializer": {"class_name": "Zeros", "config": {}}, "use_bias": true, "activity_regularizer": null, "kernel_size": [1, 1]}, "name": "res82a_branch2a"}, {"class_name": "Conv2D", "inbound_nodes": [[["max_pooling2d_10", 0, 0, {}]]], "config": {"kernel_initializer": {"class_name": "VarianceScaling", "config": {"distribution": "normal", "scale": 2.0, "seed": null, "mode": "fan_in"}}, "name": "res92a_branch2a", "kernel_constraint": null, "bias_regularizer": null, "bias_constraint": null, "activation": "linear", "trainable": false, "data_format": "channels_last", "padding": "valid", "strides": [1, 1], "dilation_rate": [1, 1], "kernel_regularizer": null, "filters": 64, "bias_initializer": {"class_name": "Zeros", "config": {}}, "use_bias": true, "activity_regularizer": null, "kernel_size": [1, 1]}, "name": "res92a_branch2a"}, {"class_name": "Conv2D", "inbound_nodes": [[["max_pooling2d_11", 0, 0, {}]]], "config": {"kernel_initializer": {"class_name": "VarianceScaling", "config": {"distribution": "normal", "scale": 2.0, "seed": null, "mode": "fan_in"}}, "name": "res102a_branch2a", "kernel_constraint": null, "bias_regularizer": null, "bias_constraint": null, "activation": "linear", "trainable": false, "data_format": "channels_last", "padding": "valid", "strides": [1, 1], "dilation_rate": [1, 1], "kernel_regularizer": null, "filters": 64, "bias_initializer": {"class_name": "Zeros", "config": {}}, "use_bias": true, "activity_regularizer": null, "kernel_size": [1, 1]}, "name": "res102a_branch2a"}, {"class_name": "Conv2D", "inbound_nodes": [[["max_pooling2d_12", 0, 0, {}]]], "config": {"kernel_initializer": {"class_name": "VarianceScaling", "config": {"distribution": "normal", "scale": 2.0, "seed": null, "mode": "fan_in"}}, "name": "res112a_branch2a", "kernel_constraint": null, "bias_regularizer": null, "bias_constraint": null, "activation": "linear", "trainable": false, "data_format": "channels_last", "padding": "valid", "strides": [1, 1], "dilation_rate": [1, 1], "kernel_regularizer": null, "filters": 64, "bias_initializer": {"class_name": "Zeros", "config": {}}, "use_bias": true, "activity_regularizer": null, "kernel_size": [1, 1]}, "name": "res112a_branch2a"}, {"class_name": "Conv2D", "inbound_nodes": [[["max_pooling2d_13", 0, 0, {}]]], "config": {"kernel_initializer": {"class_name": "VarianceScaling", "config": {"distribution": "normal", "scale": 2.0, "seed": null, "mode": "fan_in"}}, "name": "res122a_branch2a", "kernel_constraint": null, "bias_regularizer": null, "bias_constraint": null, "activation": "linear", "trainable": false, "data_format": "channels_last", "padding": "valid", "strides": [1, 1], "dilation_rate": [1, 1], "kernel_regularizer": null, "filters": 64, "bias_initializer": {"class_name": "Zeros", "config": {}}, "use_bias": true, "activity_regularizer": null, "kernel_size": [1, 1]}, "name": "res122a_branch2a"}, {"class_name": "Conv2D", "inbound_nodes": [[["max_pooling2d_14", 0, 0, {}]]], "config": {"kernel_initializer": {"class_name": "VarianceScaling", "config": {"distribution": "normal", "scale": 2.0, "seed": null, "mode": "fan_in"}}, "name": "res132a_branch2a", "kernel_constraint": null, "bias_regularizer": null, "bias_constraint": null, "activation": "linear", "trainable": false, "data_format": "channels_last", "padding": "valid", "strides": [1, 1], "dilation_rate": [1, 1], "kernel_regularizer": null, "filters": 64, "bias_initializer": {"class_name": "Zeros", "config": {}}, "use_bias": true, "activity_regularizer": null, "kernel_size": [1, 1]}, "name": "res132a_branch2a"}, {"class_name": "Conv2D", "inbound_nodes": [[["max_pooling2d_15", 0, 0, {}]]], "config": {"kernel_initializer": {"class_name": "VarianceScaling", "config": {"distribution": "normal", "scale": 2.0, "seed": null, "mode": "fan_in"}}, "name": "res142a_branch2a", "kernel_constraint": null, "bias_regularizer": null, "bias_constraint": null, "activation": "linear", "trainable": false, "data_format": "channels_last", "padding": "valid", "strides": [1, 1], "dilation_rate": [1, 1], "kernel_regularizer": null, "filters": 64, "bias_initializer": {"class_name": "Zeros", "config": {}}, "use_bias": true, "activity_regularizer": null, "kernel_size": [1, 1]}, "name": "res142a_branch2a"}, {"class_name": "Conv2D", "inbound_nodes": [[["max_pooling2d_16", 0, 0, {}]]], "config": {"kernel_initializer": {"class_name": "VarianceScaling", "config": {"distribution": "normal", "scale": 2.0, "seed": null, "mode": "fan_in"}}, "name": "res152a_branch2a", "kernel_constraint": null, "bias_regularizer": null, "bias_constraint": null, "activation": "linear", "trainable": false, "data_format": "channels_last", "padding": "valid", "strides": [1, 1], "dilation_rate": [1, 1], "kernel_regularizer": null, "filters": 64, "bias_initializer": {"class_name": "Zeros", "config": {}}, "use_bias": true, "activity_regularizer": null, "kernel_size": [1, 1]}, "name": "res152a_branch2a"}, {"class_name": "Conv2D", "inbound_nodes": [[["max_pooling2d_17", 0, 0, {}]]], "config": {"kernel_initializer": {"class_name": "VarianceScaling", "config": {"distribution": "normal", "scale": 2.0, "seed": null, "mode": "fan_in"}}, "name": "res162a_branch2a", "kernel_constraint": null, "bias_regularizer": null, "bias_constraint": null, "activation": "linear", "trainable": false, "data_format": "channels_last", "padding": "valid", "strides": [1, 1], "dilation_rate": [1, 1], "kernel_regularizer": null, "filters": 64, "bias_initializer": {"class_name": "Zeros", "config": {}}, "use_bias": true, "activity_regularizer": null, "kernel_size": [1, 1]}, "name": "res162a_branch2a"}, {"class_name": "Conv2D", "inbound_nodes": [[["max_pooling2d_18", 0, 0, {}]]], "config": {"kernel_initializer": {"class_name": "VarianceScaling", "config": {"distribution": "normal", "scale": 2.0, "seed": null, "mode": "fan_in"}}, "name": "res172a_branch2a", "kernel_constraint": null, "bias_regularizer": null, "bias_constraint": null, "activation": "linear", "trainable": false, "data_format": "channels_last", "padding": "valid", "strides": [1, 1], "dilation_rate": [1, 1], "kernel_regularizer": null, "filters": 64, "bias_initializer": {"class_name": "Zeros", "config": {}}, "use_bias": true, "activity_regularizer": null, "kernel_size": [1, 1]}, "name": "res172a_branch2a"}, {"class_name": "Conv2D", "inbound_nodes": [[["max_pooling2d_19", 0, 0, {}]]], "config": {"kernel_initializer": {"class_name": "VarianceScaling", "config": {"distribution": "normal", "scale": 2.0, "seed": null, "mode": "fan_in"}}, "name": "res182a_branch2a", "kernel_constraint": null, "bias_regularizer": null, "bias_constraint": null, "activation": "linear", "trainable": false, "data_format": "channels_last", "padding": "valid", "strides": [1, 1], "dilation_rate": [1, 1], "kernel_regularizer": null, "filters": 64, "bias_initializer": {"class_name": "Zeros", "config": {}}, "use_bias": true, "activity_regularizer": null, "kernel_size": [1, 1]}, "name": "res182a_branch2a"}, {"class_name": "Conv2D", "inbound_nodes": [[["max_pooling2d_20", 0, 0, {}]]], "config": {"kernel_initializer": {"class_name": "VarianceScaling", "config": {"distribution": "normal", "scale": 2.0, "seed": null, "mode": "fan_in"}}, "name": "res192a_branch2a", "kernel_constraint": null, "bias_regularizer": null, "bias_constraint": null, "activation": "linear", "trainable": false, "data_format": "channels_last", "padding": "valid", "strides": [1, 1], "dilation_rate": [1, 1], "kernel_regularizer": null, "filters": 64, "bias_initializer": {"class_name": "Zeros", "config": {}}, "use_bias": true, "activity_regularizer": null, "kernel_size": [1, 1]}, "name": "res192a_branch2a"}, {"class_name": "Conv2D", "inbound_nodes": [[["max_pooling2d_21", 0, 0, {}]]], "config": {"kernel_initializer": {"class_name": "VarianceScaling", "config": {"distribution": "normal", "scale": 2.0, "seed": null, "mode": "fan_in"}}, "name": "res202a_branch2a", "kernel_constraint": null, "bias_regularizer": null, "bias_constraint": null, "activation": "linear", "trainable": false, "data_format": "channels_last", "padding": "valid", "strides": [1, 1], "dilation_rate": [1, 1], "kernel_regularizer": null, "filters": 64, "bias_initializer": {"class_name": "Zeros", "config": {}}, "use_bias": true, "activity_regularizer": null, "kernel_size": [1, 1]}, "name": "res202a_branch2a"}, {"class_name": "Conv2D", "inbound_nodes": [[["max_pooling2d_22", 0, 0, {}]]], "config": {"kernel_initializer": {"class_name": "VarianceScaling", "config": {"distribution": "normal", "scale": 2.0, "seed": null, "mode": "fan_in"}}, "name": "res212a_branch2a", "kernel_constraint": null, "bias_regularizer": null, "bias_constraint": null, "activation": "linear", "trainable": false, "data_format": "channels_last", "padding": "valid", "strides": [1, 1], "dilation_rate": [1, 1], "kernel_regularizer": null, "filters": 64, "bias_initializer": {"class_name": "Zeros", "config": {}}, "use_bias": true, "activity_regularizer": null, "kernel_size": [1, 1]}, "name": "res212a_branch2a"}, {"class_name": "Conv2D", "inbound_nodes": [[["max_pooling2d_23", 0, 0, {}]]], "config": {"kernel_initializer": {"class_name": "VarianceScaling", "config": {"distribution": "normal", "scale": 2.0, "seed": null, "mode": "fan_in"}}, "name": "res222a_branch2a", "kernel_constraint": null, "bias_regularizer": null, "bias_constraint": null, "activation": "linear", "trainable": false, "data_format": "channels_last", "padding": "valid", "strides": [1, 1], "dilation_rate": [1, 1], "kernel_regularizer": null, "filters": 64, "bias_initializer": {"class_name": "Zeros", "config": {}}, "use_bias": true, "activity_regularizer": null, "kernel_size": [1, 1]}, "name": "res222a_branch2a"}, {"class_name": "Conv2D", "inbound_nodes": [[["max_pooling2d_24", 0, 0, {}]]], "config": {"kernel_initializer": {"class_name": "VarianceScaling", "config": {"distribution": "normal", "scale": 2.0, "seed": null, "mode": "fan_in"}}, "name": "res232a_branch2a", "kernel_constraint": null, "bias_regularizer": null, "bias_constraint": null, "activation": "linear", "trainable": false, "data_format": "channels_last", "padding": "valid", "strides": [1, 1], "dilation_rate": [1, 1], "kernel_regularizer": null, "filters": 64, "bias_initializer": {"class_name": "Zeros", "config": {}}, "use_bias": true, "activity_regularizer": null, "kernel_size": [1, 1]}, "name": "res232a_branch2a"}, {"class_name": "Conv2D", "inbound_nodes": [[["max_pooling2d_25", 0, 0, {}]]], "config": {"kernel_initializer": {"class_name": "VarianceScaling", "config": {"distribution": "normal", "scale": 2.0, "seed": null, "mode": "fan_in"}}, "name": "res242a_branch2a", "kernel_constraint": null, "bias_regularizer": null, "bias_constraint": null, "activation": "linear", "trainable": false, "data_format": "channels_last", "padding": "valid", "strides": [1, 1], "dilation_rate": [1, 1], "kernel_regularizer": null, "filters": 64, "bias_initializer": {"class_name": "Zeros", "config": {}}, "use_bias": true, "activity_regularizer": null, "kernel_size": [1, 1]}, "name": "res242a_branch2a"}, {"class_name": "Conv2D", "inbound_nodes": [[["max_pooling2d_26", 0, 0, {}]]], "config": {"kernel_initializer": {"class_name": "VarianceScaling", "config": {"distribution": "normal", "scale": 2.0, "seed": null, "mode": "fan_in"}}, "name": "res252a_branch2a", "kernel_constraint": null, "bias_regularizer": null, "bias_constraint": null, "activation": "linear", "trainable": false, "data_format": "channels_last", "padding": "valid", "strides": [1, 1], "dilation_rate": [1, 1], "kernel_regularizer": null, "filters": 64, "bias_initializer": {"class_name": "Zeros", "config": {}}, "use_bias": true, "activity_regularizer": null, "kernel_size": [1, 1]}, "name": "res252a_branch2a"}, {"class_name": "Conv2D", "inbound_nodes": [[["max_pooling2d_27", 0, 0, {}]]], "config": {"kernel_initializer": {"class_name": "VarianceScaling", "config": {"distribution": "normal", "scale": 2.0, "seed": null, "mode": "fan_in"}}, "name": "res262a_branch2a", "kernel_constraint": null, "bias_regularizer": null, "bias_constraint": null, "activation": "linear", "trainable": false, "data_format": "channels_last", "padding": "valid", "strides": [1, 1], "dilation_rate": [1, 1], "kernel_regularizer": null, "filters": 64, "bias_initializer": {"class_name": "Zeros", "config": {}}, "use_bias": true, "activity_regularizer": null, "kernel_size": [1, 1]}, "name": "res262a_branch2a"}, {"class_name": "BatchNormalization", "inbound_nodes": [[["res02a_branch2a", 0, 0, {}]]], "config": {"gamma_initializer": {"class_name": "Ones", "config": {}}, "moving_mean_initializer": {"class_name": "Zeros", "config": {}}, "name": "bn02a_branch2a", "epsilon": 0.001, "trainable": false, "center": true, "moving_variance_initializer": {"class_name": "Ones", "config": {}}, "beta_initializer": {"class_name": "Zeros", "config": {}}, "scale": true, "gamma_regularizer": null, "gamma_constraint": null, "beta_constraint": null, "beta_regularizer": null, "momentum": 0.99, "axis": 3}, "name": "bn02a_branch2a"}, {"class_name": "BatchNormalization", "inbound_nodes": [[["res12a_branch2a", 0, 0, {}]]], "config": {"gamma_initializer": {"class_name": "Ones", "config": {}}, "moving_mean_initializer": {"class_name": "Zeros", "config": {}}, "name": "bn12a_branch2a", "epsilon": 0.001, "trainable": false, "center": true, "moving_variance_initializer": {"class_name": "Ones", "config": {}}, "beta_initializer": {"class_name": "Zeros", "config": {}}, "scale": true, "gamma_regularizer": null, "gamma_constraint": null, "beta_constraint": null, "beta_regularizer": null, "momentum": 0.99, "axis": 3}, "name": "bn12a_branch2a"}, {"class_name": "BatchNormalization", "inbound_nodes": [[["res22a_branch2a", 0, 0, {}]]], "config": {"gamma_initializer": {"class_name": "Ones", "config": {}}, "moving_mean_initializer": {"class_name": "Zeros", "config": {}}, "name": "bn22a_branch2a", "epsilon": 0.001, "trainable": false, "center": true, "moving_variance_initializer": {"class_name": "Ones", "config": {}}, "beta_initializer": {"class_name": "Zeros", "config": {}}, "scale": true, "gamma_regularizer": null, "gamma_constraint": null, "beta_constraint": null, "beta_regularizer": null, "momentum": 0.99, "axis": 3}, "name": "bn22a_branch2a"}, {"class_name": "BatchNormalization", "inbound_nodes": [[["res32a_branch2a", 0, 0, {}]]], "config": {"gamma_initializer": {"class_name": "Ones", "config": {}}, "moving_mean_initializer": {"class_name": "Zeros", "config": {}}, "name": "bn32a_branch2a", "epsilon": 0.001, "trainable": false, "center": true, "moving_variance_initializer": {"class_name": "Ones", "config": {}}, "beta_initializer": {"class_name": "Zeros", "config": {}}, "scale": true, "gamma_regularizer": null, "gamma_constraint": null, "beta_constraint": null, "beta_regularizer": null, "momentum": 0.99, "axis": 3}, "name": "bn32a_branch2a"}, {"class_name": "BatchNormalization", "inbound_nodes": [[["res42a_branch2a", 0, 0, {}]]], "config": {"gamma_initializer": {"class_name": "Ones", "config": {}}, "moving_mean_initializer": {"class_name": "Zeros", "config": {}}, "name": "bn42a_branch2a", "epsilon": 0.001, "trainable": false, "center": true, "moving_variance_initializer": {"class_name": "Ones", "config": {}}, "beta_initializer": {"class_name": "Zeros", "config": {}}, "scale": true, "gamma_regularizer": null, "gamma_constraint": null, "beta_constraint": null, "beta_regularizer": null, "momentum": 0.99, "axis": 3}, "name": "bn42a_branch2a"}, {"class_name": "BatchNormalization", "inbound_nodes": [[["res52a_branch2a", 0, 0, {}]]], "config": {"gamma_initializer": {"class_name": "Ones", "config": {}}, "moving_mean_initializer": {"class_name": "Zeros", "config": {}}, "name": "bn52a_branch2a", "epsilon": 0.001, "trainable": false, "center": true, "moving_variance_initializer": {"class_name": "Ones", "config": {}}, "beta_initializer": {"class_name": "Zeros", "config": {}}, "scale": true, "gamma_regularizer": null, "gamma_constraint": null, "beta_constraint": null, "beta_regularizer": null, "momentum": 0.99, "axis": 3}, "name": "bn52a_branch2a"}, {"class_name": "BatchNormalization", "inbound_nodes": [[["res62a_branch2a", 0, 0, {}]]], "config": {"gamma_initializer": {"class_name": "Ones", "config": {}}, "moving_mean_initializer": {"class_name": "Zeros", "config": {}}, "name": "bn62a_branch2a", "epsilon": 0.001, "trainable": false, "center": true, "moving_variance_initializer": {"class_name": "Ones", "config": {}}, "beta_initializer": {"class_name": "Zeros", "config": {}}, "scale": true, "gamma_regularizer": null, "gamma_constraint": null, "beta_constraint": null, "beta_regularizer": null, "momentum": 0.99, "axis": 3}, "name": "bn62a_branch2a"}, {"class_name": "BatchNormalization", "inbound_nodes": [[["res72a_branch2a", 0, 0, {}]]], "config": {"gamma_initializer": {"class_name": "Ones", "config": {}}, "moving_mean_initializer": {"class_name": "Zeros", "config": {}}, "name": "bn72a_branch2a", "epsilon": 0.001, "trainable": false, "center": true, "moving_variance_initializer": {"class_name": "Ones", "config": {}}, "beta_initializer": {"class_name": "Zeros", "config": {}}, "scale": true, "gamma_regularizer": null, "gamma_constraint": null, "beta_constraint": null, "beta_regularizer": null, "momentum": 0.99, "axis": 3}, "name": "bn72a_branch2a"}, {"class_name": "BatchNormalization", "inbound_nodes": [[["res82a_branch2a", 0, 0, {}]]], "config": {"gamma_initializer": {"class_name": "Ones", "config": {}}, "moving_mean_initializer": {"class_name": "Zeros", "config": {}}, "name": "bn82a_branch2a", "epsilon": 0.001, "trainable": false, "center": true, "moving_variance_initializer": {"class_name": "Ones", "config": {}}, "beta_initializer": {"class_name": "Zeros", "config": {}}, "scale": true, "gamma_regularizer": null, "gamma_constraint": null, "beta_constraint": null, "beta_regularizer": null, "momentum": 0.99, "axis": 3}, "name": "bn82a_branch2a"}, {"class_name": "BatchNormalization", "inbound_nodes": [[["res92a_branch2a", 0, 0, {}]]], "config": {"gamma_initializer": {"class_name": "Ones", "config": {}}, "moving_mean_initializer": {"class_name": "Zeros", "config": {}}, "name": "bn92a_branch2a", "epsilon": 0.001, "trainable": false, "center": true, "moving_variance_initializer": {"class_name": "Ones", "config": {}}, "beta_initializer": {"class_name": "Zeros", "config": {}}, "scale": true, "gamma_regularizer": null, "gamma_constraint": null, "beta_constraint": null, "beta_regularizer": null, "momentum": 0.99, "axis": 3}, "name": "bn92a_branch2a"}, {"class_name": "BatchNormalization", "inbound_nodes": [[["res102a_branch2a", 0, 0, {}]]], "config": {"gamma_initializer": {"class_name": "Ones", "config": {}}, "moving_mean_initializer": {"class_name": "Zeros", "config": {}}, "name": "bn102a_branch2a", "epsilon": 0.001, "trainable": false, "center": true, "moving_variance_initializer": {"class_name": "Ones", "config": {}}, "beta_initializer": {"class_name": "Zeros", "config": {}}, "scale": true, "gamma_regularizer": null, "gamma_constraint": null, "beta_constraint": null, "beta_regularizer": null, "momentum": 0.99, "axis": 3}, "name": "bn102a_branch2a"}, {"class_name": "BatchNormalization", "inbound_nodes": [[["res112a_branch2a", 0, 0, {}]]], "config": {"gamma_initializer": {"class_name": "Ones", "config": {}}, "moving_mean_initializer": {"class_name": "Zeros", "config": {}}, "name": "bn112a_branch2a", "epsilon": 0.001, "trainable": false, "center": true, "moving_variance_initializer": {"class_name": "Ones", "config": {}}, "beta_initializer": {"class_name": "Zeros", "config": {}}, "scale": true, "gamma_regularizer": null, "gamma_constraint": null, "beta_constraint": null, "beta_regularizer": null, "momentum": 0.99, "axis": 3}, "name": "bn112a_branch2a"}, {"class_name": "BatchNormalization", "inbound_nodes": [[["res122a_branch2a", 0, 0, {}]]], "config": {"gamma_initializer": {"class_name": "Ones", "config": {}}, "moving_mean_initializer": {"class_name": "Zeros", "config": {}}, "name": "bn122a_branch2a", "epsilon": 0.001, "trainable": false, "center": true, "moving_variance_initializer": {"class_name": "Ones", "config": {}}, "beta_initializer": {"class_name": "Zeros", "config": {}}, "scale": true, "gamma_regularizer": null, "gamma_constraint": null, "beta_constraint": null, "beta_regularizer": null, "momentum": 0.99, "axis": 3}, "name": "bn122a_branch2a"}, {"class_name": "BatchNormalization", "inbound_nodes": [[["res132a_branch2a", 0, 0, {}]]], "config": {"gamma_initializer": {"class_name": "Ones", "config": {}}, "moving_mean_initializer": {"class_name": "Zeros", "config": {}}, "name": "bn132a_branch2a", "epsilon": 0.001, "trainable": false, "center": true, "moving_variance_initializer": {"class_name": "Ones", "config": {}}, "beta_initializer": {"class_name": "Zeros", "config": {}}, "scale": true, "gamma_regularizer": null, "gamma_constraint": null, "beta_constraint": null, "beta_regularizer": null, "momentum": 0.99, "axis": 3}, "name": "bn132a_branch2a"}, {"class_name": "BatchNormalization", "inbound_nodes": [[["res142a_branch2a", 0, 0, {}]]], "config": {"gamma_initializer": {"class_name": "Ones", "config": {}}, "moving_mean_initializer": {"class_name": "Zeros", "config": {}}, "name": "bn142a_branch2a", "epsilon": 0.001, "trainable": false, "center": true, "moving_variance_initializer": {"class_name": "Ones", "config": {}}, "beta_initializer": {"class_name": "Zeros", "config": {}}, "scale": true, "gamma_regularizer": null, "gamma_constraint": null, "beta_constraint": null, "beta_regularizer": null, "momentum": 0.99, "axis": 3}, "name": "bn142a_branch2a"}, {"class_name": "BatchNormalization", "inbound_nodes": [[["res152a_branch2a", 0, 0, {}]]], "config": {"gamma_initializer": {"class_name": "Ones", "config": {}}, "moving_mean_initializer": {"class_name": "Zeros", "config": {}}, "name": "bn152a_branch2a", "epsilon": 0.001, "trainable": false, "center": true, "moving_variance_initializer": {"class_name": "Ones", "config": {}}, "beta_initializer": {"class_name": "Zeros", "config": {}}, "scale": true, "gamma_regularizer": null, "gamma_constraint": null, "beta_constraint": null, "beta_regularizer": null, "momentum": 0.99, "axis": 3}, "name": "bn152a_branch2a"}, {"class_name": "BatchNormalization", "inbound_nodes": [[["res162a_branch2a", 0, 0, {}]]], "config": {"gamma_initializer": {"class_name": "Ones", "config": {}}, "moving_mean_initializer": {"class_name": "Zeros", "config": {}}, "name": "bn162a_branch2a", "epsilon": 0.001, "trainable": false, "center": true, "moving_variance_initializer": {"class_name": "Ones", "config": {}}, "beta_initializer": {"class_name": "Zeros", "config": {}}, "scale": true, "gamma_regularizer": null, "gamma_constraint": null, "beta_constraint": null, "beta_regularizer": null, "momentum": 0.99, "axis": 3}, "name": "bn162a_branch2a"}, {"class_name": "BatchNormalization", "inbound_nodes": [[["res172a_branch2a", 0, 0, {}]]], "config": {"gamma_initializer": {"class_name": "Ones", "config": {}}, "moving_mean_initializer": {"class_name": "Zeros", "config": {}}, "name": "bn172a_branch2a", "epsilon": 0.001, "trainable": false, "center": true, "moving_variance_initializer": {"class_name": "Ones", "config": {}}, "beta_initializer": {"class_name": "Zeros", "config": {}}, "scale": true, "gamma_regularizer": null, "gamma_constraint": null, "beta_constraint": null, "beta_regularizer": null, "momentum": 0.99, "axis": 3}, "name": "bn172a_branch2a"}, {"class…
": "Dropout", "inbound_nodes": [[["dense1_0", 0, 0, {}]]], "config": {"rate": 0.5, "noise_shape": null, "trainable": false, "seed": null, "name": "dropout_1"}, "name": "dropout_1"}, {"class_name": "Dropout", "inbound_nodes": [[["dense1_1", 0, 0, {}]]], "config": {"rate": 0.5, "noise_shape": null, "trainable": false, "seed": null, "name": "dropout_3"}, "name": "dropout_3"}, {"class_name": "Dropout", "inbound_nodes": [[["dense1_2", 0, 0, {}]]], "config": {"rate": 0.5, "noise_shape": null, "trainable": false, "seed": null, "name": "dropout_5"}, "name": "dropout_5"}, {"class_name": "Dropout", "inbound_nodes": [[["dense1_3", 0, 0, {}]]], "config": {"rate": 0.5, "noise_shape": null, "trainable": false, "seed": null, "name": "dropout_7"}, "name": "dropout_7"}, {"class_name": "Dropout", "inbound_nodes": [[["dense1_4", 0, 0, {}]]], "config": {"rate": 0.5, "noise_shape": null, "trainable": false, "seed": null, "name": "dropout_9"}, "name": "dropout_9"}, {"class_name": "Dropout", "inbound_nodes": [[["dense1_5", 0, 0, {}]]], "config": {"rate": 0.5, "noise_shape": null, "trainable": false, "seed": null, "name": "dropout_11"}, "name": "dropout_11"}, {"class_name": "Dropout", "inbound_nodes": [[["dense1_6", 0, 0, {}]]], "config": {"rate": 0.5, "noise_shape": null, "trainable": false, "seed": null, "name": "dropout_13"}, "name": "dropout_13"}, {"class_name": "Dropout", "inbound_nodes": [[["dense1_7", 0, 0, {}]]], "config": {"rate": 0.5, "noise_shape": null, "trainable": false, "seed": null, "name": "dropout_15"}, "name": "dropout_15"}, {"class_name": "Dropout", "inbound_nodes": [[["dense1_8", 0, 0, {}]]], "config": {"rate": 0.5, "noise_shape": null, "trainable": false, "seed": null, "name": "dropout_17"}, "name": "dropout_17"}, {"class_name": "Dropout", "inbound_nodes": [[["dense1_9", 0, 0, {}]]], "config": {"rate": 0.5, "noise_shape": null, "trainable": false, "seed": null, "name": "dropout_19"}, "name": "dropout_19"}, {"class_name": "Dropout", "inbound_nodes": [[["dense1_10", 0, 0, {}]]], "config": {"rate": 0.5, "noise_shape": null, "trainable": false, "seed": null, "name": "dropout_21"}, "name": "dropout_21"}, {"class_name": "Dropout", "inbound_nodes": [[["dense1_11", 0, 0, {}]]], "config": {"rate": 0.5, "noise_shape": null, "trainable": false, "seed": null, "name": "dropout_23"}, "name": "dropout_23"}, {"class_name": "Dropout", "inbound_nodes": [[["dense1_12", 0, 0, {}]]], "config": {"rate": 0.5, "noise_shape": null, "trainable": false, "seed": null, "name": "dropout_25"}, "name": "dropout_25"}, {"class_name": "Dropout", "inbound_nodes": [[["dense1_13", 0, 0, {}]]], "config": {"rate": 0.5, "noise_shape": null, "trainable": false, "seed": null, "name": "dropout_27"}, "name": "dropout_27"}, {"class_name": "Dropout", "inbound_nodes": [[["dense1_14", 0, 0, {}]]], "config": {"rate": 0.5, "noise_shape": null, "trainable": false, "seed": null, "name": "dropout_29"}, "name": "dropout_29"}, {"class_name": "Dropout", "inbound_nodes": [[["dense1_15", 0, 0, {}]]], "config": {"rate": 0.5, "noise_shape": null, "trainable": false, "seed": null, "name": "dropout_31"}, "name": "dropout_31"}, {"class_name": "Dropout", "inbound_nodes": [[["dense1_16", 0, 0, {}]]], "config": {"rate": 0.5, "noise_shape": null, "trainable": false, "seed": null, "name": "dropout_33"}, "name": "dropout_33"}, {"class_name": "Dropout", "inbound_nodes": [[["dense1_17", 0, 0, {}]]], "config": {"rate": 0.5, "noise_shape": null, "trainable": false, "seed": null, "name": "dropout_35"}, "name": "dropout_35"}, {"class_name": "Dropout", "inbound_nodes": [[["dense1_18", 0, 0, {}]]], "config": {"rate": 0.5, "noise_shape": null, "trainable": false, "seed": null, "name": "dropout_37"}, "name": "dropout_37"}, {"class_name": "Dropout", "inbound_nodes": [[["dense1_19", 0, 0, {}]]], "config": {"rate": 0.5, "noise_shape": null, "trainable": false, "seed": null, "name": "dropout_39"}, "name": "dropout_39"}, {"class_name": "Dropout", "inbound_nodes": [[["dense1_20", 0, 0, {}]]], "config": {"rate": 0.5, "noise_shape": null, "trainable": false, "seed": null, "name": "dropout_41"}, "name": "dropout_41"}, {"class_name": "Dropout", "inbound_nodes": [[["dense1_21", 0, 0, {}]]], "config": {"rate": 0.5, "noise_shape": null, "trainable": false, "seed": null, "name": "dropout_43"}, "name": "dropout_43"}, {"class_name": "Dropout", "inbound_nodes": [[["dense1_22", 0, 0, {}]]], "config": {"rate": 0.5, "noise_shape": null, "trainable": false, "seed": null, "name": "dropout_45"}, "name": "dropout_45"}, {"class_name": "Dropout", "inbound_nodes": [[["dense1_23", 0, 0, {}]]], "config": {"rate": 0.5, "noise_shape": null, "trainable": false, "seed": null, "name": "dropout_47"}, "name": "dropout_47"}, {"class_name": "Dropout", "inbound_nodes": [[["dense1_24", 0, 0, {}]]], "config": {"rate": 0.5, "noise_shape": null, "trainable": false, "seed": null, "name": "dropout_49"}, "name": "dropout_49"}, {"class_name": "Dropout", "inbound_nodes": [[["dense1_25", 0, 0, {}]]], "config": {"rate": 0.5, "noise_shape": null, "trainable": false, "seed": null, "name": "dropout_51"}, "name": "dropout_51"}, {"class_name": "Dropout", "inbound_nodes": [[["dense1_26", 0, 0, {}]]], "config": {"rate": 0.5, "noise_shape": null, "trainable": false, "seed": null, "name": "dropout_53"}, "name": "dropout_53"}, {"class_name": "Dense", "inbound_nodes": [[["dropout_1", 0, 0, {}]]], "config": {"kernel_initializer": {"class_name": "VarianceScaling", "config": {"distribution": "uniform", "scale": 1.0, "seed": null, "mode": "fan_avg"}}, "name": "dense2_0", "kernel_constraint": null, "bias_regularizer": null, "bias_constraint": null, "activation": "relu", "trainable": false, "kernel_regularizer": null, "bias_initializer": {"class_name": "Zeros", "config": {}}, "units": 1024, "use_bias": true, "activity_regularizer": null}, "name": "dense2_0"}, {"class_name": "Dense", "inbound_nodes": [[["dropout_3", 0, 0, {}]]], "config": {"kernel_initializer": {"class_name": "VarianceScaling", "config": {"distribution": "uniform", "scale": 1.0, "seed": null, "mode": "fan_avg"}}, "name": "dense2_1", "kernel_constraint": null, "bias_regularizer": null, "bias_constraint": null, "activation": "relu", "trainable": false, "kernel_regularizer": null, "bias_initializer": {"class_name": "Zeros", "config": {}}, "units": 1024, "use_bias": true, "activity_regularizer": null}, "name": "dense2_1"}, {"class_name": "Dense", "inbound_nodes": [[["dropout_5", 0, 0, {}]]], "config": {"kernel_initializer": {"class_name": "VarianceScaling", "config": {"distribution": "uniform", "scale": 1.0, "seed": null, "mode": "fan_avg"}}, "name": "dense2_2", "kernel_constraint": null, "bias_regularizer": null, "bias_constraint": null, "activation": "relu", "trainable": false, "kernel_regularizer": null, "bias_initializer": {"class_name": "Zeros", "config": {}}, "units": 1024, "use_bias": true, "activity_regularizer": null}, "name": "dense2_2"}, {"class_name": "Dense", "inbound_nodes": [[["dropout_7", 0, 0, {}]]], "config": {"kernel_initializer": {"class_name": "VarianceScaling", "config": {"distribution": "uniform", "scale": 1.0, "seed": null, "mode": "fan_avg"}}, "name": "dense2_3", "kernel_constraint": null, "bias_regularizer": null, "bias_constraint": null, "activation": "relu", "trainable": false, "kernel_regularizer": null, "bias_initializer": {"class_name": "Zeros", "config": {}}, "units": 1024, "use_bias": true, "activity_regularizer": null}, "name": "dense2_3"}, {"class_name": "Dense", "inbound_nodes": [[["dropout_9", 0, 0, {}]]], "config": {"kernel_initializer": {"class_name": "VarianceScaling", "config": {"distribution": "uniform", "scale": 1.0, "seed": null, "mode": "fan_avg"}}, "name": "dense2_4", "kernel_constraint": null, "bias_regularizer": null, "bias_constraint": null, "activation": "relu", "trainable": false, "kernel_regularizer": null, "bias_initializer": {"class_name": "Zeros", "config": {}}, "units": 1024, "use_bias": true, "activity_regularizer": null}, "name": "dense2_4"}, {"class_name": "Dense", "inbound_nodes": [[["dropout_11", 0, 0, {}]]], "config": {"kernel_initializer": {"class_name": "VarianceScaling", "config": {"distribution": "uniform", "scale": 1.0, "seed": null, "mode": "fan_avg"}}, "name": "dense2_5", "kernel_constraint": null, "bias_regularizer": null, "bias_constraint": null, "activation": "relu", "trainable": false, "kernel_regularizer": null, "bias_initializer": {"class_name": "Zeros", "config": {}}, "units": 1024, "use_bias": true, "activity_regularizer": null}, "name": "dense2_5"}, {"class_name": "Dense", "inbound_nodes": [[["dropout_13", 0, 0, {}]]], "config": {"kernel_initializer": {"class_name": "VarianceScaling", "config": {"distribution": "uniform", "scale": 1.0, "seed": null, "mode": "fan_avg"}}, "name": "dense2_6", "kernel_constraint": null, "bias_regularizer": null, "bias_constraint": null, "activation": "relu", "trainable": false, "kernel_regularizer": null, "bias_initializer": {"class_name": "Zeros", "config": {}}, "units": 1024, "use_bias": true, "activity_regularizer": null}, "name": "dense2_6"}, {"class_name": "Dense", "inbound_nodes": [[["dropout_15", 0, 0, {}]]], "config": {"kernel_initializer": {"class_name": "VarianceScaling", "config": {"distribution": "uniform", "scale": 1.0, "seed": null, "mode": "fan_avg"}}, "name": "dense2_7", "kernel_constraint": null, "bias_regularizer": null, "bias_constraint": null, "activation": "relu", "trainable": false, "kernel_regularizer": null, "bias_initializer": {"class_name": "Zeros", "config": {}}, "units": 1024, "use_bias": true, "activity_regularizer": null}, "name": "dense2_7"}, {"class_name": "Dense", "inbound_nodes": [[["dropout_17", 0, 0, {}]]], "config": {"kernel_initializer": {"class_name": "VarianceScaling", "config": {"distribution": "uniform", "scale": 1.0, "seed": null, "mode": "fan_avg"}}, "name": "dense2_8", "kernel_constraint": null, "bias_regularizer": null, "bias_constraint": null, "activation": "relu", "trainable": false, "kernel_regularizer": null, "bias_initializer": {"class_name": "Zeros", "config": {}}, "units": 1024, "use_bias": true, "activity_regularizer": null}, "name": "dense2_8"}, {"class_name": "Dense", "inbound_nodes": [[["dropout_19", 0, 0, {}]]], "config": {"kernel_initializer": {"class_name": "VarianceScaling", "config": {"distribution": "uniform", "scale": 1.0, "seed": null, "mode": "fan_avg"}}, "name": "dense2_9", "kernel_constraint": null, "bias_regularizer": null, "bias_constraint": null, "activation": "relu", "trainable": false, "kernel_regularizer": null, "bias_initializer": {"class_name": "Zeros", "config": {}}, "units": 1024, "use_bias": true, "activity_regularizer": null}, "name": "dense2_9"}, {"class_name": "Dense", "inbound_nodes": [[["dropout_21", 0, 0, {}]]], "config": {"kernel_initializer": {"class_name": "VarianceScaling", "config": {"distribution": "uniform", "scale": 1.0, "seed": null, "mode": "fan_avg"}}, "name": "dense2_10", "kernel_constraint": null, "bias_regularizer": null, "bias_constraint": null, "activation": "relu", "trainable": false, "kernel_regularizer": null, "bias_initializer": {"class_name": "Zeros", "config": {}}, "units": 1024, "use_bias": true, "activity_regularizer": null}, "name": "dense2_10"}, {"class_name": "Dense", "inbound_nodes": [[["dropout_23", 0, 0, {}]]], "config": {"kernel_initializer": {"class_name": "VarianceScaling", "config": {"distribution": "uniform", "scale": 1.0, "seed": null, "mode": "fan_avg"}}, "name": "dense2_11", "kernel_constraint": null, "bias_regularizer": null, "bias_constraint": null, "activation": "relu", "trainable": false, "kernel_regularizer": null, "bias_initializer": {"class_name": "Zeros", "config": {}}, "units": 1024, "use_bias": true, "activity_regularizer": null}, "name": "dense2_11"}, {"class_name": "Dense", "inbound_nodes": [[["dropout_25", 0, 0, {}]]], "config": {"kernel_initializer": {"class_name": "VarianceScaling", "config": {"distribution": "uniform", "scale": 1.0, "seed": null, "mode": "fan_avg"}}, "name": "dense2_12", "kernel_constraint": null, "bias_regularizer": null, "bias_constraint": null, "activation": "relu", "trainable": false, "kernel_regularizer": null, "bias_initializer": {"class_name": "Zeros", "config": {}}, "units": 1024, "use_bias": true, "activity_regularizer": null}, "name": "dense2_12"}, {"class_name": "Dense", "inbound_nodes": [[["dropout_27", 0, 0, {}]]], "config": {"kernel_initializer": {"class_name": "VarianceScaling", "config": {"distribution": "uniform", "scale": 1.0, "seed": null, "mode": "fan_avg"}}, "name": "dense2_13", "kernel_constraint": null, "bias_regularizer": null, "bias_constraint": null, "activation": "relu", "trainable": false, "kernel_regularizer": null, "bias_initializer": {"class_name": "Zeros", "config": {}}, "units": 1024, "use_bias": true, "activity_regularizer": null}, "name": "dense2_13"}, {"class_name": "Dense", "inbound_nodes": [[["dropout_29", 0, 0, {}]]], "config": {"kernel_initializer": {"class_name": "VarianceScaling", "config": {"distribution": "uniform", "scale": 1.0, "seed": null, "mode": "fan_avg"}}, "name": "dense2_14", "kernel_constraint": null, "bias_regularizer": null, "bias_constraint": null, "activation": "relu", "trainable": false, "kernel_regularizer": null, "bias_initializer": {"class_name": "Zeros", "config": {}}, "units": 1024, "use_bias": true, "activity_regularizer": null}, "name": "dense2_14"}, {"class_name": "Dense", "inbound_nodes": [[["dropout_31", 0, 0, {}]]], "config": {"kernel_initializer": {"class_name": "VarianceScaling", "config": {"distribution": "uniform", "scale": 1.0, "seed": null, "mode": "fan_avg"}}, "name": "dense2_15", "kernel_constraint": null, "bias_regularizer": null, "bias_constraint": null, "activation": "relu", "trainable": false, "kernel_regularizer": null, "bias_initializer": {"class_name": "Zeros", "config": {}}, "units": 1024, "use_bias": true, "activity_regularizer": null}, "name": "dense2_15"}, {"class_name": "Dense", "inbound_nodes": [[["dropout_33", 0, 0, {}]]], "config": {"kernel_initializer": {"class_name": "VarianceScaling", "config": {"distribution": "uniform", "scale": 1.0, "seed": null, "mode": "fan_avg"}}, "name": "dense2_16", "kernel_constraint": null, "bias_regularizer": null, "bias_constraint": null, "activation": "relu", "trainable": false, "kernel_regularizer": null, "bias_initializer": {"class_name": "Zeros", "config": {}}, "units": 1024, "use_bias": true, "activity_regularizer": null}, "name": "dense2_16"}, {"class_name": "Dense", "inbound_nodes": [[["dropout_35", 0, 0, {}]]], "config": {"kernel_initializer": {"class_name": "VarianceScaling", "config": {"distribution": "uniform", "scale": 1.0, "seed": null, "mode": "fan_avg"}}, "name": "dense2_17", "kernel_constraint": null, "bias_regularizer": null, "bias_constraint": null, "activation": "relu", "trainable": false, "kernel_regularizer": null, "bias_initializer": {"class_name": "Zeros", "config": {}}, "units": 1024, "use_bias": true, "activity_regularizer": null}, "name": "dense2_17"}, {"class_name": "Dense", "inbound_nodes": [[["dropout_37", 0, 0, {}]]], "config": {"kernel_initializer": {"class_name": "VarianceScaling", "config": {"distribution": "uniform", "scale": 1.0, "seed": null, "mode": "fan_avg"}}, "name": "dense2_18", "kernel_constraint": null, "bias_regularizer": null, "bias_constraint": null, "activation": "relu", "trainable": false, "kernel_regularizer": null, "bias_initializer": {"class_name": "Zeros", "config": {}}, "units": 1024, "use_bias": true, "activity_regularizer": null}, "name": "dense2_18"}, {"class_name": "Dense", "inbound_nodes": [[["dropout_39", 0, 0, {}]]], "config": {"kernel_initializer": {"class_name": "VarianceScaling", "config": {"distribution": "uniform", "scale": 1.0, "seed": null, "mode": "fan_avg"}}, "name": "dense2_19", "kernel_constraint": null, "bias_regularizer": null, "bias_constraint": null, "activation": "relu", "trainable": false, "kernel_regularizer": null, "bias_initializer": {"class_name": "Zeros", "config": {}}, "units": 1024, "use_bias": true, "activity_regularizer": null}, "name": "dense2_19"}, {"class_name": "Dense", "inbound_nodes": [[["dropout_41", 0, 0, {}]]], "config": {"kernel_initializer": {"class_name": "VarianceScaling", "config": {"distribution": "uniform", "scale": 1.0, "seed": null, "mode": "fan_avg"}}, "name": "dense2_20", "kernel_constraint": null, "bias_regularizer": null, "bias_constraint": null, "activation": "relu", "trainable": false, "kernel_regularizer": null, "bias_initializer": {"class_name": "Zeros", "config": {}}, "units": 1024, "use_bias": true, "activity_regularizer": null}, "name": "dense2_20"}, {"class_name": "Dense", "inbound_nodes": [[["dropout_43", 0, 0, {}]]], "config": {"kernel_initializer": {"class_name": "VarianceScaling", "config": {"distribution": "uniform", "scale": 1.0, "seed": null, "mode": "fan_avg"}}, "name": "dense2_21", "kernel_constraint": null, "bias_regularizer": null, "bias_constraint": null, "activation": "relu", "trainable": false, "kernel_regularizer": null, "bias_initializer": {"class_name": "Zeros", "config": {}}, "units": 1024, "use_bias": true, "activity_regularizer": null}, "name": "dense2_21"}, {"class_name": "Dense", "inbound_nodes": [[["dropout_45", 0, 0, {}]]], "config": {"kernel_initializer": {"class_name": "VarianceScaling", "config": {"distribution": "uniform", "scale": 1.0, "seed": null, "mode": "fan_avg"}}, "name": "dense2_22", "kernel_constraint": null, "bias_regularizer": null, "bias_constraint": null, "activation": "relu", "trainable": false, "kernel_regularizer": null, "bias_initializer": {"class_name": "Zeros", "config": {}}, "units": 1024, "use_bias": true, "activity_regularizer": null}, "name": "dense2_22"}, {"class_name": "Dense", "inbound_nodes": [[["dropout_47", 0, 0, {}]]], "config": {"kernel_initializer": {"class_name": "VarianceScaling", "config": {"distribution": "uniform", "scale": 1.0, "seed": null, "mode": "fan_avg"}}, "name": "dense2_23", "kernel_constraint": null, "bias_regularizer": null, "bias_constraint": null, "activation": "relu", "trainable": false, "kernel_regularizer": null, "bias_initializer": {"class_name": "Zeros", "config": {}}, "units": 1024, "use_bias": true, "activity_regularizer": null}, "name": "dense2_23"}, {"class_name": "Dense", "inbound_nodes": [[["dropout_49", 0, 0, {}]]], "config": {"kernel_initializer": {"class_name": "VarianceScaling", "config": {"distribution": "uniform", "scale": 1.0, "seed": null, "mode": "fan_avg"}}, "name": "dense2_24", "kernel_constraint": null, "bias_regularizer": null, "bias_constraint": null, "activation": "relu", "trainable": false, "kernel_regularizer": null, "bias_initializer": {"class_name": "Zeros", "config": {}}, "units": 1024, "use_bias": true, "activity_regularizer": null}, "name": "dense2_24"}, {"class_name": "Dense", "inbound_nodes": [[["dropout_51", 0, 0, {}]]], "config": {"kernel_initializer": {"class_name": "VarianceScaling", "config": {"distribution": "uniform", "scale": 1.0, "seed": null, "mode": "fan_avg"}}, "name": "dense2_25", "kernel_constraint": null, "bias_regularizer": null, "bias_constraint": null, "activation": "relu", "trainable": false, "kernel_regularizer": null, "bias_initializer": {"class_name": "Zeros", "config": {}}, "units": 1024, "use_bias": true, "activity_regularizer": null}, "name": "dense2_25"}, {"class_name": "Dense", "inbound_nodes": [[["dropout_53", 0, 0, {}]]], "config": {"kernel_initializer": {"class_name": "VarianceScaling", "config": {"distribution": "uniform", "scale": 1.0, "seed": null, "mode": "fan_avg"}}, "name": "dense2_26", "kernel_constraint": null, "bias_regularizer": null, "bias_constraint": null, "activation": "relu", "trainable": false, "kernel_regularizer": null, "bias_initializer": {"class_name": "Zeros", "config": {}}, "units": 1024, "use_bias": true, "activity_regularizer": null}, "name": "dense2_26"}, {"class_name": "Dropout", "inbound_nodes": [[["dense2_0", 0, 0, {}]]], "config": {"rate": 0.5, "noise_shape": null, "trainable": false, "seed": null, "name": "dropout_2"}, "name": "dropout_2"}, {"class_name": "Dropout", "inbound_nodes": [[["dense2_1", 0, 0, {}]]], "config": {"rate": 0.5, "noise_shape": null, "trainable": false, "seed": null, "name": "dropout_4"}, "name": "dropout_4"}, {"class_name": "Dropout", "inbound_nodes": [[["dense2_2", 0, 0, {}]]], "config": {"rate": 0.5, "noise_shape": null, "trainable": false, "seed": null, "name": "dropout_6"}, "name": "dropout_6"}, {"class_name": "Dropout", "inbound_nodes": [[["dense2_3", 0, 0, {}]]], "config": {"rate": 0.5, "noise_shape": null, "trainable": false, "seed": null, "name": "dropout_8"}, "name": "dropout_8"}, {"class_name": "Dropout", "inbound_nodes": [[["dense2_4", 0, 0, {}]]], "config": {"rate": 0.5, "noise_shape": null, "trainable": false, "seed": null, "name": "dropout_10"}, "name": "dropout_10"}, {"class_name": "Dropout", "inbound_nodes": [[["dense2_5", 0, 0, {}]]], "config": {"rate": 0.5, "noise_shape": null, "trainable": false, "seed": null, "name": "dropout_12"}, "name": "dropout_12"}, {"class_name": "Dropout", "inbound_nodes": [[["dense2_6", 0, 0, {}]]], "config": {"rate": 0.5, "noise_shape": null, "trainable": false, "seed": null, "name": "dropout_14"}, "name": "dropout_14"}, {"class_name": "Dropout", "inbound_nodes": [[["dense2_7", 0, 0, {}]]], "config": {"rate": 0.5, "noise_shape": null, "trainable": false, "seed": null, "name": "dropout_16"}, "name": "dropout_16"}, {"class_name": "Dropout", "inbound_nodes": [[["dense2_8", 0, 0, {}]]], "config": {"rate": 0.5, "noise_shape": null, "trainable": false, "seed": null, "name": "dropout_18"}, "name": "dropout_18"}, {"class_name": "Dropout", "inbound_nodes": [[["dense2_9", 0, 0, {}]]], "config": {"rate": 0.5, "noise_shape": null, "trainable": false, "seed": null, "name": "dropout_20"}, "name": "dropout_20"}, {"class_name": "Dropout", "inbound_nodes": [[["dense2_10", 0, 0, {}]]], "config": {"rate": 0.5, "noise_shape": null, "trainable": false, "seed": null, "name": "dropout_22"}, "name": "dropout_22"}, {"class_name": "Dropout", "inbound_nodes": [[["dense2_11", 0, 0, {}]]], "config": {"rate": 0.5, "noise_shape": null, "trainable": false, "seed": null, "name": "dropout_24"}, "name": "dropout_24"}, {"class_name": "Dropout", "inbound_nodes": [[["dense2_12", 0, 0, {}]]], "config": {"rate": 0.5, "noise_shape": null, "trainable": false, "seed": null, "name": "dropout_26"}, "name": "dropout_26"}, {"class_name": "Dropout", "inbound_nodes": [[["dense2_13", 0, 0, {}]]], "config": {"rate": 0.5, "noise_shape": null, "trainable": false, "seed": null, "name": "dropout_28"}, "name": "dropout_28"}, {"class_name": "Dropout", "inbound_nodes": [[["dense2_14", 0, 0, {}]]], "config": {"rate": 0.5, "noise_shape": null, "trainable": false, "seed": null, "name": "dropout_30"}, "name": "dropout_30"}, {"class_name": "Dropout", "inbound_nodes": [[["dense2_15", 0, 0, {}]]], "config": {"rate": 0.5, "noise_shape": null, "trainable": false, "seed": null, "name": "dropout_32"}, "name": "dropout_32"}, {"class_name": "Dropout", "inbound_nodes": [[["dense2_16", 0, 0, {}]]], "config": {"rate": 0.5, "noise_shape": null, "trainable": false, "seed": null, "name": "dropout_34"}, "name": "dropout_34"}, {"class_name": "Dropout", "inbound_nodes": [[["dense2_17", 0, 0, {}]]], "config": {"rate": 0.5, "noise_shape": null, "trainable": false, "seed": null, "name": "dropout_36"}, "name": "dropout_36"}, {"class_name": "Dropout", "inbound_nodes": [[["dense2_18", 0, 0, {}]]], "config": {"rate": 0.5, "noise_shape": null, "trainable": false, "seed": null, "name": "dropout_38"}, "name": "dropout_38"}, {"class_name": "Dropout", "inbound_nodes": [[["dense2_19", 0, 0, {}]]], "config": {"rate": 0.5, "noise_shape": null, "trainable": false, "seed": null, "name": "dropout_40"}, "name": "dropout_40"}, {"class_name": "Dropout", "inbound_nodes": [[["dense2_20", 0, 0, {}]]], "config": {"rate": 0.5, "noise_shape": null, "trainable": false, "seed": null, "name": "dropout_42"}, "name": "dropout_42"}, {"class_name": "Dropout", "inbound_nodes": [[["dense2_21", 0, 0, {}]]], "config": {"rate": 0.5, "noise_shape": null, "trainable": false, "seed": null, "name": "dropout_44"}, "name": "dropout_44"}, {"class_name": "Dropout", "inbound_nodes": [[["dense2_22", 0, 0, {}]]], "config": {"rate": 0.5, "noise_shape": null, "trainable": false, "seed": null, "name": "dropout_46"}, "name": "dropout_46"}, {"class_name": "Dropout", "inbound_nodes": [[["dense2_23", 0, 0, {}]]], "config": {"rate": 0.5, "noise_shape": null, "trainable": false, "seed": null, "name": "dropout_48"}, "name": "dropout_48"}, {"class_name": "Dropout", "inbound_nodes": [[["dense2_24", 0, 0, {}]]], "config": {"rate": 0.5, "noise_shape": null, "trainable": false, "seed": null, "name": "dropout_50"}, "name": "dropout_50"}, {"class_name": "Dropout", "inbound_nodes": [[["dense2_25", 0, 0, {}]]], "config": {"rate": 0.5, "noise_shape": null, "trainable": false, "seed": null, "name": "dropout_52"}, "name": "dropout_52"}, {"class_name": "Dropout", "inbound_nodes": [[["dense2_26", 0, 0, {}]]], "config": {"rate": 0.5, "noise_shape": null, "trainable": false, "seed": null, "name": "dropout_54"}, "name": "dropout_54"}, {"class_name": "Dense", "inbound_nodes": [[["dropout_2", 0, 0, {}]]], "config": {"kernel_initializer": {"class_name": "VarianceScaling", "config": {"distribution": "uniform", "scale": 1.0, "seed": null, "mode": "fan_avg"}}, "name": "dense3_0", "kernel_constraint": null, "bias_regularizer": null, "bias_constraint": null, "activation": "relu", "trainable": false, "kernel_regularizer": null, "bias_initializer": {"class_name": "Zeros", "config": {}}, "units": 2, "use_bias": true, "activity_regularizer": null}, "name": "dense3_0"}, {"class_name": "Dense", "inbound_nodes": [[["dropout_4", 0, 0, {}]]], "config": {"kernel_initializer": {"class_name": "VarianceScaling", "config": {"distribution": "uniform", "scale": 1.0, "seed": null, "mode": "fan_avg"}}, "name": "dense3_1", "kernel_constraint": null, "bias_regularizer": null, "bias_constraint": null, "activation": "relu", "trainable": false, "kernel_regularizer": null, "bias_initializer": {"class_name": "Zeros", "config": {}}, "units": 2, "use_bias": true, "activity_regularizer": null}, "name": "dense3_1"}, {"class_name": "Dense", "inbound_nodes": [[["dropout_6", 0, 0, {}]]], "config": {"kernel_initializer": {"class_name": "VarianceScaling", "config": {"distribution": "uniform", "scale": 1.0, "seed": null, "mode": "fan_avg"}}, "name": "dense3_2", "kernel_constraint": null, "bias_regularizer": null, "bias_constraint": null, "activation": "relu", "trainable": false, "kernel_regularizer": null, "bias_initializer": {"class_name": "Zeros", "config": {}}, "units": 2, "use_bias": true, "activity_regularizer": null}, "name": "dense3_2"}, {"class_name": "Dense", "inbound_nodes": [[["dropout_8", 0, 0, {}]]], "config": {"kernel_initializer": {"class_name": "VarianceScaling", "config": {"distribution": "uniform", "scale": 1.0, "seed": null, "mode": "fan_avg"}}, "name": "dense3_3", "kernel_constraint": null, "bias_regularizer": null, "bias_constraint": null, "activation": "relu", "trainable": false, "kernel_regularizer": null, "bias_initializer": {"class_name": "Zeros", "config": {}}, "units": 2, "use_bias": true, "activity_regularizer": null}, "name": "dense3_3"}, {"class_name": "Dense", "inbound_nodes": [[["dropout_10", 0, 0, {}]]], "config": {"kernel_initializer": {"class_name": "VarianceScaling", "config": {"distribution": "uniform", "scale": 1.0, "seed": null, "mode": "fan_avg"}}, "name": "dense3_4", "kernel_constraint": null, "bias_regularizer": null, "bias_constraint": null, "activation": "relu", "trainable": false, "kernel_regularizer": null, "bias_initializer": {"class_name": "Zeros", "config": {}}, "units": 2, "use_bias": true, "activity_regularizer": null}, "name": "dense3_4"}, {"class_name": "Dense", "inbound_nodes": [[["dropout_12", 0, 0, {}]]], "config": {"kernel_initializer": {"class_name": "VarianceScaling", "config": {"distribution": "uniform", "scale": 1.0, "seed": null, "mode": "fan_avg"}}, "name": "dense3_5", "kernel_constraint": null, "bias_regularizer": null, "bias_constraint": null, "activation": "relu", "trainable": false, "kernel_regularizer": null, "bias_initializer": {"class_name": "Zeros", "config": {}}, "units": 2, "use_bias": true, "activity_regularizer": null}, "name": "dense3_5"}, {"class_name": "Dense", "inbound_nodes": [[["dropout_14", 0, 0, {}]]], "config": {"kernel_initializer": {"class_name": "VarianceScaling", "config": {"distribution": "uniform", "scale": 1.0, "seed": null, "mode": "fan_avg"}}, "name": "dense3_6", "kernel_constraint": null, "bias_regularizer": null, "bias_constraint": null, "activation": "relu", "trainable": false, "kernel_regularizer": null, "bias_initializer": {"class_name": "Zeros", "config": {}}, "units": 2, "use_bias": true, "activity_regularizer": null}, "name": "dense3_6"}, {"class_name": "Dense", "inbound_nodes": [[["dropout_16", 0, 0, {}]]], "config": {"kernel_initializer": {"class_name": "VarianceScaling", "config": {"distribution": "uniform", "scale": 1.0, "seed": null, "mode": "fan_avg"}}, "name": "dense3_7", "kernel_constraint": null, "bias_regularizer": null, "bias_constraint": null, "activation": "relu", "trainable": false, "kernel_regularizer": null, "bias_initializer": {"class_name": "Zeros", "config": {}}, "units": 2, "use_bias": true, "activity_regularizer": null}, "name": "dense3_7"}, {"class_name": "Dense", "inbound_nodes": [[["dropout_18", 0, 0, {}]]], "config": {"kernel_initializer": {"class_name": "VarianceScaling", "config": {"distribution": "uniform", "scale": 1.0, "seed": null, "mode": "fan_avg"}}, "name": "dense3_8", "kernel_constraint": null, "bias_regularizer": null, "bias_constraint": null, "activation": "relu", "trainable": false, "kernel_regularizer": null, "bias_initializer": {"class_name": "Zeros", "config": {}}, "units": 2, "use_bias": true, "activity_regularizer": null}, "name": "dense3_8"}, {"class_name": "Dense", "inbound_nodes": [[["dropout_20", 0, 0, {}]]], "config": {"kernel_initializer": {"class_name": "VarianceScaling", "config": {"distribution": "uniform", "scale": 1.0, "seed": null, "mode": "fan_avg"}}, "name": "dense3_9", "kernel_constraint": null, "bias_regularizer": null, "bias_constraint": null, "activation": "relu", "trainable": false, "kernel_regularizer": null, "bias_initializer": {"class_name": "Zeros", "config": {}}, "units": 2, "use_bias": true, "activity_regularizer": null}, "name": "dense3_9"}, {"class_name": "Dense", "inbound_nodes": [[["dropout_22", 0, 0, {}]]], "config": {"kernel_initializer": {"class_name": "VarianceScaling", "config": {"distribution": "uniform", "scale": 1.0, "seed": null, "mode": "fan_avg"}}, "name": "dense3_10", "kernel_constraint": null, "bias_regularizer": null, "bias_constraint": null, "activation": "relu", "trainable": false, "kernel_regularizer": null, "bias_initializer": {"class_name": "Zeros", "config": {}}, "units": 2, "use_bias": true, "activity_regularizer": null}, "name": "dense3_10"}, {"class_name": "Dense", "inbound_nodes": [[["dropout_24", 0, 0, {}]]], "config": {"kernel_initializer": {"class_name": "VarianceScaling", "config": {"distribution": "uniform", "scale": 1.0, "seed": null, "mode": "fan_avg"}}, "name": "dense3_11", "kernel_constraint": null, "bias_regularizer": null, "bias_constraint": null, "activation": "relu", "trainable": false, "kernel_regularizer": null, "bias_initializer": {"class_name": "Zeros", "config": {}}, "units": 2, "use_bias": true, "activity_regularizer": null}, "name": "dense3_11"}, {"class_name": "Dense", "inbound_nodes": [[["dropout_26", 0, 0, {}]]], "config": {"kernel_initializer": {"class_name": "VarianceScaling", "config": {"distribution": "uniform", "scale": 1.0, "seed": null, "mode": "fan_avg"}}, "name": "dense3_12", "kernel_constraint": null, "bias_regularizer": null, "bias_constraint": null, "activation": "relu", "trainable": false, "kernel_regularizer": null, "bias_initializer": {"class_name": "Zeros", "config": {}}, "units": 2, "use_bias": true, "activity_regularizer": null}, "name": "dense3_12"}, {"class_name": "Dense", "inbound_nodes": [[["dropout_28", 0, 0, {}]]], "config": {"kernel_initializer": {"class_name": "VarianceScaling", "config": {"distribution": "uniform", "scale": 1.0, "seed": null, "mode": "fan_avg"}}, "name": "dense3_13", "kernel_constraint": null, "bias_regularizer": null, "bias_constraint": null, "activation": "relu", "trainable": false, "kernel_regularizer": null, "bias_initializer": {"class_name": "Zeros", "config": {}}, "units": 2, "use_bias": true, "activity_regularizer": null}, "name": "dense3_13"}, {"class_name": "Dense", "inbound_nodes": [[["dropout_30", 0, 0, {}]]], "config": {"kernel_initializer": {"class_name": "VarianceScaling", "config": {"distribution": "uniform", "scale": 1.0, "seed": null, "mode": "fan_avg"}}, "name": "dense3_14", "kernel_constraint": null, "bias_regularizer": null, "bias_constraint": null, "activation": "relu", "trainable": false, "kernel_regularizer": null, "bias_initializer": {"class_name": "Zeros", "config": {}}, "units": 2, "use_bias": true, "activity_regularizer": null}, "name": "dense3_14"}, {"class_name": "Dense", "inbound_nodes": [[["dropout_32", 0, 0, {}]]], "config": {"kernel_initializer": {"class_name": "VarianceScaling", "config": {"distribution": "uniform", "scale": 1.0, "seed": null, "mode": "fan_avg"}}, "name": "dense3_15", "kernel_constraint": null, "bias_regularizer": null, "bias_constraint": null, "activation": "relu", "trainable": false, "kernel_regularizer": null, "bias_initializer": {"class_name": "Zeros", "config": {}}, "units": 2, "use_bias": true, "activity_regularizer": null}, "name": "dense3_15"}, {"class_name": "Dense", "inbound_nodes": [[["dropout_34", 0, 0, {}]]], "config": {"kernel_initializer": {"class_name": "VarianceScaling", "config": {"distribution": "uniform", "scale": 1.0, "seed": null, "mode": "fan_avg"}}, "name": "dense3_16", "kernel_constraint": null, "bias_regularizer": null, "bias_constraint": null, "activation": "relu", "trainable": false, "kernel_regularizer": null, "bias_initializer": {"class_name": "Zeros", "config": {}}, "units": 2, "use_bias": true, "activity_regularizer": null}, "name": "dense3_16"}, {"class_name": "Dense", "inbound_nodes": [[["dropout_36", 0, 0, {}]]], "config": {"kernel_initializer": {"class_name": "VarianceScaling", "config": {"distribution": "uniform", "scale": 1.0, "seed": null, "mode": "fan_avg"}}, "name": "dense3_17", "kernel_constraint": null, "bias_regularizer": null, "bias_constraint": null, "activation": "relu", "trainable": false, "kernel_regularizer": null, "bias_initializer": {"class_name": "Zeros", "config": {}}, "units": 2, "use_bias": true, "activity_regularizer": null}, "name": "dense3_17"}, {"class_name": "Dense", "inbound_nodes": [[["dropout_38", 0, 0, {}]]], "config": {"kernel_initializer": {"class_name": "VarianceScaling", "config": {"distribution": "uniform", "scale": 1.0, "seed": null, "mode": "fan_avg"}}, "name": "dense3_18", "kernel_constraint": null, "bias_regularizer": null, "bias_constraint": null, "activation": "relu", "trainable": false, "kernel_regularizer": null, "bias_initializer": {"class_name": "Zeros", "config": {}}, "units": 2, "use_bias": true, "activity_regularizer": null}, "name": "dense3_18"}, {"class_name": "Dense", "inbound_nodes": [[["dropout_40", 0, 0, {}]]], "config": {"kernel_initializer": {"class_name": "VarianceScaling", "config": {"distribution": "uniform", "scale": 1.0, "seed": null, "mode": "fan_avg"}}, "name": "dense3_19", "kernel_constraint": null, "bias_regularizer": null, "bias_constraint": null, "activation": "relu", "trainable": false, "kernel_regularizer": null, "bias_initializer": {"class_name": "Zeros", "config": {}}, "units": 2, "use_bias": true, "activity_regularizer": null}, "name": "dense3_19"}, {"class_name": "Dense", "inbound_nodes": [[["dropout_42", 0, 0, {}]]], "config": {"kernel_initializer": {"class_name": "VarianceScaling", "config": {"distribution": "uniform", "scale": 1.0, "seed": null, "mode": "fan_avg"}}, "name": "dense3_20", "kernel_constraint": null, "bias_regularizer": null, "bias_constraint": null, "activation": "relu", "trainable": false, "kernel_regularizer": null, "bias_initializer": {"class_name": "Zeros", "config": {}}, "units": 2, "use_bias": true, "activity_regularizer": null}, "name": "dense3_20"}, {"class_name": "Dense", "inbound_nodes": [[["dropout_44", 0, 0, {}]]], "config": {"kernel_initializer": {"class_name": "VarianceScaling", "config": {"distribution": "uniform", "scale": 1.0, "seed": null, "mode": "fan_avg"}}, "name": "dense3_21", "kernel_constraint": null, "bias_regularizer": null, "bias_constraint": null, "activation": "relu", "trainable": false, "kernel_regularizer": null, "bias_initializer": {"class_name": "Zeros", "config": {}}, "units": 2, "use_bias": true, "activity_regularizer": null}, "name": "dense3_21"}, {"class_name": "Dense", "inbound_nodes": [[["dropout_46", 0, 0, {}]]], "config": {"kernel_initializer": {"class_name": "VarianceScaling", "config": {"distribution": "uniform", "scale": 1.0, "seed": null, "mode": "fan_avg"}}, "name": "dense3_22", "kernel_constraint": null, "bias_regularizer": null, "bias_constraint": null, "activation": "relu", "trainable": false, "kernel_regularizer": null, "bias_initializer": {"class_name": "Zeros", "config": {}}, "units": 2, "use_bias": true, "activity_regularizer": null}, "name": "dense3_22"}, {"class_name": "Dense", "inbound_nodes": [[["dropout_48", 0, 0, {}]]], "config": {"kernel_initializer": {"class_name": "VarianceScaling", "config": {"distribution": "uniform", "scale": 1.0, "seed": null, "mode": "fan_avg"}}, "name": "dense3_23", "kernel_constraint": null, "bias_regularizer": null, "bias_constraint": null, "activation": "relu", "trainable": false, "kernel_regularizer": null, "bias_initializer": {"class_name": "Zeros", "config": {}}, "units": 2, "use_bias": true, "activity_regularizer": null}, "name": "dense3_23"}, {"class_name": "Dense", "inbound_nodes": [[["dropout_50", 0, 0, {}]]], "config": {"kernel_initializer": {"class_name": "VarianceScaling", "config": {"distribution": "uniform", "scale": 1.0, "seed": null, "mode": "fan_avg"}}, "name": "dense3_24", "kernel_constraint": null, "bias_regularizer": null, "bias_constraint": null, "activation": "relu", "trainable": false, "kernel_regularizer": null, "bias_initializer": {"class_name": "Zeros", "config": {}}, "units": 2, "use_bias": true, "activity_regularizer": null}, "name": "dense3_24"}, {"class_name": "Dense", "inbound_nodes": [[["dropout_52", 0, 0, {}]]], "config": {"kernel_initializer": {"class_name": "VarianceScaling", "config": {"distribution": "uniform", "scale": 1.0, "seed": null, "mode": "fan_avg"}}, "name": "dense3_25", "kernel_constraint": null, "bias_regularizer": null, "bias_constraint": null, "activation": "relu", "trainable": false, "kernel_regularizer": null, "bias_initializer": {"class_name": "Zeros", "config": {}}, "units": 2, "use_bias": true, "activity_regularizer": null}, "name": "dense3_25"}, {"class_name": "Dense", "inbound_nodes": [[["dropout_54", 0, 0, {}]]], "config": {"kernel_initializer": {"class_name": "VarianceScaling", "config": {"distribution": "uniform", "scale": 1.0, "seed": null, "mode": "fan_avg"}}, "name": "dense3_26", "kernel_constraint": null, "bias_regularizer": null, "bias_constraint": null, "activation": "relu", "trainable": false, "kernel_regularizer": null, "bias_initializer": {"class_name": "Zeros", "config": {}}, "units": 2, "use_bias": true, "activity_regularizer": null}, "name": "dense3_26"}, {"class_name": "Concatenate", "inbound_nodes": [[["dense3_0", 0, 0, {}], ["dense3_1", 0, 0, {}], ["dense3_2", 0, 0, {}]]], "config": {"trainable": true, "name": "concatenate_1", "axis": -1}, "name": "concatenate_1"}, {"class_name": "Concatenate", "inbound_nodes": [[["dense3_3", 0, 0, {}], ["dense3_4", 0, 0, {}], ["dense3_5", 0, 0, {}]]], "config": {"trainable": true, "name": "concatenate_2", "axis": -1}, "name": "concatenate_2"}, {"class_name": "Concatenate", "inbound_nodes": [[["dense3_6", 0, 0, {}], ["dense3_7", 0, 0, {}], ["dense3_8", 0, 0, {}]]], "config": {"trainable": true, "name": "concatenate_3", "axis": -1}, "name": "concatenate_3"}, {"class_name": "Concatenate", "inbound_nodes": [[["dense3_9", 0, 0, {}], ["dense3_10", 0, 0, {}], ["dense3_11", 0, 0, {}]]], "config": {"trainable": true, "name": "concatenate_4", "axis": -1}, "name": "concatenate_4"}, {"class_name": "Concatenate", "inbound_nodes": [[["dense3_12", 0, 0, {}], ["dense3_13", 0, 0, {}], ["dense3_14", 0, 0, {}]]], "config": {"trainable": true, "name": "concatenate_5", "axis": -1}, "name": "concatenate_5"}, {"class_name": "Concatenate", "inbound_nodes": [[["dense3_15", 0, 0, {}], ["dense3_16", 0, 0, {}], ["dense3_17", 0, 0, {}]]], "config": {"trainable": true, "name": "concatenate_6", "axis": -1}, "name": "concatenate_6"}, {"class_name": "Concatenate", "inbound_nodes": [[["dense3_18", 0, 0, {}], ["dense3_19", 0, 0, {}], ["dense3_20", 0, 0, {}]]], "config": {"trainable": true, "name": "concatenate_7", "axis": -1}, "name": "concatenate_7"}, {"class_name": "Concatenate", "inbound_nodes": [[["dense3_21", 0, 0, {}], ["dense3_22", 0, 0, {}], ["dense3_23", 0, 0, {}]]], "config": {"trainable": true, "name": "concatenate_8", "axis": -1}, "name": "concatenate_8"}, {"class_name": "Concatenate", "inbound_nodes": [[["dense3_24", 0, 0, {}], ["dense3_25", 0, 0, {}], ["dense3_26", 0, 0, {}]]], "config": {"trainable": true, "name": "concatenate_9", "axis": -1}, "name": "concatenate_9"}, {"class_name": "Dense", "inbound_nodes": [[["concatenate_1", 0, 0, {}]]], "config": {"kernel_initializer": {"class_name": "VarianceScaling", "config": {"distribution": "uniform", "scale": 1.0, "seed": null, "mode": "fan_avg"}}, "name": "KBC_v1", "kernel_constraint": null, "bias_regularizer": null, "bias_constraint": null, "activation": "relu", "trainable": true, "kernel_regularizer": null, "bias_initializer": {"class_name": "Zeros", "config": {}}, "units": 2, "use_bias": true, "activity_regularizer": null}, "name": "KBC_v1"}, {"class_name": "Dense", "inbound_nodes": [[["concatenate_2", 0, 0, {}]]], "config": {"kernel_initializer": {"class_name": "VarianceScaling", "config": {"distribution": "uniform", "scale": 1.0, "seed": null, "mode": "fan_avg"}}, "name": "KBC_v2", "kernel_constraint": null, "bias_regularizer": null, "bias_constraint": null, "activation": "relu", "trainable": true, "kernel_regularizer": null, "bias_initializer": {"class_name": "Zeros", "config": {}}, "units": 2, "use_bias": true, "activity_regularizer": null}, "name": "KBC_v2"}, {"class_name": "Dense", "inbound_nodes": [[["concatenate_3", 0, 0, {}]]], "config": {"kernel_initializer": {"class_name": "VarianceScaling", "config": {"distribution": "uniform", "scale": 1.0, "seed": null, "mode": "fan_avg"}}, "name": "KBC_v3", "kernel_constraint": null, "bias_regularizer": null, "bias_constraint": null, "activation": "relu", "trainable": true, "kernel_regularizer": null, "bias_initializer": {"class_name": "Zeros", "config": {}}, "units": 2, "use_bias": true, "activity_regularizer": null}, "name": "KBC_v3"}, {"class_name": "Dense", "inbound_nodes": [[["concatenate_4", 0, 0, {}]]], "config": {"kernel_initializer": {"class_name": "VarianceScaling", "config": {"distribution": "uniform", "scale": 1.0, "seed": null, "mode": "fan_avg"}}, "name": "KBC_v4", "kernel_constraint": null, "bias_regularizer": null, "bias_constraint": null, "activation": "relu", "trainable": true, "kernel_regularizer": null, "bias_initializer": {"class_name": "Zeros", "config": {}}, "units": 2, "use_bias": true, "activity_regularizer": null}, "name": "KBC_v4"}, {"class_name": "Dense", "inbound_nodes": [[["concatenate_5", 0, 0, {}]]], "config": {"kernel_initializer": {"class_name": "VarianceScaling", "config": {"distribution": "uniform", "scale": 1.0, "seed": null, "mode": "fan_avg"}}, "name": "KBC_v5", "kernel_constraint": null, "bias_regularizer": null, "bias_constraint": null, "activation": "relu", "trainable": true, "kernel_regularizer": null, "bias_initializer": {"class_name": "Zeros", "config": {}}, "units": 2, "use_bias": true, "activity_regularizer": null}, "name": "KBC_v5"}, {"class_name": "Dense", "inbound_nodes": [[["concatenate_6", 0, 0, {}]]], "config": {"kernel_initializer": {"class_name": "VarianceScaling", "config": {"distribution": "uniform", "scale": 1.0, "seed": null, "mode": "fan_avg"}}, "name": "KBC_v6", "kernel_constraint": null, "bias_regularizer": null, "bias_constraint": null, "activation": "relu", "trainable": true, "kernel_regularizer": null, "bias_initializer": {"class_name": "Zeros", "config": {}}, "units": 2, "use_bias": true, "activity_regularizer": null}, "name": "KBC_v6"}, {"class_name": "Dense", "inbound_nodes": [[["concatenate_7", 0, 0, {}]]], "config": {"kernel_initializer": {"class_name": "VarianceScaling", "config": {"distribution": "uniform", "scale": 1.0, "seed": null, "mode": "fan_avg"}}, "name": "KBC_v7", "kernel_constraint": null, "bias_regularizer": null, "bias_constraint": null, "activation": "relu", "trainable": true, "kernel_regularizer": null, "bias_initializer": {"class_name": "Zeros", "config": {}}, "units": 2, "use_bias": true, "activity_regularizer": null}, "name": "KBC_v7"}, {"class_name": "Dense", "inbound_nodes": [[["concatenate_8", 0, 0, {}]]], "config": {"kernel_initializer": {"class_name": "VarianceScaling", "config": {"distribution": "uniform", "scale": 1.0, "seed": null, "mode": "fan_avg"}}, "name": "KBC_v8", "kernel_constraint": null, "bias_regularizer": null, "bias_constraint": null, "activation": "relu", "trainable": true, "kernel_regularizer": null, "bias_initializer": {"class_name": "Zeros", "config": {}}, "units": 2, "use_bias": true, "activity_regularizer": null}, "name": "KBC_v8"}, {"class_name": "Dense", "inbound_nodes": [[["concatenate_9", 0, 0, {}]]], "config": {"kernel_initializer": {"class_name": "VarianceScaling", "config": {"distribution": "uniform", "scale": 1.0, "seed": null, "mode": "fan_avg"}}, "name": "KBC_v9", "kernel_constraint": null, "bias_regularizer": null, "bias_constraint": null, "activation": "relu", "trainable": true, "kernel_regularizer": null, "bias_initializer": {"class_name": "Zeros", "config": {}}, "units": 2, "use_bias": true, "activity_regularizer": null}, "name": "KBC_v9"}, {"class_name": "Concatenate", "inbound_nodes": [[["KBC_v1", 0, 0, {}], ["KBC_v2", 0, 0, {}], ["KBC_v3", 0, 0, {}], ["KBC_v4", 0, 0, {}], ["KBC_v5", 0, 0, {}], ["KBC_v6", 0, 0, {}], ["KBC_v7", 0, 0, {}], ["KBC_v8", 0, 0, {}], ["KBC_v9", 0, 0, {}]]], "config": {"trainable": true, "name": "concatenate_10", "axis": -1}, "name": "concatenate_10"}, {"class_name": "Dense", "inbound_nodes": [[["concatenate_10", 0, 0, {}]]], "config": {"kernel_initializer": {"class_name": "VarianceScaling", "config": {"distribution": "uniform", "scale": 1.0, "seed": null, "mode": "fan_avg"}}, "name": "MVKBC", "kernel_constraint": null, "bias_regularizer": null, "bias_constraint": null, "activation": "sigmoid", "trainable": true, "kernel_regularizer": null, "bias_initializer": {"class_name": "Zeros", "config": {}}, "units": 1, "use_bias": true, "activity_regularizer": null}, "name": "MVKBC"}], "input_layers": [["input_1", 0, 0], ["input_2", 0, 0], ["input_3", 0, 0], ["input_4", 0, 0], ["input_5", 0, 0], ["input_6", 0, 0], ["input_7", 0, 0], ["input_8", 0, 0], ["input_9", 0, 0], ["input_10", 0, 0], ["input_11", 0, 0], ["input_12", 0, 0], ["input_13", 0, 0], ["input_14", 0, 0], ["input_15", 0, 0], ["input_16", 0, 0], ["input_17", 0, 0], ["input_18", 0, 0], ["input_19", 0, 0], ["input_20", 0, 0], ["input_21", 0, 0], ["input_22", 0, 0], ["input_23", 0, 0], ["input_24", 0, 0], ["input_25", 0, 0], ["input_26", 0, 0], ["input_27", 0, 0]], "name": "model_28", "output_layers": [["MVKBC", 0, 0]]}, "inbound_nodes": [[["lambda_1", 0, 0, {}], ["lambda_2", 0, 0, {}], ["lambda_3", 0, 0, {}], ["lambda_4", 0, 0, {}], ["lambda_5", 0, 0, {}], ["lambda_6", 0, 0, {}], ["lambda_7", 0, 0, {}], ["lambda_8", 0, 0, {}], ["lambda_9", 0, 0, {}], ["lambda_10", 0, 0, {}], ["lambda_11", 0, 0, {}], ["lambda_12", 0, 0, {}], ["lambda_13", 0, 0, {}], ["lambda_14", 0, 0, {}], ["lambda_15", 0, 0, {}], ["lambda_16", 0, 0, {}], ["lambda_17", 0, 0, {}], ["lambda_18", 0, 0, {}], ["lambda_19", 0, 0, {}], ["lambda_20", 0, 0, {}], ["lambda_21", 0, 0, {}], ["lambda_22", 0, 0, {}], ["lambda_23", 0, 0, {}], ["lambda_24", 0, 0, {}], ["lambda_25", 0, 0, {}], ["lambda_26", 0, 0, {}], ["lambda_27", 0, 0, {}]], [["lambda_28", 0, 0, {}], ["lambda_29", 0, 0, {}], ["lambda_30", 0, 0, {}], ["lambda_31", 0, 0, {}], ["lambda_32", 0, 0, {}], ["lambda_33", 0, 0, {}], ["lambda_34", 0, 0, {}], ["lambda_35", 0, 0, {}], ["lambda_36", 0, 0, {}], ["lambda_37", 0, 0, {}], ["lambda_38", 0, 0, {}], ["lambda_39", 0, 0, {}], ["lambda_40", 0, 0, {}], ["lambda_41", 0, 0, {}], ["lambda_42", 0, 0, {}], ["lambda_43", 0, 0, {}], ["lambda_44", 0, 0, {}], ["lambda_45", 0, 0, {}], ["lambda_46", 0, 0, {}], ["lambda_47", 0, 0, {}], ["lambda_48", 0, 0, {}], ["lambda_49", 0, 0, {}], ["lambda_50", 0, 0, {}], ["lambda_51", 0, 0, {}], ["lambda_52", 0, 0, {}], ["lambda_53", 0, 0, {}], ["lambda_54", 0, 0, {}]]], "name": "model_28"}, {"class_name": "Concatenate", "config": {"trainable": true, "name": "MVKBC", "axis": 0}, "inbound_nodes": [[["model_28", 1, 0, {}], ["model_28", 2, 0, {}]]], "name": "MVKBC"}], "input_layers": [["input_1", 0, 0], ["input_2", 0, 0], ["input_3", 0, 0], ["input_4", 0, 0], ["input_5", 0, 0], ["input_6", 0, 0], ["input_7", 0, 0], ["input_8", 0, 0], ["input_9", 0, 0], ["input_10", 0, 0], ["input_11", 0, 0], ["input_12", 0, 0], ["input_13", 0, 0], ["input_14", 0, 0], ["input_15", 0, 0], ["input_16", 0, 0], ["input_17", 0, 0], ["input_18", 0, 0], ["input_19", 0, 0], ["input_20", 0, 0], ["input_21", 0, 0], ["input_22", 0, 0], ["input_23", 0, 0], ["input_24", 0, 0], ["input_25", 0, 0], ["input_26", 0, 0], ["input_27", 0, 0]], "output_layers": [["MVKBC", 0, 0]], "name": "model_29"}, "backend": "tensorflow"}